Pipeline/Bonus_EDA/dnn_ae_v9_ls_14.pth (torch, 92785 bytes, 12 tensors)

encoder.0.weight f4 [128, 14]
000000 67 19 6b 3d 13 4b 94 3e 49 32 50 bd cf 03 ff 3d
       0.057397272 0.28963527 -0.050829206 0.12451898
000010 05 a2 b1 3d d4 bd d4 bd 00 1e 17 bd 86 7e 09 3e
       0.08673481 -0.10387769 -0.036893845 0.13427171
000020 8c 76 41 3e 65 0c 13 3d a9 d7 a9 3d 60 69 15 3e
       0.18892878 0.035900492 0.08293087 0.14590979
000030 03 2f 15 be a1 57 0f 3e f0 c6 92 3d 24 24 7e 3e
       -0.14568715 0.13998272 0.071668506 0.24818474
000040 11 11 72 be dc 88 2e 3e 15 4f 5b 3e 4b 05 3f bd
       -0.23639323 0.17044395 0.21416886 -0.046635907
000050 7e 25 45 be 57 24 2e 3e d7 78 c5 3c 4d be 69 be
       -0.19252583 0.1700605 0.024105472 -0.228265
000060 f6 ef cb bd 5d 81 38 3e 29 14 90 3d af 5a 8a 3e
       -0.09957878 0.18018098 0.07035095 0.2702231
000070 58 a6 96 bc 4f e1 92 3e 15 8c 73 bc 50 53 2e be
       -0.018389866 0.28687522 -0.014864941 -0.17023969
000080 4a c9 8c 3d c0 13 52 bd 4a f8 ba bd 25 91 0e be
       0.0687433 -0.051288366 -0.09129389 -0.13922556
000090 ff 19 85 3d 9e c1 42 3e 76 f1 fa 3d 4e 45 53 3e
       0.06499099 0.19019172 0.12253086 0.20631906
0000a0 fe 1f 16 be 23 4e c5 3d 5c 60 a6 bd c3 69 4a bd
       -0.14660642 0.09634044 -0.08123848 -0.04941727
0000b0 cd b8 27 be 7d b1 33 3e eb 77 13 3e a8 80 72 3c
       -0.1637909 0.17548175 0.14401214 0.014801182
0000c0 09 49 d3 3d 51 1a 46 bd d5 0d 02 3d 80 82 ef bc
       0.10316665 -0.04836494 0.031751473 -0.029237032
0000d0 ca f5 3c be 56 b2 2a bd f3 eb a2 3d f3 73 ca 3d
       -0.18453136 -0.04167398 0.0795516 0.09885397
0000e0 10 7c 61 3d 7a e2 8f bd 1c 9a bb b2 9e a1 8f 36
       0.055049956 -0.07025619 -2.1839746e-08 4.280547e-06
0000f0 09 f2 3e bd 61 d7 26 b7 0b 81 66 3c 52 f9 23 bd
       -0.04661754 -9.944518e-06 0.014068852 -0.040032692
000100 33 84 83 bd 85 94 a6 bd 1f 9a a0 bd 0e 52 9e 3b
       -0.064216994 -0.081337966 -0.07841896 0.004831559
000110 d1 bb 98 bd 70 0b 55 bd c0 94 6a bc 58 e9 82 3e
       -0.07457698 -0.05201286 -0.014317691 0.25568652
000120 6f d4 a3 3d b6 81 81 3e 1e 3b cf bb 3b 3c f5 bc
       0.07999503 0.25294274 -0.006324186 -0.029935947
000130 fb 5c 07 be 4b 6c 82 3e f9 dd 36 bd 30 fd ba bd
       -0.13219063 0.25473246 -0.044645283 -0.09130323
000140 63 c3 69 be 5c 72 4e bd bc eb 6c bd e1 05 47 bd
       -0.2282844 -0.05040203 -0.057842 -0.04858959
000150 5b ca 7a 3c eb bc 4f be 73 d2 7c 3e 10 70 2d be
       0.015307034 -0.2028691 0.24689655 -0.1693728
000160 73 b6 57 3e b4 8b d0 bd 36 0f ac 3d c6 eb 38 3c
       0.21065693 -0.10182896 0.08401339 0.0112866815
000170 fc ff 24 3e e4 fa fa 3d 9a 68 5f bd 99 3e 6a be
       0.16113275 0.12254885 -0.054543115 -0.22875442
000180 38 34 b8 bd 04 b6 9b 3d 73 4c cc 3d 9a b7 c6 bd
       -0.08994335 0.07603076 0.09975519 -0.09702988
000190 3e 65 e2 bc 88 d2 b2 3c b2 bc 78 3e b4 af a2 bd
       -0.027636167 0.021828905 0.24290732 -0.07943669
0001a0 d8 77 05 be cd 5d 2c 3c 20 a6 90 3d 43 7a 17 3e
       -0.13033998 0.010520411 0.07062936 0.14792733
0001b0 bd 84 6d 3e 5e f5 4b 3e f5 72 d2 3c 0d 14 56 3e
       0.23195167 0.19917819 0.025689581 0.20906086
0001c0 11 04 d2 bd fe fd 58 bb b7 71 b1 b2 f0 a5 29 36
       -0.10254682 -0.0033110376 -2.0657223e-08 2.527955e-06
0001d0 78 f5 8b bd b8 23 98 36 34 7b 5f bd 2d 32 c3 b6
       -0.06833929 4.534111e-06 -0.054560855 -5.817294e-06
0001e0 94 6a ce bd 01 1f f7 bc c2 76 c7 bd 61 14 8a 35
       -0.10078922 -0.030166151 -0.09739448 1.0287732e-06
0001f0 8c d9 5c b7 6a f9 b0 bd b7 d3 53 3e 02 a2 95 3e
       -1.3163673e-05 -0.08641322 0.20686232 0.29225165
000200 f2 08 42 3d 87 ca 73 be 2c b2 0c 3e ab f5 0d be
       0.047371812 -0.23807727 0.13739842 -0.13863246
000210 ff af 9c 3d 92 1f 17 bd a2 dc 78 be f0 ec 02 3e
       0.07650756 -0.036895342 -0.24302915 0.12785697
000220 02 8e ea 3b 22 76 04 3e 5e 8e 97 3d 5f d1 49 3e
       0.007158042 0.12935689 0.07400201 0.19708775
000230 66 fa 40 3d 20 80 9e bd c7 ce 4c bc 89 9a 3b bd
       0.0471138 -0.07739282 -0.012500471 -0.045801673
000240 61 fd 25 3e 6d 69 6e 3d 1f d8 1e 3d de 27 17 bc
       0.16209938 0.05820601 0.038780328 -0.009225814
000250 b7 69 06 bd 6e ee 08 3d ea 8b b2 3d 04 2f e5 3d
       -0.03281566 0.03343051 0.08718093 0.11190608
000260 a3 fe 99 3d 96 10 b6 3d d5 52 91 3e 0a 34 9b 3e
       0.07519271 0.08889882 0.28383508 0.3031314
000270 f0 9d 99 3d e6 18 37 be 25 22 86 bc 97 4a 9b bd
       0.07500827 -0.17880592 -0.016373703 -0.07582586
000280 b8 b1 1a bd 66 b4 f1 bb f1 2b 79 bd 5f e1 56 be
       -0.037767142 -0.0073762415 -0.06083292 -0.2098441
000290 1b b1 ba 3d 58 9e 55 be 22 cb fc 3d df f1 60 3e
       0.091158114 -0.20861185 0.12343432 0.21967266
0002a0 73 15 0a be f5 da 2d 3e 06 b1 11 be df 64 67 bc
       -0.13484745 0.16978057 -0.14227685 -0.014123171
0002b0 11 fd 15 be b6 50 90 3d ff 4a 62 3d 46 3c 65 3e
       -0.14647318 0.070466444 0.055247303 0.22386274
0002c0 e3 73 e4 bd d2 db 46 3e b6 c7 52 bd 65 90 2b be
       -0.11154916 0.19419792 -0.05145999 -0.16754301
0002d0 37 e1 34 bd da 75 03 be 32 70 e5 bd ba 98 2a be
       -0.044160094 -0.12837926 -0.1120304 -0.16659823
0002e0 5a 15 17 3e 93 ee 13 be ca 68 54 3d 51 48 02 3c
       0.14754239 -0.14446478 0.051857747 0.007951812
0002f0 4f c6 b5 3c 63 ab bb 3d 86 24 aa bd ba cd 6a 3e
       0.022189287 0.09163549 -0.083077475 0.22930041
000300 2e f3 f7 bd 9e 15 43 3e be 88 a7 bd 6b c0 54 be
       -0.1210693 0.19051215 -0.081803784 -0.20776527
000310 9b e7 4d be 3b b0 2c 3d 24 a4 b2 3b f3 f8 aa 3d
       -0.20107882 0.042160254 0.005451696 0.083482645
000320 fb 81 08 3e a0 50 29 3d c2 24 30 3e 22 4d ad 3d
       0.13330834 0.041336656 0.17201522 0.084619775
000330 62 bc d7 bd 55 68 8a 3d c6 ea 17 be da 7e b2 3d
       -0.10533978 0.06758181 -0.14835653 0.08715601
000340 69 71 f7 bd 9c 00 03 bc 9d 56 3c 3c 6a e7 5e b9
       -0.12082178 -0.007995751 0.01149526 -0.00021257778
000350 b7 54 ba 36 e1 25 76 bd c4 58 de b6 ab ef ab 34
       5.553094e-06 -0.060094718 -6.6264492e-06 3.2025613e-07
000360 74 02 5b 34 5a b3 a8 34 19 96 bd bd 1a e3 69 bc
       2.0396857e-07 3.1422934e-07 -0.092571445 -0.014275337
000370 12 68 61 bd 3b 5f 2b b7 a9 ff 23 3c f8 b2 49 3a
       -0.05503089 -1.0214567e-05 0.010009685 0.000769421
000380 b2 d5 36 3c 25 c5 30 bd 80 f4 82 3c c2 a4 b6 3d
       0.011159347 -0.04315676 0.015985727 0.08918144
000390 68 4b 8e 3e 01 a9 73 3d 41 9a 19 3d 92 84 1a 3c
       0.27791905 0.059487347 0.037500624 0.009431021
0003a0 59 c4 0e 3e 36 37 b6 3c 24 3a 17 bd 28 37 4f bc
       0.13942088 0.022243124 -0.03692068 -0.012647428
0003b0 b7 a1 b0 bd fb 42 ab bd ab ce 20 be a1 43 92 3e
       -0.08624595 -0.08362385 -0.15703838 0.28567222
0003c0 1f 1a 1a 3e b6 4f 12 be 6d 82 c9 3b 62 97 9f bd
       0.15049027 -0.1428822 0.006149581 -0.07792546
0003d0 e7 55 22 bd 8e b4 12 be 6f 16 29 be 1a 1c 5c 3e
       -0.039632704 -0.14326689 -0.16512464 0.21495095
0003e0 75 ba b6 bd d7 ca 03 3e 7c b6 3f 3e 5c b2 83 3d
       -0.089222826 0.12870346 0.18721956 0.06430504
0003f0 a3 22 76 bd 33 fd 5f 3d 80 f4 80 3e df 34 50 be
       -0.060091626 0.05468483 0.2518654 -0.20332669

encoder.0.bias f4 [128]
000000 27 f5 ca 3d 0f a8 dd 3d 40 fc fb 3c 32 47 7c 3e
       0.0991004 0.1082307 0.03075993 0.24636534
000010 82 a3 ed 35 18 f0 82 3e d5 27 86 3e ae c1 43 be
       1.7705463e-06 0.25573802 0.26202264 -0.19116852
000020 96 27 71 bb e7 53 5c 3e b6 a4 c1 bc 0f 1c 61 3e
       -0.0036797277 0.21516381 -0.02363811 0.2198336
000030 dc d0 07 3e 1c 0c 69 3e 80 82 f1 3d 94 1b 6b 34
       0.13263267 0.22758526 0.11792469 2.1896113e-07
000040 7f 33 4c 3d aa 55 3f 3d b7 cb 63 3e ef 8f 81 3e
       0.049853798 0.046712555 0.2224568 0.25305125
000050 da ea bb 3b 50 29 0f 3e eb 6b 28 be da 36 93 3d
       0.0057347836 0.13980603 -0.16447417 0.071881965
000060 a5 6e f3 3d fc 5b 92 3d 31 c3 99 3d e7 6f f9 bd
       0.11886338 0.07146451 0.07507933 -0.12179547
000070 e3 3a 10 3e ab e1 c3 bd 36 40 35 3e 77 bf 87 bd
       0.14084964 -0.09564527 0.17700276 -0.06628316
000080 9c e5 73 3d 78 99 7f bd 9b 9e 87 3e 5a 24 a0 3d
       0.059545144 -0.06240222 0.26488194 0.078194335
000090 97 0e 40 be ae 52 45 3e c4 dd c7 3d 0b 11 8f 3d
       -0.18755566 0.19269821 0.09759095 0.069856726
0000a0 76 87 7d 3d f4 32 1c 3e 67 0d b5 bd eb 24 d5 3c
       0.061896764 0.15253812 -0.08840447 0.02601858
0000b0 76 7b 1b 3b d4 e1 59 3e 2c c8 f9 bb 63 86 4f 3e
       0.0023724712 0.21277553 -0.0076227393 0.20266108
0000c0 35 87 cb bd 15 df 37 3b eb 8f 4e be 52 f7 04 bd
       -0.09937898 0.0028056551 -0.20172088 -0.032462426
0000d0 3d 1b 54 be da 37 03 be ee b4 d9 3d 20 ef 9a 3e
       -0.20713516 -0.12814274 0.10630213 0.30260563
0000e0 4a 28 76 bd 4f 60 33 3e f7 cb 1d 3e f2 1f f4 bd
       -0.060097016 0.17517208 0.15409838 -0.119201556
0000f0 ec c5 a1 bd 23 12 16 3e a7 53 59 3e c1 66 8b bd
       -0.07899079 0.14655356 0.21223317 -0.06806708
000100 f4 e9 29 3e 16 98 02 3e 0e 20 16 bd 50 02 b2 bd
       0.16593152 0.12753329 -0.036651663 -0.08691847
000110 ec 4a 4c bd dd cf 1e be 21 fe d1 bd ff 9f f8 bc
       -0.04987614 -0.15508981 -0.10253549 -0.03034973
000120 a2 25 07 bc aa 0f 89 3d 4a a6 b5 3d 55 21 c7 3d
       -0.008248718 0.06692441 0.08869608 0.097231545
000130 12 b2 93 3d 08 5f 52 3d 9f ce 15 3b 0a a5 b1 37
       0.072116986 0.05136016 0.0022858751 2.1176897e-05
000140 c9 12 f4 bd 39 9a 69 3e 3e 52 8a bb 83 e8 e0 bc
       -0.119176455 0.22812738 -0.00422123 -0.02745462
000150 9e 7b 0b 3d 3e 60 81 be e7 21 26 bc 0d 27 9b 3d
       0.034053437 -0.2526874 -0.010139919 0.07575808
000160 98 a1 5c be 09 99 3b 3e ea 72 95 3c 91 fd 21 be
       -0.21546018 0.18320097 0.018243272 -0.15819384
000170 8c 2c e5 bb cc c9 93 3d e8 eb fe bc 4d df 6b 3b
       -0.006993836 0.07216224 -0.031118348 0.0035991252
000180 76 4e 80 3e c2 bb 1b 3e 32 a0 85 3d d2 c1 d2 3c
       0.2505986 0.15208343 0.065246955 0.025727186
000190 af 4e 98 bd 57 07 84 3d a7 81 2d 3e a7 38 cc bd
       -0.07436883 0.064467125 0.1694399 -0.09971743
0001a0 41 64 83 bc a7 4c 5f 3e 8c ea a8 bb da 0c 82 3e
       -0.016039016 0.21806584 -0.0051549133 0.2540043
0001b0 2f 3e 95 bd fb b6 33 be 91 3c 26 3e d0 2a 5a be
       -0.07287251 -0.1755027 0.16234042 -0.21305394
0001c0 db 3a 36 3e 11 6e 44 3e c3 56 ff bc 2a 28 8b 3d
       0.17795889 0.19182612 -0.0311693 0.0679477
0001d0 a8 d9 ac 3d e3 b7 95 3c a5 97 19 3e 8d 2c 2c 3e
       0.08439952 0.01827616 0.14999254 0.1681387
0001e0 b1 f5 70 3e 5a 0f 6a be 0c ca ce 3c f1 7c 16 3c
       0.23531224 -0.22857419 0.025242828 0.009185062
0001f0 46 a3 13 be 8f 99 6b 3e 3b 6a 5c 3e 54 2d 18 3e
       -0.14417753 0.23007797 0.21524899 0.14861041

encoder.2.weight f4 [64, 128]
000000 eb 1b 90 bd d1 c5 25 bd f7 1c 00 34 c2 7a 9c 3b
       -0.07036575 -0.040471856 1.1931466e-07 0.004775376
000010 92 a0 be b5 93 9a 70 3d 0b dd bd bc 92 0f 81 bc
       -1.4202835e-06 0.058741163 -0.02317669 -0.015754495
000020 ea 38 83 36 a5 8c 77 bd db d6 b4 b4 7c 60 71 bd
       3.91073e-06 -0.060436863 -3.368394e-07 -0.058929905
000030 38 f3 d2 35 9b 8e 4e bd ce d5 cd 35 ce eb 9f 34
       1.5717005e-06 -0.050428968 1.5335916e-06 2.9787628e-07
000040 93 3a c5 37 fd 8a 3a bd 3a 0c 59 3c 79 53 6f 3d
       2.3511506e-05 -0.045542706 0.013247544 0.058429215
000050 4b 47 e6 bc ca 73 9c 3b e7 62 a4 3c 74 56 a9 bc
       -0.028110167 0.0047745453 0.020066692 -0.020671107
000060 f8 ce 0d 3d 67 3e b6 3c d2 d5 10 3d 9b 8a 19 bd
       0.03462121 0.022246553 0.035360165 -0.0374857
000070 17 bc 4f bc f3 6f 54 bd 9f 86 0f b5 f1 08 7b 3d
       -0.012679121 -0.051864576 -5.346755e-07 0.061287824
000080 7b 0f 62 b6 12 90 6d b6 d3 7f 7c 3c 84 ea d7 35
       -3.3685635e-06 -3.5399612e-06 0.015411335 1.6087001e-06
000090 bb 77 c3 bc 94 bc c6 bc 3e 08 5a bd 49 b8 92 b5
       -0.023860803 -0.024259843 -0.053230517 -1.0931482e-06
0000a0 9f c1 a4 bc 32 e9 9c bc 94 d1 c7 bc e3 7f 19 bd
       -0.020111857 -0.019154165 -0.024391927 -0.037475478
0000b0 9d b9 3e 36 20 a4 82 3d b2 63 5c bd c5 6d 80 bd
       2.8420247e-06 0.063789606 -0.053806014 -0.06270937
0000c0 76 e5 0a 3a 7c 7a ad bb 25 ff bb 3c 9e f7 11 3d
       0.00052984746 -0.0052941423 0.02294881 0.035636537
0000d0 05 13 aa 3c c9 f4 2f 36 3a ad ba b7 e5 49 ff b8
       0.020761022 2.6219516e-06 -2.2253593e-05 -0.000121731115
0000e0 94 d8 33 3d ee 6d 59 bc 7d 8e 7d bd 9f d5 aa 3b
       0.043907717 -0.013270838 -0.061903466 0.005213454
0000f0 34 32 f5 bc ee b6 fe bb 6e 95 22 bd 56 f0 94 3a
       -0.029931165 -0.0077732718 -0.03969329 0.001136313
000100 8d a1 b1 bd a9 15 71 3d cd ad ab b4 a2 b2 97 b3
       -0.086733915 0.058858547 -3.197769e-07 -7.0639786e-08
000110 2a 4e a1 34 a7 23 8e 37 1e f5 b0 39 b1 59 53 b2
       3.004546e-07 1.6944321e-05 0.00033751962 -1.230221e-08
000120 2d d8 65 34 3e 32 82 bb ac 60 df 32 f8 4e 0c bc
       2.1405931e-07 -0.0039732745 2.6004578e-08 -0.0085637495
000130 18 36 6a bd 9a 18 1b 33 b3 f5 5c 3d 23 7c 86 35
       -0.057180494 3.6111125e-08 0.053945255 1.0019907e-06
000140 90 46 45 3d 50 1f 97 bd 7e a8 73 3d 03 be 26 b6
       0.048162997 -0.07379019 0.05948686 -2.484653e-06
000150 13 3f 1d 3d 5a 56 9a 3c 69 f4 13 b6 f6 35 35 3d
       0.03839023 0.018840004 -2.2046972e-06 0.044240914
000160 93 c0 f7 bc c4 f1 81 bd 88 35 b5 34 a9 ce b8 bc
       -0.030243194 -0.06344941 3.3752826e-07 -0.02255948
000170 cb 23 a4 b5 56 32 91 3d 34 a3 15 bd f7 35 4f bc
       -1.2229369e-06 0.07089679 -0.036532596 -0.012647144
000180 59 93 78 3d 31 51 5d 39 c5 91 38 3d ad a7 5c 38
       0.060687397 0.00021106449 0.04506089 5.2608248e-05
000190 f1 b7 be bd 2d 55 c2 bc c9 f9 7a 3c d5 96 a1 bc
       -0.09312428 -0.023722256 0.0153183425 -0.019725243
0001a0 c7 8a 5b 37 b8 7f 9d bb 8c 79 82 b6 41 a7 4c bd
       1.3085729e-05 -0.004806485 -3.888452e-06 -0.049964193
0001b0 18 9c 19 b9 fa 3a 61 3d 57 fe 95 b6 19 79 c3 3c
       -0.00014649366 0.054987885 -4.470155e-06 0.023861455
0001c0 80 5b ae bd 12 53 4c 3a 79 55 b7 3c fb a4 76 bc
       -0.08513546 0.0007794361 0.022379624 -0.015053983
0001d0 fa 88 65 bc fc ef b3 b6 4e ba 8f bd 8a b7 97 3c
       -0.014009709 -5.3625536e-06 -0.07017957 0.018520135
0001e0 2c ad 16 bb 1b 79 15 3b 1b 8c 89 b7 e0 06 25 bc
       -0.0022991402 0.002280778 -1.6396914e-05 -0.01007244
0001f0 8d 95 9a b6 c6 55 35 bd 3b 0f 7d bd 0c 00 27 3b
       -4.6069677e-06 -0.044271253 -0.061782103 0.0025482206
000200 69 ad da b5 6c 86 f2 b5 f4 bc 14 36 c2 5b 9d 35
       -1.6292735e-06 -1.8069527e-06 2.2163704e-06 1.1724117e-06
000210 1e f2 c4 b7 6f 87 05 b6 e4 a9 13 b6 7b 54 b6 b4
       -2.3477765e-05 -1.9897377e-06 -2.2003596e-06 -3.396161e-07
000220 01 d6 44 37 25 44 89 34 fb d4 b4 b7 5c ba c6 36
       1.1732337e-05 2.556782e-07 -2.1556849e-05 5.922555e-06
000230 7f 0f 1a 35 44 e4 e1 b5 f2 b4 01 34 0b c6 a4 b7
       5.739202e-07 -1.683024e-06 1.2079889e-07 -1.9642544e-05
000240 5c 94 c7 b7 02 d4 bf b6 36 00 5a 39 98 45 1d b6
       -2.3791734e-05 -5.7169245e-06 0.00020790179 -2.3435332e-06
000250 4b 86 c4 37 8a 50 51 b9 20 f1 7b 37 26 c4 64 b6
       2.3427556e-05 -0.00019961796 1.5016907e-05 -3.408882e-06
000260 00 1f dd b5 4e df 40 b5 c3 f8 b5 b7 fe 79 29 36
       -1.6474805e-06 -7.1850525e-07 -2.169272e-05 2.5253971e-06
000270 50 b4 c1 b9 28 3d c6 b6 95 54 10 b6 77 14 5a b6
       -0.00036946172 -5.9079794e-06 -2.1506905e-06 -3.2496444e-06
000280 40 ae ff b5 a1 06 8c 37 ce aa 2d b3 1b 03 93 b9
       -1.9049694e-06 1.6692387e-05 -4.0435047e-08 -0.0002804034
000290 86 5f bd 37 4d c1 06 35 51 d9 45 b5 3e 71 ee 38
       2.2575037e-05 5.020018e-07 -7.3704456e-07 0.000113698174
0002a0 07 18 c0 35 57 d5 ba 34 67 4d 0c b5 c8 79 f1 b5
       1.4312108e-06 3.4800425e-07 -5.22667e-07 -1.7991342e-06
0002b0 8d 11 bf b6 01 fd 98 b6 ef 0c 51 b5 d8 9e f8 b4
       -5.6942868e-06 -4.5594065e-06 -7.787739e-07 -4.6309174e-07
0002c0 c1 a0 a7 b8 52 78 ac b6 8b dc 32 36 99 9b 37 36
       -7.993123e-05 -5.1400066e-06 2.665244e-06 2.7359695e-06
0002d0 39 7b c5 36 65 b0 a8 39 5b c9 17 b6 5c 08 eb 32
       5.8854025e-06 0.0003217488 -2.2617958e-06 2.7361402e-08
0002e0 d5 9a bb 34 73 22 62 37 11 88 b4 b5 40 f3 97 39
       3.494412e-07 1.3478671e-05 -1.3450646e-06 0.000289822
0002f0 3c 75 18 37 82 cf e6 33 33 2d 98 b9 07 eb e4 b4
       9.087202e-06 1.0747955e-07 -0.00029025375 -4.2639314e-07
000300 eb c9 80 b5 b9 a1 0a 38 00 85 6d b4 97 6d 2c 33
       -9.595509e-07 3.305238e-05 -2.212073e-07 4.0146542e-08
000310 61 bc 90 b8 ad 3b da b4 cf b0 ff 35 15 2e bf b6
       -6.9015434e-05 -4.0649084e-07 1.9050439e-06 -5.6976082e-06
000320 8d f1 fb b3 b0 d9 ee 36 bc c0 a3 b7 6e f1 a7 b8
       -1.1732036e-07 7.118295e-06 -1.9520863e-05 -8.00815e-05
000330 5d 4c 85 b4 7d b0 70 35 ec 5d 84 b8 52 62 03 35
       -2.4828742e-07 8.966379e-07 -6.311745e-05 4.894438e-07
000340 0b e6 fb b6 da 50 83 b6 ce 0c c4 37 ef fd 95 32
       -7.5071634e-06 -3.9135166e-06 2.3370983e-05 1.7461359e-08
000350 33 7a 87 b6 bd 25 a9 b5 1c 7e 10 b6 f3 aa 1c 34
       -4.0375394e-06 -1.2602464e-06 -2.1531077e-06 1.4590823e-07
000360 f1 c4 e2 b4 12 e0 73 39 7c 2a df 33 23 d7 96 b6
       -4.2239074e-07 0.00023257759 1.03919746e-07 -4.4953936e-06
000370 15 54 7b b5 09 bb dc 34 23 81 7d b9 2c e6 56 37
       -9.362714e-07 4.111428e-07 -0.00024176067 1.2808985e-05
000380 12 ae 84 b5 f2 3c 40 35 64 42 ac b6 d4 c8 53 b7
       -9.885428e-07 7.161426e-07 -5.1337283e-06 -1.2623339e-05
000390 37 14 9e b5 b3 1b 9d b7 50 f6 46 b5 36 bd 1f b9
       -1.1777801e-06 -1.8728757e-05 -7.411918e-07 -0.00015233908
0003a0 69 65 c4 b6 c2 00 1f b6 a1 fd 24 35 06 53 c8 b5
       -5.853061e-06 -2.3693287e-06 6.146384e-07 -1.4925324e-06
0003b0 1f b3 35 b6 14 a0 c2 36 cb be c3 37 cb 0c f9 35
       -2.7075364e-06 5.800286e-06 2.3334656e-05 1.8555669e-06
0003c0 cd b1 9d b6 83 57 47 34 82 6d 8b 34 0a 14 81 35
       -4.6996634e-06 1.8565156e-07 2.5970445e-07 9.617081e-07
0003d0 02 68 bb b6 92 99 7f 35 bc 3e b6 b8 7c f3 89 b6
       -5.5851424e-06 9.5218377e-07 -8.6901215e-05 -4.1112635e-06
0003e0 40 03 7d b4 9a 37 36 34 3a 7b 18 b6 36 aa 3b b4
       -2.3563643e-07 1.6970299e-07 -2.2721492e-06 -1.7477655e-07
0003f0 2d f0 d7 b4 45 b9 48 35 54 a6 32 b5 e9 35 cf b5
       -4.0221622e-07 7.477541e-07 -6.6552207e-07 -1.5438392e-06

encoder.2.bias f4 [64]
000000 2f a4 a8 bd bf 6b 1f b5 51 f3 28 3d a3 4f 8a bc
       -0.082344405 -5.9388907e-07 0.04124767 -0.016883677
000010 63 52 04 bd 76 91 c9 bc ef 58 90 3d 3c 9d c2 bb
       -0.032305133 -0.024605494 0.07048213 -0.005939154
000020 3d af 9c 3d fa 25 db 3c fa 7e 14 3d c9 9c 4c 3d
       0.076506115 0.026751507 0.036253907 0.04995421
000030 0e 97 7a bd a8 d8 99 bb 8a f7 0c bb 70 31 7d 3c
       -0.061179213 -0.004695017 -0.002150985 0.015453681
000040 4a 9a 87 3c ab c4 88 bd 9e b8 1b 3d 5b 48 57 3c
       0.016553063 -0.066781364 0.03801786 0.0131398095
000050 42 e9 91 3c d3 88 22 bd 7e 70 2f 3c 8c f5 85 3d
       0.017811421 -0.039681267 0.010707973 0.06540975
000060 a8 8e 92 3c 3a 25 a9 3a 6f 02 af bc 5d 2f 69 3d
       0.01789029 0.0012904771 -0.021363465 0.056929935
000070 7c 9d e1 bc ed 4d e9 bc 7c 02 0d 3d c3 c9 e6 3c
       -0.027540915 -0.02847954 0.034426197 0.02817238
000080 d0 3b b4 3c 80 8f 46 3d 5a 19 7d bd 19 af 15 bc
       0.022001177 0.048476696 -0.061791755 -0.009135985
000090 37 98 29 3c 36 47 66 bd 83 e1 c3 3d 23 f2 5d 3d
       0.010351232 -0.056220256 0.09564497 0.054185998
0000a0 35 24 b2 3c fe 69 ba bb ea ab 84 bd af 99 4e bd
       0.02174578 -0.005688905 -0.064781025 -0.050439533
0000b0 66 6a 18 3d 8d 0b 86 bd 5a 46 8e 3c cb 96 2e 3d
       0.037210844 -0.06545172 0.01736753 0.042624276
0000c0 ab a3 8d 3c df 6a b8 3c 9a 46 91 bc 3b a4 cc 3d
       0.017289957 0.022511898 -0.01773386 0.09992262
0000d0 19 0b 5d 3a e1 dc b3 bc 0f 23 75 3d fb 2a d6 3d
       0.00084321346 -0.02195591 0.059847888 0.104574166
0000e0 06 7f 3f bd 74 a9 02 3d e7 8e 1f bb 48 e4 63 bd
       -0.046752 0.031899884 -0.002434665 -0.055637628
0000f0 c7 5b 0a 3d fa 29 37 3d b9 4c 8e 3c 0b e4 4f bd
       0.033778932 0.044717766 0.017370569 -0.050754588

encoder.4.weight f4 [14, 64]
000000 10 53 86 3c 1b 1a ca b5 d1 12 00 bc 74 a8 1d bb
       0.01639703 -1.505777e-06 -0.007816986 -0.0024056705
000010 41 5e 8a 3d 44 4a 42 3d 3a 28 9a 3c 57 48 58 3b
       0.06756259 0.047434106 0.01881801 0.0033002102
000020 26 d4 0b bd 91 51 a5 3b 18 82 d8 bc 1f 8f cb 3d
       -0.034137867 0.005045124 -0.026429221 0.099394076
000030 f4 36 43 3d ee 3d 0d bd b1 97 05 3e 9b 4f bd 3d
       0.04765983 -0.03448289 0.13046147 0.09243699
000040 d6 f8 be bd 3f 76 0a 3e 2c a1 8d 3d d4 a1 14 bc
       -0.093248054 0.1352167 0.06915507 -0.009071786
000050 e3 eb 64 3c 85 75 c7 3c 1d d6 5d 3d 75 63 9c bd
       0.013972255 0.02434803 0.054159272 -0.076361574
000060 76 e9 9f 3d d8 3c 4d 36 83 fd a6 3d cc 4e ca bd
       0.07808201 3.0582796e-06 0.08153822 -0.098783106
000070 1f c7 2b bd 75 2b c2 bb 97 0a c7 bd 32 1c 42 bd
       -0.041937944 -0.0059255906 -0.09718817 -0.04739017
000080 99 13 ab bd fe f0 00 3e 5f c3 08 3d b2 93 17 ba
       -0.08353347 0.12591931 0.033389445 -0.0005782201
000090 6c 7f 95 3d 1b 9f eb 3d e5 36 a7 3d b8 5e 23 3d
       0.072996944 0.11504956 0.08164767 0.039885253
0000a0 05 b9 05 3e 88 2e a3 3d bc 60 07 bd 88 72 b3 3d
       0.1305886 0.079678595 -0.033051237 0.087620795
0000b0 9d 44 e0 3d 72 02 d6 bb de 56 07 3e f2 94 94 3d
       0.10950587 -0.006531053 0.13216731 0.072549716
0000c0 15 30 a2 bc 11 ac 13 3e 45 85 fd 3c a4 74 f4 3d
       -0.019798318 0.14421107 0.030947337 0.1193631
0000d0 62 45 db bb e3 2d 28 39 7a c6 3d 3d 2b 40 b6 bd
       -0.0066916207 0.00016038823 0.04633186 -0.08898958
0000e0 86 44 31 3d 3c bd 15 be bf 3e 04 bd c5 5f 65 3c
       0.04327824 -0.14622968 -0.0322864 0.013999884
0000f0 87 9a 0a bc 14 70 24 3d 73 a4 94 bd fa df 07 bd
       -0.008459694 0.04014595 -0.07257929 -0.033172585
000100 7c 6c c3 b9 be e3 71 ba da f8 1d 3b eb ab 3f 3c
       -0.00037274125 -0.00092273566 0.0024104626 0.011698703
000110 26 36 88 3d c1 54 4e bd 26 e5 e9 bc 7e cb 02 be
       0.06650953 -0.050373796 -0.02855165 -0.12772939
000120 0f 28 68 3b e9 b7 9b 3d cf 92 9f 3c ee 16 13 be
       0.0035424267 0.076034375 0.019479183 -0.14364216
000130 2b 5d cf bd 68 99 f5 bd be eb d1 3d 01 cc b6 3d
       -0.10125192 -0.119921505 0.102500424 0.089256294
000140 51 96 b2 3d 5e ff 3d 3d 7c a0 8d bd 04 46 ae bc
       0.08720077 0.046386115 -0.069153756 -0.02127362
000150 50 4c 4f bd a1 c7 b1 3c bf 44 a2 3d 4c b0 50 bd
       -0.050609887 0.021701636 0.079232685 -0.05094938
000160 4a fa d5 3d ca d8 0d 3a 77 66 a0 bd b3 52 db bd
       0.104481295 0.0005411027 -0.078320436 -0.10709133
000170 80 30 87 3c cd d7 9b bb e7 e4 fa bc ed 7a 7d 3c
       0.016502619 -0.00475595 -0.030626727 0.015471202
000180 df 1d c2 3d 28 70 8d bd fc 79 d9 3c 0d fa 70 3d
       0.09478354 -0.06906158 0.026547424 0.058832217
000190 62 3e b2 3d d1 8c b0 bd 56 94 51 3c 51 c3 71 3d
       0.08703305 -0.086206086 0.012791714 0.05902416
0001a0 cd f6 f7 bd 1c 4e a8 bd c8 74 f5 bd 01 63 9e bd
       -0.121076204 -0.08218023 -0.11985165 -0.07733727
0001b0 c7 fa c4 3d 1c 54 b5 bd 2d 4d ce 3d 60 dc bc bc
       0.096181445 -0.08853933 0.10073314 -0.023054302
0001c0 3b 31 0a be a6 84 ae 3c ab 51 09 be b0 8e a8 bd
       -0.13495342 0.021303486 -0.1341006 -0.082303405
0001d0 2b 27 95 3b 91 8b 61 3a 12 bb 2e 3d 5d 9a ce 3c
       0.0045517883 0.0008603866 0.042658873 0.02522009
0001e0 7b 69 0f be 67 0a 11 bd 71 9f 92 3d be ff df bd
       -0.14005081 -0.03541031 0.07159317 -0.10937451
0001f0 bc f7 ae bc 6e 77 c4 bd 75 57 84 3d 74 20 37 bb
       -0.021358363 -0.09593092 0.064619936 -0.0027942928
000200 68 bd 95 3d 25 2b ba 36 6c f5 fe 3b 97 15 01 be
       0.07311517 5.5482546e-06 0.0077807214 -0.12605892
000210 d6 a2 45 bd 95 00 20 bd 10 76 b8 bd b4 3a 95 3a
       -0.048250996 -0.039063055 -0.09006894 0.0011385293
000220 05 4e 8c 3d 19 8a 24 3d 51 45 28 3c 77 b2 db bd
       0.068508185 0.040170763 0.010270433 -0.10727399
000230 47 2e c9 bd f4 1c db 3c b3 38 04 3e ad da c8 bc
       -0.0982328 0.026747204 0.12912254 -0.024518335
000240 da 5b 98 bd 89 c6 0b 3e f1 fd 55 bd 17 db 1f bb
       -0.07439394 0.13649954 -0.05224413 -0.0024392062
000250 f2 c8 1a 3d e1 1a 2c bd ba ab bb 3d 66 7c 87 3d
       0.037789293 -0.04201782 0.091636136 0.06615524
000260 4d fb 20 3d 6e 41 60 b7 5d d1 5e bd 24 4a ab 3d
       0.03930216 -1.33666745e-05 -0.054398883 0.083637506
000270 be 0c 9e bd 36 65 70 bd 40 c3 b4 bc 7e c6 e9 3c
       -0.07717274 -0.058690272 -0.022065759 0.028537031
000280 b9 02 41 bd 9a 83 d6 3d d6 b4 5a 3c 9b 6a 31 3d
       -0.047121737 0.1047432 0.013348779 0.043314558
000290 64 5d 54 3d c5 70 6c bd d3 0f 61 bc 63 d5 5d 3c
       0.051846877 -0.057724733 -0.013736683 0.013539645
0002a0 78 89 b6 3d b6 2f f7 bd 71 29 ae bc 0a 51 7e bd
       0.08912939 -0.12069647 -0.021259995 -0.062089004
0002b0 ab d0 95 3c 31 b9 8c 3d b8 2e e6 3d b9 23 43 bd
       0.018287977 0.0687126 0.1123938 -0.04764149
0002c0 48 a4 37 3c ca 7e f8 bc 84 14 61 3d f8 a9 02 bd
       0.011208601 -0.030333895 0.054951206 -0.031900376
0002d0 4c ef 60 3a 65 e8 01 39 cd 56 c1 bd 9b b8 db bd
       0.000858058 0.00012388972 -0.09440384 -0.1072857
0002e0 26 8c 0c bd d9 c1 f7 bd f2 80 97 3d c8 3a db bd
       -0.034313343 -0.120975204 0.07397641 -0.10704571
0002f0 c8 3f a2 bd c0 fc f4 bd 74 3c 9b 3d a6 86 b7 bb
       -0.079223216 -0.11962271 0.0757989 -0.005600768
000300 14 c5 d2 3d 82 f3 6c b5 56 87 b1 b7 f3 ea c3 3b
       0.10291496 -8.82712e-07 -2.1163065e-05 0.005978936
000310 df 0e 0d bd a9 c9 b5 3c 46 12 f0 bd b7 77 a4 3d
       -0.03443801 0.022190886 -0.117222354 0.08030646
000320 07 78 01 bc f9 4c b8 3d 6a 2d 88 b6 9b 93 6b 3d
       -0.007902152 0.08999056 -4.0584027e-06 0.057513814
000330 7e b7 48 3d 73 01 cc bc ed 5f 1d 3b 67 98 bc bc
       0.049003117 -0.024903035 0.0024013475 -0.02302189
000340 19 12 12 ba b2 76 20 3e c7 d5 0b 3d 40 40 c0 3b
       -0.0005572155 0.15670279 0.03413942 0.005867034
000350 05 25 c8 3c e3 81 e8 bd 92 ce 41 3e 78 76 93 bc
       0.024431715 -0.11352899 0.18926457 -0.018000826
000360 4f 29 c9 bd 7c 99 03 b8 65 f9 00 3d 75 1b a3 3d
       -0.09822332 -3.1375777e-05 0.03148784 0.079642214
000370 2c a8 94 bc 64 3f a5 bc 2e 28 2e bd 4b bb d3 3d
       -0.018146597 -0.020171829 -0.042518787 0.10338458
000380 ec cc a9 bd 76 f2 c0 3d a0 b5 28 bc 85 f6 e7 3d
       -0.08291039 0.09421246 -0.010297209 0.11326317
000390 69 e7 91 3c 10 33 a8 3c 40 b6 20 bd bc 32 3b bd
       0.01781054 0.020532161 -0.039236307 -0.04570268
0003a0 18 d3 c4 3d 2c f1 65 bd f6 39 d8 bc 07 52 e4 3d
       0.096105754 -0.056138203 -0.026394825 0.11148458
0003b0 c4 b6 d6 3d 00 bb 00 3e e1 67 0e bd de df 4a 3d
       0.104840785 0.12571335 -0.034767035 0.049529903
0003c0 fb 32 18 bd f4 ad b6 3d 67 44 e8 3d a0 c8 3b bc
       -0.037157994 0.08919898 0.11341172 -0.011461407
0003d0 b5 9e 3e b5 27 21 2b 39 81 dc 9e ba 9a 5c 02 3e
       -7.1011465e-07 0.00016320181 -0.0012120159 0.12730637
0003e0 e3 67 b9 3d 39 96 94 bd eb 42 6e 3a 34 70 42 bd
       0.09053018 -0.07255215 0.0009088951 -0.047470286
0003f0 fd 17 60 bd c1 f9 93 3d d0 de a5 3c f0 84 a0 3d
       -0.054710377 0.07225371 0.020247847 0.07837856

encoder.4.bias f4 [14]
000000 23 44 3a bc 5d 17 19 bc 15 c0 c5 bd e2 8e be bd
       -0.011368784 -0.009343949 -0.09655777 -0.093045965
000010 11 c3 d7 bc ef 02 0d 3e 11 48 10 3c f2 f7 ac 3c
       -0.026338132 0.1377065 0.0088062445 0.021114323
000020 65 69 48 bd 37 f1 dd bc f3 73 85 bd ec ff a5 bd
       -0.048928637 -0.02709256 -0.06516256 -0.08105454
000030 fa 8a a6 bd 60 54 bc bd
       -0.081319764 -0.09195781

decoder.0.weight f4 [64, 14]
000000 1f 22 ef 3d 95 f7 01 be 08 89 01 3e fe 55 bd 3d
       0.1167643 -0.12692101 0.1264993 0.09244917
000010 1a 98 68 bd 12 4d 9c bd f5 2a 7d be be 65 5e bd
       -0.05678568 -0.076318875 -0.24723418 -0.054296248
000020 db fb 0e 3e 08 e3 b8 bd 95 88 87 be 79 43 12 bd
       0.13963263 -0.09027678 -0.2647139 -0.03570888
000030 f1 06 2f 3d b9 3d 9b bc 40 8a 90 3e ee 81 5b bd
       0.04273123 -0.01895033 0.28230476 -0.053590707
000040 5f 3f 1c 3e be f7 3a be 52 c6 0e 3e ef 91 4f 3d
       0.15258549 -0.18258569 0.1394284 0.050676282
000050 a4 f2 11 be 2a c7 89 be fa 5f 8c 3e 8e 1f 0f 3e
       -0.14252716 -0.26909763 0.27416974 0.13976881
000060 23 e6 95 bc e6 d3 9c 3c 4a 7e 99 bc 7b d5 d1 bd
       -0.018298214 0.01914401 -0.018736977 -0.10245796
000070 ce 89 07 3e 6e cb 87 bc 84 a5 85 be f4 c7 84 bd
       0.13236162 -0.016576495 -0.2610284 -0.064834505
000080 17 65 76 3e 17 c4 3e 3e 6f 6e 22 be b0 31 88 be
       0.24062 0.1862949 -0.1586244 -0.2660041
000090 f8 97 8b bd a5 3a 28 bd cc bf dc bd 12 5a bb 3d
       -0.06816095 -0.041071553 -0.1077877 0.09148039
0000a0 d9 f0 1d 3d 6c 05 41 3d cb 6f 9a 3d df 59 83 3d
       0.03855977 0.04712431 0.07540854 0.06413626
0000b0 d9 7b 22 36 73 02 9b bd e9 74 0c 3d 70 dd 2e bc
       2.421197e-06 -0.075688265 0.03429118 -0.010672912
0000c0 c6 cb 0e b5 8c 19 08 bc 51 9a da ba b2 aa 86 b9
       -5.319565e-07 -0.008306872 -0.001667807 -0.0002568565
0000d0 c0 ad 65 3c 23 89 bc bd 27 30 b5 b9 65 ad 0e 39
       0.014018476 -0.09205844 -0.00034558887 0.0001360677
0000e0 3e ca 87 3e 0e 35 be 3d 46 3f d6 bd 47 16 b2 bc
       0.26521486 0.09287463 -0.10461287 -0.021739138
0000f0 49 ba 16 be 35 93 43 bc 33 fd 90 be fb 8b 7b 3e
       -0.147195 -0.011936952 -0.28318176 0.24565117
000100 82 e6 73 3c 78 c8 9b 3c 7b f7 cd bd e5 0d 21 3e
       0.0148865 0.01901649 -0.10056969 0.15727957
000110 6f 54 3b 3e 52 98 5e be ea 58 91 3e e5 fb e2 bd
       0.18293928 -0.21737793 0.2838815 -0.11083201
000120 8d 07 e5 3d db ad e8 3d 09 c1 47 be ac 98 8f 3d
       0.11183081 0.11361285 -0.19507231 0.07011542
000130 f5 c0 62 be b8 67 88 bd 8a cf 33 bc 12 e7 6d 3c
       -0.2214392 -0.06660408 -0.010974774 0.0145204235
000140 37 6e 18 3c 4d c5 66 3d 5a 29 64 3e 2e bd 22 be
       0.009303621 0.056340504 0.222814 -0.15892479
000150 fe 09 43 3e cd 9d c5 3d 1f a7 33 be 70 06 55 bd
       0.1904678 0.09649239 -0.1754422 -0.052008092
000160 42 13 60 be 6b c6 3b be 25 bf df bd eb 10 71 3e
       -0.21882346 -0.18337409 -0.1092513 0.2354161
000170 c2 f0 42 bd 41 e2 cf 3d 8d 8e c9 3d dc 28 18 3e
       -0.047592886 0.101505764 0.098416425 0.14859337
000180 9b b6 65 be a8 a7 a0 bd eb 53 ce 3d 11 e1 59 bd
       -0.2243294 -0.07844478 0.100746 -0.053193156
000190 a6 01 75 be d1 b8 cc bd df c8 83 3e 5b d5 93 3d
       -0.2392641 -0.099961884 0.2573919 0.07218429
0001a0 cb 2c 7c 3e 8d 10 6b be 02 13 72 3c 9f 66 a5 3d
       0.24626462 -0.22955532 0.01477504 0.08076214
0001b0 49 60 ce 3c 9b f2 3d 3e de bc 3f 3e 67 0c be bd
       0.025192397 0.18549578 0.18724391 -0.09279709
0001c0 52 f7 eb 3d 0c 00 cf 3d d5 19 07 3e af 9b 20 be
       0.11521782 0.10107431 0.13193448 -0.15684389
0001d0 08 d2 57 be e1 c1 0f be f5 10 c5 bc 1d d3 cc bd
       -0.21076214 -0.14038803 -0.024055937 -0.10001204
0001e0 b9 ff 04 3e 97 12 67 be 10 ad ae bc 8d 3f 83 bd
       0.12988175 -0.22565685 -0.021322757 -0.06408606
0001f0 78 3a 12 3c d4 fd 40 bd ac 54 71 3e 0f 08 90 bd
       0.008925073 -0.04711707 0.23567456 -0.07032787
000200 31 63 5c 3b 7f a7 ba bc 1f 6e a4 3d 73 a3 f7 bc
       0.0033628459 -0.022784946 0.080288164 -0.030229306
000210 e0 a4 84 be ec b8 af 3d b3 83 a7 3d ba b9 5c bd
       -0.2590704 0.08580193 0.081794165 -0.05388806
000220 8d 3c 0f 3e 61 96 5a 3e 0d f1 51 3e 61 8b 78 be
       0.13987942 0.21346428 0.2050211 -0.24271919
000230 0b 31 d0 3d 26 3c c0 bc f4 4b 57 bd db 5b 2b be
       0.10165604 -0.023466181 -0.05256267 -0.16734259
000240 6d 45 10 bd 7b 8f 48 be c0 62 04 3e f9 93 3c 3a
       -0.03522246 -0.19585983 0.12928295 0.00071936805
000250 b4 70 46 3e fc 20 5f be 1b 3a db bc 47 5c 4a 3d
       0.1937893 -0.21789926 -0.026761105 0.04940441
000260 74 52 4b 3d 0c a7 e3 bd bd cd ea 3d 86 64 f1 3d
       0.04963918 -0.11115846 0.11465023 0.117867514
000270 8c c6 4a be fe 09 19 bd 92 e6 b2 bd f3 d3 26 3e
       -0.19802302 -0.037363045 -0.08735384 0.1629179
000280 dd f4 32 3e d8 d0 03 bd c2 5d a1 3d 69 fd 59 be
       0.1747622 -0.03218159 0.07879211 -0.21288075
000290 cd 78 46 3d 65 02 2e 3e 60 b9 38 be 6f 56 0c be
       0.04845505 0.16993101 -0.18039465 -0.13704847
0002a0 c1 04 1d 3e f0 db c0 3d 62 cb 7e be ee c1 b4 bc
       0.15333845 0.0941695 -0.24882272 -0.02206513
0002b0 d3 75 85 3e ac b8 fa bc bf 60 af bd c3 38 6f 3e
       0.26066455 -0.030605637 -0.08563375 0.23361497
0002c0 30 44 4c 3e 2f 32 05 3d 75 53 77 be 55 1b 77 be
       0.19947886 0.032518562 -0.2415293 -0.2413152
0002d0 c6 c5 34 be 94 7a 9a bb b9 70 d6 bd 2b 6d 27 be
       -0.1765357 -0.0047143195 -0.10470719 -0.16350238
0002e0 aa 6a 25 be c5 8b 60 be dc 63 85 3d 3a 63 0d be
       -0.1615397 -0.21928318 0.06513187 -0.13807383
0002f0 e3 f6 ec bb 2a e9 64 3e d6 2d f9 3d 3b 28 b5 bd
       -0.0072315796 0.2235457 0.12166946 -0.08845564
000300 ed 2c fa 3d 7e 0a cb bd f0 7e ac bd bb 35 36 3e
       0.122156 -0.099141106 -0.08422649 0.17793934
000310 25 34 5e 3e 83 00 66 3e 12 07 9e be 3b d1 64 3e
       0.21699579 0.22461133 -0.3086477 0.2234544
000320 2f 42 4e be 6b 4d 03 bd 32 0c 42 be 29 33 7d 3e
       -0.20142435 -0.032056253 -0.18949965 0.24726547
000330 8a bf 0e 3c f2 fb a4 be ed ee 55 be 18 d9 e6 3d
       0.008712659 -0.3222347 -0.20891924 0.11271876
000340 af 98 61 3e 9a 76 16 be 05 af 28 be 1a 11 8b be
       0.220309 -0.1469368 -0.16473015 -0.27161485
000350 37 0a 05 3e 2b 47 37 be 12 3c b1 3d 9b 30 22 3e
       0.12992178 -0.17898242 0.08654036 0.15838854
000360 01 2f 90 bb 00 68 d4 bd fd a4 c7 bd 07 6f e7 3d
       -0.0044001346 -0.10371399 -0.09748266 0.11300474
000370 fc 98 95 bb b6 16 0a be c4 31 a7 bd 8a 2e 09 be
       -0.0045653563 -0.13485226 -0.08163789 -0.1339666
000380 08 cb 1c 3b 13 e5 a0 b7 6d ad 3f 3d 9e 8c b4 35
       0.0023924727 -1.9180157e-05 0.04679625 1.345197e-06
000390 3b d0 18 bd 9c dd 66 33 ac a6 8c b7 40 b4 8b 3d
       -0.03730796 5.37526e-08 -1.6766913e-05 0.06821489
0003a0 2e 44 0f 3b 54 82 73 bd 81 9d 32 39 06 f7 1a b7
       0.0021860707 -0.059450462 0.00017034078 -9.23663e-06
0003b0 2f 0e df b5 34 db a0 37 56 9b 61 3d 91 57 be 3d
       -1.6618923e-06 1.917556e-05 0.05507978 0.09294046
0003c0 32 ed 06 be d6 40 3b 3e 4d 39 b0 3d 4a 25 48 3e
       -0.1317642 0.18286452 0.08604679 0.19545475
0003d0 b0 6e c7 bd 95 28 52 3e 84 48 fc 3c 91 b4 a8 3c
       -0.09737909 0.20523293 0.030796297 0.020593913
0003e0 b4 2d 77 3e 42 e6 01 3d 00 f3 e0 bd 60 49 68 3e
       0.24138528 0.03171373 -0.109838486 0.2268424
0003f0 b1 24 f2 3d 76 f2 23 be e7 99 83 3d d9 0a dd 3d
       0.118234046 -0.1601046 0.06425839 0.10793085

decoder.0.bias f4 [64]
000000 99 b3 3f 3d 40 55 9e bd 99 73 00 3e ad bf 64 bd
       0.046802137 -0.07731104 0.12544097 -0.05584686
000010 66 fb 33 3c 2f 8b 13 be 4f 33 a4 3d bb 2d ad 3d
       0.010985231 -0.14408563 0.08017599 0.08455988
000020 8f de 60 3c 8e 53 16 3e b2 87 85 bd a1 b1 62 3e
       0.013724937 0.14680311 -0.065200225 0.22138073
000030 b0 03 3e be 5c 28 05 be 7c a8 50 3e df 50 21 3e
       -0.18556094 -0.13003677 0.20376772 0.15753506
000040 16 7a 49 bd 35 61 2f 3e ac ba 01 3d 40 a2 19 3e
       -0.049188696 0.17126925 0.031672165 0.150033
000050 b3 81 0c 3d 60 6b 6f 3e c2 ca 59 3e 35 a6 ed 3d
       0.03430338 0.23380804 0.21268752 0.11603967
000060 d6 3c 6e 3e bc 93 25 ba 35 9d 9a b4 59 f0 24 3e
       0.23265395 -0.00063162646 -2.8799118e-07 0.1610731
000070 29 a9 ae b5 82 78 ec 3d aa d6 8c 3e b7 ae bf 3d
       -1.3013242e-06 0.115464225 0.27507526 0.09359496
000080 02 10 28 bc ab 7f f6 bc 63 aa 05 3e 72 d8 4a 3e
       -0.010257723 -0.030090174 0.13053279 0.1980913
000090 1d 02 3e 3e 04 c6 76 3e ea ec a8 3d 4f 11 d3 b7
       0.18555494 0.24098974 0.08248313 -2.516122e-05
0000a0 3c 1f c5 bd d6 43 8d 3d b9 47 88 be e5 9a b0 bc
       -0.09625098 0.06897704 -0.2661722 -0.021558234
0000b0 d1 bb 57 be 62 2c 36 be b8 6c 58 3e a6 69 2b be
       -0.2106774 -0.17790368 0.21135223 -0.1673952
0000c0 bb 7a da 3d e9 95 c2 3c cf e9 82 3d 51 8b 07 bd
       0.1066794 0.023753123 0.06392252 -0.033091847
0000d0 00 5b d4 3d 5f 5e 53 bd 29 86 1b bc 4f 8c bf bd
       0.103689194 -0.05160367 -0.0094924355 -0.093529336
0000e0 a3 02 35 3d 4c 28 cc bd e0 b8 43 bd c8 fb 5d 3e
       0.044191968 -0.099686235 -0.047783732 0.21678078
0000f0 f1 e2 52 be e2 bf 1e bd de fb 2e be 72 cf 72 bd
       -0.20594384 -0.038757212 -0.17088267 -0.059279867

decoder.2.weight f4 [128, 64]
000000 f3 bb 8b 30 db 44 6e b4 b2 9b f7 bb c6 51 de 35
       1.0167e-09 -2.2190527e-07 -0.007556402 1.6564088e-06
000010 dc 2a dc ba e4 75 c4 b6 c7 0f cf bb 2b b9 9d b5
       -0.0016797441 -5.8549795e-06 -0.0063190195 -1.1751303e-06
000020 02 f9 6e b5 cb 97 19 ba a1 4c 34 32 a7 9c 85 b6
       -8.9024263e-07 -0.0005859106 1.0494802e-08 -3.9819456e-06
000030 bd 37 3c 3b f7 c1 bf 33 16 46 ae bb 8b 3c 0f b7
       0.0028719746 8.9294126e-08 -0.0053184135 -8.5375605e-06
000040 e0 25 63 35 79 8e 36 bb b7 6d 50 b5 1c d2 b2 b3
       8.4619205e-07 -0.0027855916 -7.7645694e-07 -8.3269896e-08
000050 5e 6d 98 36 ef 0f 1d 39 92 c8 83 33 2a eb 55 34
       4.542685e-06 0.00014978622 6.1366464e-08 1.9922723e-07
000060 6b 10 ed 39 1b 73 94 bb ed 30 93 b5 30 f9 62 3b
       0.00045216395 -0.004530323 -1.0966593e-06 0.003463339
000070 21 13 a8 b7 58 1a 30 3b e6 30 d6 30 f0 1e 1d b6
       -2.0036068e-05 0.002687117 1.5584447e-09 -2.341283e-06
000080 e3 9f 70 37 52 61 77 bb 81 d5 25 36 94 11 3c b6
       1.4342341e-05 -0.0037747216 2.4711192e-06 -2.8024415e-06
000090 80 67 c3 37 62 89 ac b6 68 a7 2e 35 f4 35 08 35
       2.3294007e-05 -5.141993e-06 6.506366e-07 5.074246e-07
0000a0 ea 5b d0 bb b9 f6 81 b5 93 98 27 bb 84 a8 d1 b3
       -0.0063586133 -9.683055e-07 -0.002557312 -9.762974e-08
0000b0 c3 72 aa 3a b1 1d 13 bb c6 cf bc 3b 33 6a 44 39
       0.0013004172 -0.0022448117 0.005762073 0.00018731579
0000c0 e4 58 25 ba 43 da cc 34 c4 ec 48 35 82 b1 c5 34
       -0.0006307496 3.8156767e-07 7.4850345e-07 3.6823263e-07
0000d0 9c f6 2a b8 05 f7 f6 ba 4b 5d e2 b8 e6 37 40 b5
       -4.076083e-05 -0.0018841928 -0.00010793897 -7.1606917e-07
0000e0 f0 dd 41 bb 1b 45 8f ba e8 e5 65 33 97 84 df b8
       -0.0029581748 -0.0010930629 5.3527316e-08 -0.000106581654
0000f0 61 24 3f 3a f2 d1 ae 37 b0 dd 40 35 da 84 5b 34
       0.00072914927 2.084018e-05 7.184817e-07 2.0444296e-07
000100 78 ed 87 3d 72 5f c3 3d dd 65 00 3e 22 c8 79 bb
       0.066370904 0.09539689 0.12538858 -0.0038113673
000110 6b ad 92 3c 18 5a 01 3d 42 b6 f9 bc 9f 28 f7 3d
       0.017904958 0.03158006 -0.030482415 0.12068295
000120 71 e5 b8 bc 7c c1 47 3d f0 ba 5a 3d 61 57 3e 3d
       -0.022570344 0.048768505 0.053400934 0.04647005
000130 ca 3e 89 3d ab 18 ca bd 10 cb ca 3d 9b b8 45 3d
       0.06701429 -0.09867986 0.09902012 0.048271757
000140 11 1d 48 32 91 d6 84 bc b7 e3 90 3d c2 64 81 bd
       1.1648141e-08 -0.016215594 0.07074683 -0.06318046
000150 c8 aa b6 3d 58 81 8c 3d 59 dc d5 bb 5e f5 c7 3c
       0.08919293 0.06860608 -0.0065265116 0.024408992
000160 12 52 00 3c 7b 0b 93 b8 08 46 1e bb af f7 e4 3d
       0.007832067 -7.0116446e-05 -0.0024150629 0.111800544
000170 16 86 82 38 25 87 dd 3c 3e 72 11 3e 8f 49 ce 3d
       6.2238585e-05 0.027041981 0.14203736 0.10072624
000180 0c 67 71 35 bd 8b 7c bd 7e 92 09 3c cb 23 b1 bd
       8.992945e-07 -0.061656702 0.008396743 -0.08649405
000190 6c f0 cd 3d 44 dc d7 3c 83 9d ca 3d da 26 d7 37
       0.100556225 0.026350148 0.09893324 2.5648089e-05
0001a0 a3 0f 54 3d 0b fc 2c 3c 87 ca b5 3d 93 81 04 3e
       0.051772725 0.010558139 0.0887652 0.12940054
0001b0 45 53 f7 bc 31 09 9c 3d e2 39 42 3d f6 3b 3e bd
       -0.030191073 0.076189406 0.047418483 -0.046443902
0001c0 15 86 5c 3d e0 c8 6f 3d 82 b5 c3 bd 93 98 e1 3c
       0.053838808 0.05854118 -0.09556104 0.027538573
0001d0 09 6f ae bd 6d fe c1 bd 47 e4 86 ba 28 87 8e 35
       -0.08517272 -0.09472356 -0.0010291421 1.061916e-06
0001e0 59 88 35 bd 55 2f 19 37 eb ce 59 bd e8 bd b2 3d
       -0.044319484 9.130531e-06 -0.053175848 0.08727628
0001f0 f8 0c 59 3d b9 e4 81 bd b0 52 be 3d 01 e7 e2 bb
       0.052990884 -0.063424535 0.09293115 -0.0069245105
000200 8f f2 50 bd a0 4c b0 bd 52 2f 9d 3d 67 54 cd 33
       -0.051012572 -0.08608365 0.07675041 9.561409e-08
000210 12 46 50 3c 34 b8 d0 bd 47 56 ab 3d 28 98 dc bc
       0.012712019 -0.10191384 0.083660655 -0.026928023
000220 3c 58 e4 bc 19 62 25 3d 3a 98 c6 bb 58 07 a3 bd
       -0.027874105 0.040376756 -0.0060606273 -0.07960385
000230 55 d0 a9 bd 5c 2d a0 bb 8e d6 84 bb 59 94 9c 3c
       -0.08291689 -0.0048882198 -0.004053897 0.019113706
000240 8f b1 1c b5 17 7a ae 3c 79 70 ff b8 36 27 46 3d
       -5.837291e-07 0.021298451 -0.00012180297 0.04837724
000250 33 6b 9c bd b8 8b c0 bd 28 93 c7 bd f4 a6 17 3d
       -0.07637634 -0.09401649 -0.09744865 0.037024453
000260 04 08 4c bd ae fa 56 b5 0c 22 15 3a 4a f8 b2 bd
       -0.04981233 -8.0086e-07 0.00056889723 -0.08738764
000270 54 3b bd b9 a4 49 a3 3d 06 3d 8a 3d bc d0 8c bd
       -0.00036093092 0.0797303 0.067499205 -0.068757504
000280 c9 fd 2f b6 1c 0b a1 3b f7 6e 9d 3d 9e 4e ff bd
       -2.6224754e-06 0.0049146544 0.076871805 -0.12466167
000290 59 6c 32 bc 5b 7f 20 3d 50 6a 37 bd ab 56 be 3b
       -0.01089009 0.039183956 -0.044779122 0.0058086715
0002a0 06 98 41 3b 9a 51 ec bd f1 38 d6 3c 6d 24 8d 3d
       0.0029540076 -0.11539002 0.026150199 0.06891713
0002b0 0c de 0e bd 07 06 80 3d 24 d1 17 bc 1b 64 db ba
       -0.03487973 0.062511496 -0.009266172 -0.0016738208
0002c0 83 e4 55 3d ee 0d 21 3d a9 55 ec ba 58 94 be b1
       0.05221988 0.039319925 -0.00180309 -5.5465925e-09
0002d0 af 02 50 34 61 c0 a4 bd 15 8d 82 34 13 58 b1 34
       1.9372486e-07 -0.08044506 2.4317038e-07 3.3032902e-07
0002e0 1b 44 ae b7 32 be 89 b5 f0 3a b0 bd 40 a5 1b 3b
       -2.077413e-05 -1.026265e-06 -0.086049914 0.002374962
0002f0 24 8f 1d 3d 27 ed 51 bd 26 89 9b bd 72 3a 44 35
       0.038466588 -0.051251557 -0.07594518 7.310074e-07
000300 41 e2 d4 bb 0a 9e bd b4 66 76 ba b7 cb f1 6e 33
       -0.006496698 -3.5318982e-07 -2.2228061e-05 5.5633603e-08
000310 46 ca 1b b5 f1 00 40 37 53 97 ab 3b e6 d2 3d 35
       -5.8036346e-07 1.1444311e-05 0.005236545 7.0714884e-07
000320 03 0b e4 bb 6b f0 b7 b4 8b ff 38 b5 fe 29 9d b4
       -0.0069593205 -3.4261333e-07 -6.8917205e-07 -2.9274082e-07
000330 fd b0 c0 b6 72 cd b5 34 a4 83 69 b8 1b d5 fc 34
       -5.74265e-06 3.3863358e-07 -5.567413e-05 4.7093712e-07
000340 0d 6e fc b6 7e ba 29 34 1a 8e 0c 36 6a 87 3c 36
       -7.522997e-06 1.5807197e-07 2.094434e-06 2.8093004e-06
000350 9e 68 9b 35 63 bd 4a bb b8 50 f6 b6 6b 9f 62 3b
       1.1578848e-06 -0.0030935637 -7.340768e-06 0.0034579884
000360 ef 4e 9e 3a e9 34 8b bb 10 47 1a b4 5c 99 07 b7
       0.0012077967 -0.0042482507 -1.436822e-07 -8.082334e-06
000370 28 46 78 37 96 91 7a 36 df 96 f7 34 41 ad 3b b5
       1.4798286e-05 3.7337645e-06 4.6117108e-07 -6.9915046e-07
000380 27 c5 a3 b5 6e 6e 36 36 26 9c 8c bb ed 85 e9 bb
       -1.2201825e-06 2.7184392e-06 -0.0042910753 -0.007126561
000390 77 b7 b8 b6 80 db 02 36 69 8a 22 36 00 1e e5 32
       -5.5049854e-06 1.9499275e-06 2.4220446e-06 2.6672751e-08
0003a0 25 f1 86 3a 04 31 c5 37 83 f2 42 36 a9 8c 8a b7
       0.0010295255 2.3507055e-05 2.9049413e-06 -1.6516382e-05
0003b0 4e 4d e8 b2 85 63 39 35 a1 06 84 3b 35 d1 09 35
       -2.7043509e-08 6.906269e-07 0.0040291105 5.1340913e-07
0003c0 ea b8 3b 35 19 1e 45 3a 3d 5a 1c 39 c4 e2 d0 3a
       6.9932014e-07 0.00075194385 0.00014910936 0.0015936722
0003d0 bb a0 97 b6 25 18 26 3b 92 07 39 ba 13 aa 9f 3a
       -4.518862e-06 0.002534398 -0.0007058318 0.0012181423
0003e0 93 8e e4 b5 4f 4c 68 35 37 7c c7 ba 79 2f 12 35
       -1.7028818e-06 8.653778e-07 -0.0015219514 5.445832e-07
0003f0 83 b3 40 ba 6d bc e5 ba 7b f5 8d 37 d2 14 bc 37
       -0.0007350968 -0.0017527469 1.692282e-05 2.2421042e-05

decoder.2.bias f4 [128]
000000 8f 9a a9 bb 8d 09 10 3d 9c 56 c0 bb f7 7e 09 bb
       -0.0051758955 0.03516536 -0.0058696996 -0.0020980218
000010 51 2b da bd 0d 1d ac 3d 3e 98 16 3e 8f 3f c7 3d
       -0.10652793 0.084039785 0.14706513 0.0972892
000020 26 fe 08 bd d3 da 4c 3d ae 85 a3 3d 3e a6 20 3e
       -0.0334455 0.050013375 0.07984482 0.15688416
000030 47 71 31 3c 30 c7 09 3e ce 09 bb bb 9f 32 26 bc
       0.01083023 0.1345489 -0.005707956 -0.010143905
000040 3c 2f 90 bd 13 68 a4 bc 49 c6 cb 3d 72 62 37 3d
       -0.07040259 -0.020069158 0.09949929 0.04477162
000050 51 44 76 3b 29 f0 df 3d 1f a1 36 3c 46 11 89 38
       0.003757734 0.10934479 0.011146813 6.5358865e-05
000060 6a de 8b 3d 2a 42 e1 3d 0c 3f 10 3e e0 ba 0b bd
       0.068295315 0.10998948 0.1408655 -0.034113765
000070 c9 46 10 ba d9 d3 15 bd e9 fc 8f bc 22 23 30 34
       -0.0005503712 -0.036578987 -0.017576652 1.6404059e-07
000080 e4 61 f9 3d 3b a6 1e 3d a2 95 ab 3d e3 ef 13 3e
       0.12176874 0.03873275 0.083781496 0.14446978
000090 af 5e 8f 3b 5e f5 73 3d 31 46 ca bd 88 4a e7 3c
       0.004375301 0.059560172 -0.09876669 0.028233781
0000a0 52 12 9b 3a d2 74 14 3e 61 57 0f 3d c7 de f0 3d
       0.0011831021 0.14497688 0.03499544 0.117612414
0000b0 29 a4 a8 33 44 5c 78 bd d0 50 29 3d 56 00 1f 3d
       7.85297e-08 -0.060634866 0.041336834 0.03881868
0000c0 82 1d b6 37 96 10 a2 3d 8b 5c 46 b6 7b c6 d7 bd
       2.1709831e-05 0.0791332 -2.9558166e-06 -0.10535904
0000d0 32 98 f9 bc 61 4c 1a b2 de b7 e0 3d 95 c0 74 bd
       -0.03046808 -8.981346e-09 0.1097257 -0.059753973
0000e0 17 5c 35 35 2f 7d 16 bb ad ee 8f bb f1 05 2c 3d
       6.756176e-07 -0.0022962799 -0.004392466 0.041997854
0000f0 d3 8c d1 3b e1 b9 44 bd a6 7c 13 bd 31 6b e2 bd
       0.0063949614 -0.04802883 -0.036007546 -0.110556014
000100 73 2b f1 bb aa 52 38 bd 84 8c a0 3d 37 78 bf 3c
       -0.007359916 -0.04500071 0.07839301 0.023372753
000110 74 06 f2 bb 58 47 d6 3d 4c b9 e0 bc 90 30 72 37
       -0.007386023 0.104628265 -0.027432106 1.4435631e-05
000120 d8 b0 50 bb 5d 10 b6 3b e1 75 a8 bd 8d 75 ae 3d
       -0.0031843688 0.00555615 -0.082256086 0.08518515
000130 0e 1c b2 3d 28 8a c9 bd ee ce 00 3e 52 e7 8e ba
       0.08696757 -0.09840804 0.12578937 -0.0010902679
000140 f0 79 f3 3c 00 65 43 bd 52 51 c1 3c b6 a1 b6 36
       0.02972123 -0.047703743 0.023598347 5.4428483e-06
000150 a6 fe b5 3d 21 f7 30 3d 2b 22 58 3d 98 46 ff b3
       0.08886461 0.04320443 0.05276696 -1.1887204e-07
000160 04 40 e3 bc f5 28 74 bb d7 a6 ca bb 14 ac b8 3d
       -0.027740486 -0.0037255858 -0.0061844396 0.09017196
000170 44 41 8c 3d 75 94 a5 3d 0e b9 ca 3d 61 e0 59 bc
       0.06848386 0.080849566 0.09898578 -0.013298125
000180 b6 53 f4 b4 37 14 40 bb 46 a9 36 37 f5 38 ac 3d
       -4.550945e-07 -0.0029308924 1.0887457e-05 0.08409301
000190 c8 04 b6 3d 2e 46 fa 35 45 79 ad 3c 22 ca b3 3d
       0.08887631 1.8646876e-06 0.02117599 0.08778788
0001a0 da a5 81 3b cb 51 4d 3d 1a 0c e3 bb 75 0c 7c bb
       0.0039565386 0.050126832 -0.006928933 -0.0038459573
0001b0 3e ef 71 bc e4 8b cf 3d e1 09 da bc 5b 53 ea 3d
       -0.014766512 0.10134104 -0.026616039 0.1144168
0001c0 c2 ce cf 3d c5 4c be 3d 3e 90 80 3d 6d bb a2 3d
       0.10146858 0.092919864 0.06277512 0.07945905
0001d0 9d 3f e8 3d ee fa 71 3c 2f d9 c0 3d 4a 69 d5 3d
       0.11340258 0.014769299 0.094164245 0.10420473
0001e0 c6 1a a3 3d f4 17 9e 3d d4 a9 16 3e 30 59 98 3c
       0.07964091 0.077194124 0.14713222 0.018597215
0001f0 4c 34 4e bd 7a f5 a3 bd f6 a1 98 3d c6 a7 c4 37
       -0.050342843 -0.08005805 0.074527666 2.3443146e-05
