Pipeline/Bonus_EDA/dnn_ae_v6_ls_4.pth (torch, 87651 bytes, 12 tensors)

encoder.0.weight f4 [128, 14]
0	0x3cf8e453	0.030382311
1	0x3bfb5ac1	0.007670731
2	0xbe1c00de	-0.15234706
3	0xbd917d70	-0.071040034
4	0x3e8130f9	0.25232676
5	0xbc60b95c	-0.013716068
6	0x3ea68494	0.32523024
7	0xbc60e7bc	-0.013727125
8	0x3e0ee1b7	0.13953291
9	0x3e018f7d	0.12652393
10	0x3e1c29a5	0.15250261
11	0x3da4acea	0.08040793
12	0x3cab997e	0.020947214
13	0x3dce7e69	0.100827046
14	0x3e719407	0.23591624
15	0xbd3a7be8	-0.045528322
16	0xbd29e130	-0.04147452
17	0xbda3d98f	-0.080004804
18	0x3e520d4f	0.2051289
19	0xbcb23898	-0.021755502
20	0x3b07cf89	0.0020723066
21	0x3ca047cb	0.019565484
22	0xbe18ad13	-0.14909773
23	0xbdae8adc	-0.08522579
24	0x3de01bed	0.109428264
25	0x3dbc0ca1	0.09182096
26	0x3d20c7b9	0.03925297
27	0x3e302684	0.17202193
28	0x3d2d5f58	0.042327255
29	0x3e0e37ca	0.1388847
30	0xbd0e021e	-0.034669988
31	0xbdd9cee2	-0.10635163
32	0xbd272f61	-0.04081667
33	0xbd2cbd82	-0.042172916
34	0x3e3420a8	0.17590582
35	0xbd9dac02	-0.076988235
36	0x3dbd7154	0.09250131
37	0x3c86caf5	0.0164542
38	0xbdb8c072	-0.09021081
39	0xbb556ec4	-0.0032567242
40	0x3bc578e4	0.006026374
41	0xbd4aa9b8	-0.049478263
42	0x3d89ed29	0.06734688
43	0x3e1814f6	0.14851746
44	0x3dcd75c0	0.10032225
45	0xbe2728a3	-0.16324095
46	0xbd5f2a29	-0.054483566
47	0x3b8ee023	0.0043602153
48	0xbd3e6348	-0.0464814
49	0x3d0ea452	0.034824677
50	0x3e3c6592	0.18398121
51	0x3dd8ccb6	0.105859205
52	0x3e1fdb17	0.1561092
53	0x3e472d84	0.19450957
54	0x3d9345ea	0.071910694
55	0xbcadee3f	-0.021231769
56	0xbcc1b375	-0.023645142
57	0x3c40f7f1	0.011777864
58	0x3ddfc172	0.10925569
59	0x3ba489cd	0.00502131
60	0xba477b0b	-0.00076095824
61	0xbbe41adf	-0.006961211
62	0x383ae883	4.45624e-05
63	0xbd87030e	-0.065923795
64	0x3b5ac543	0.0033381737
65	0xbdc2a311	-0.09503759
66	0x3df9c68d	0.12196074
67	0xbd6a30f6	-0.0571756
68	0xbc953cd9	-0.018217491
69	0x3c7dfc28	0.015502013
70	0xbe46c67c	-0.19411653
71	0x3e278ff2	0.16363505
72	0xbd805f90	-0.06268227
73	0x3d3336f5	0.043753583
74	0x3d052a8e	0.032511286
75	0x3db6c610	0.08924496
76	0x3e506a5d	0.20353074
77	0x3e196500	0.14979935
78	0x3d18ef10	0.037337363
79	0x3db8a72f	0.09016263
80	0xbdb7538a	-0.08951481
81	0xbda3fc4b	-0.080071054
82	0xbb925a11	-0.004466303
83	0x3d9cb880	0.07652378
84	0x3e4ff702	0.2030907
85	0xbe202d16	-0.15642199
86	0x3e73d594	0.23811942
87	0x3c97156d	0.018442834
88	0x3d44f7f0	0.048088014
89	0xbc9dbbd5	-0.019254604
90	0x3c8699c2	0.01643074
91	0xbe1edd81	-0.15514185
92	0x3e88d08a	0.26721603
93	0xbe53e5e5	-0.20693167
94	0x3d6c2816	0.057655416
95	0x3e476279	0.19471158
96	0xbe149e3a	-0.14513484
97	0xbbea3159	-0.007146996
98	0xbe2192da	-0.15778676
99	0xbc6c113e	-0.014408408
100	0xbd052a95	-0.032511313
101	0x3d3f905b	0.046768527
102	0x3defe9ac	0.11714491
103	0x3c4fad82	0.012675645
104	0x3ec465c9	0.38358906
105	0xbd28b9af	-0.041192707
106	0xbcd2c28b	-0.025727531
107	0x3d8e510c	0.06949052
108	0x3c556a2c	0.013025802
109	0x3cb90fb1	0.02259049
110	0xbd8278a9	-0.0637067
111	0xbb32f542	-0.002730683
112	0x3e773511	0.24141337
113	0x3e833b6d	0.25631276
114	0xbe089628	-0.1333853
115	0x3e624767	0.2209755
116	0x3e2a89cf	0.16654132
117	0xbbfe6c6c	-0.0077643897
118	0x3d85e4c1	0.06537772
119	0x3e00478d	0.12527294
120	0x3c69520e	0.014240755
121	0xbc72eae9	-0.014826515
122	0x3d2a2135	0.041535575
123	0x3e1c77c6	0.15280065
124	0xbe30e463	-0.17274623
125	0xbca50089	-0.020141857
126	0x3ac24e56	0.0014824371
127	0x3e8a5234	0.2701584
128	0xbdf9baa9	-0.12193806
129	0xbd7e7217	-0.062120523
130	0xbd469b68	-0.04848805
131	0x3d84e3d5	0.06488768
132	0xbc15a8b4	-0.00913446
133	0x3e342f66	0.17596206
134	0x3e565824	0.2093206
135	0xbdb60209	-0.08887107
136	0xbdc258b6	-0.094895765
137	0x3c30d200	0.010792255
138	0x3d256c9b	0.040386777
139	0x3e5e5f47	0.21716033
140	0xbd642ca1	-0.055706624
141	0x3e1751bc	0.14777273
142	0x3dd3b6a8	0.10337573
143	0xbe57ea53	-0.21085481
144	0xbd060978	-0.032723874
145	0x3d80bc48	0.06285912
146	0xbbfacb21	-0.0076536094
147	0x3df0c3bb	0.117560826
148	0x3df9b5fc	0.12192914
149	0x3dda4111	0.10656942
150	0x3e386dd9	0.18010654
151	0xbd04c3dd	-0.032413352
152	0x3e3e5026	0.18585262
153	0x3d3e8b53	0.04651959
154	0x3e0cd82c	0.13754338
155	0x3e4501ef	0.19239019
156	0xbe0f6f68	-0.14007342
157	0xbd8554a5	-0.06510285
158	0x3c17936a	0.009251455
159	0x3c985e4d	0.018599654
160	0x3d83a729	0.06428368
161	0x3d2c1204	0.04200937
162	0x3dd4a569	0.10383112
163	0xbdcda820	-0.10041833
164	0x3d8355a8	0.06412822
165	0x3e0b6174	0.13611394
166	0x3e6fcabb	0.2341718
167	0x3dad30ca	0.084565714
168	0xbd9a7d8c	-0.075434774
169	0xbc60fa3c	-0.0137315355
170	0x3d47191d	0.048607934
171	0x3e23ebbf	0.16007899
172	0x3ca6bad5	0.02035276
173	0xbc8c4c68	-0.017126277
174	0xbd465ca2	-0.048428185
175	0xbd8e4b7a	-0.0694799
176	0xbcae485d	-0.02127474
177	0x3e4a43cc	0.19752425
178	0xbdb425f8	-0.087963045
179	0x3bb9d72b	0.005671402
180	0xbe159d38	-0.14610755
181	0x3ce0d22d	0.02744397
182	0x35387550	6.8716054e-07
183	0x3519737e	5.7165005e-07
184	0x3931df3f	0.00016963201
185	0xb794649a	-1.7689821e-05
186	0xb3053278	-3.1012377e-08
187	0x32ee52b8	2.7744463e-08
188	0x20e93e12	3.951281e-19
189	0xb82b835b	-4.089191e-05
190	0x35802573	9.547642e-07
191	0x3553f7d1	7.8964246e-07
192	0x353c700d	7.0198513e-07
193	0xb9840e55	-0.0002518768
194	0x343a3145	1.7340524e-07
195	0x349b030c	2.8873217e-07
196	0xbbc43232	-0.005987429
197	0x3d9eef59	0.07760496
198	0xbcb26877	-0.021778328
199	0xbc14ca19	-0.009081387
200	0xbd0c0d5b	-0.034192424
201	0x3b1e2d01	0.002413571
202	0x3cc19c86	0.023634207
203	0xbcd05c32	-0.025434587
204	0xbb4115cc	-0.0029462455
205	0xbcc1c3ec	-0.023652993
206	0xbcfe95e3	-0.031077331
207	0xbc9a7e7f	-0.018859146
208	0xbc46dc6f	-0.012137516
209	0xbc3a4c28	-0.011370696
210	0x3d224ab7	0.039622035
211	0x39c1640a	0.00036886364
212	0x3dd93b62	0.106070295
213	0xbc3abaad	-0.011397046
214	0x3ebf7098	0.3739059
215	0xbcd0d82a	-0.0254937
216	0x3dcb9b61	0.099417455
217	0xbe0c9660	-0.13729239
218	0xbd5cf134	-0.053940967
219	0x3e0a71bc	0.13519949
220	0xbd7b5ee5	-0.061369795
221	0x3d449897	0.047997084
222	0x3c400e4d	0.01172216
223	0x3d1f1e90	0.038847506
224	0x3dc4f8d2	0.09617771
225	0x3e009a53	0.1255887
226	0xbdb4f847	-0.08836418
227	0xbcd00ead	-0.025397623
228	0xbdac5efc	-0.08416554
229	0x3b683270	0.0035430454
230	0x3d858d0a	0.06521042
231	0xbe10f8d1	-0.14157416
232	0x3dfd549f	0.12369656
233	0xbcc01a96	-0.023450177
234	0x3e08ed50	0.13371778
235	0x3d5789e9	0.052621756
236	0x3e2fbc97	0.17161785
237	0x3e2ff9e5	0.17185171
238	0x3e8c7661	0.27434066
239	0x3d6a5e10	0.05721861
240	0x3d25ec28	0.04050842
241	0x3c470b41	0.012148679
242	0x3e2405ab	0.16017787
243	0xbcfa0e6c	-0.030524455
244	0xbe168492	-0.14699009
245	0x3dcc170e	0.09965335
246	0x3d12a70b	0.035803836
247	0xbcc6b391	-0.024255546
248	0x3dbc6503	0.09198954
249	0xbd2f73e5	-0.042835135
250	0x3db15216	0.08658235
251	0x3dbcf132	0.09225692
252	0x3bd6ee2e	0.006559155
253	0x3e97fc05	0.29684463
254	0x3e5f167d	0.21785922
255	0xbd8048a2	-0.062638536

encoder.0.bias f4 [128]
0	0xbd4bb860	-0.04973638
1	0x3e4890c4	0.19586474
2	0x3e1fa3d1	0.15589835
3	0x3dabe180	0.0839262
4	0xb9a4f2e8	-0.00031461497
5	0x3e35f131	0.17767788
6	0x3e191413	0.14949064
7	0x3e76f0e5	0.24115331
8	0xbe1399ea	-0.14414182
9	0x3cb4bce5	0.022062728
10	0xbe420c76	-0.18950066
11	0xbdd5efb8	-0.10446113
12	0xbc8bd279	-0.017068135
13	0x35c8713a	1.4934114e-06
14	0x3b88af68	0.0041713007
15	0x3d14b29f	0.03630316
16	0x3e788a5d	0.24271531
17	0xbbadf920	-0.005309239
18	0x3e279d1f	0.1636853
19	0xbdef6dd8	-0.11690873
20	0xbb0a1e07	-0.0021075027
21	0x3d2a06e4	0.041510478
22	0x3e462eb1	0.19353749
23	0xbd9672e5	-0.07346133
24	0x3d4e72b1	0.050402347
25	0x3d019635	0.03163739
26	0xbe034dbe	-0.12822625
27	0x3e37666d	0.17910166
28	0x3e38a6d8	0.18032396
29	0x3dd2e156	0.10296886
30	0x3e5631d2	0.20917442
31	0x3d86969b	0.065716945
32	0x3e7326a4	0.23745209
33	0x3daefe22	0.08544566
34	0x3e18188e	0.14853117
35	0x3e2ab2a4	0.16669708
36	0x3e670cb0	0.22563434
37	0xb71c97a6	-9.333633e-06
38	0xbda6da03	-0.08147051
39	0xb463ea36	-2.1226228e-07
40	0xbc88da45	-0.016705642
41	0x3e4402a0	0.19141626
42	0xbdcbe5c9	-0.099559374
43	0x3216c0ef	8.775017e-09
44	0x22167ff9	2.0396539e-18
45	0x3e255c94	0.16148597
46	0xb351fe75	-4.8893032e-08
47	0x3e1b9da4	0.15196854
48	0x3dc2c1d6	0.095096275
49	0x3e497744	0.19674402
50	0x3dce5566	0.10074882
51	0x3e3e128b	0.18561761
52	0x3d818099	0.06323356
53	0x3c4b5b95	0.012411972
54	0x3d8d3c48	0.06896263
55	0x3e2c0dac	0.1680209
56	0xbc8008e8	-0.015629247
57	0x3df55d1b	0.11980649
58	0xbe259e38	-0.16173637
59	0x3d1776a8	0.036978394
60	0x3e007c57	0.12547432
61	0xbe0a00ca	-0.13476864
62	0x3d964f89	0.07339389
63	0x3e0cc931	0.13748623
64	0x3e1bc23f	0.15210818
65	0xbde0944d	-0.10965786
66	0x3d672986	0.056436084
67	0xbe1a3845	-0.15060528
68	0x3e301550	0.1719563
69	0x3daf8fd2	0.085723534
70	0xbe3e797a	-0.18601027
71	0x3e0439b9	0.12912644
72	0x3e32888a	0.17434898
73	0x3e51c678	0.20485866
74	0x3239fea4	1.0826316e-08
75	0x36523c0f	3.1327397e-06
76	0x3e04879b	0.12942354
77	0xbdb9bdde	-0.090694174
78	0x3e65fcf2	0.22459772
79	0x3e59d13e	0.21271226
80	0xbd92c17e	-0.07165812
81	0xbcfe360b	-0.03103163
82	0xb7812cfa	-1.5398942e-05
83	0xb93985c3	-0.00017692805
84	0x2d8084e1	1.4610925e-11
85	0x3dbd06fc	0.09229848
86	0x3c91e22c	0.017808042
87	0x3e1f3e12	0.15551022
88	0x3e2b017a	0.16699782
89	0x3dd33d25	0.10314397
90	0x3e41a989	0.18912329
91	0x3e12538a	0.1428968
92	0xbe63bb76	-0.2223948
93	0x3e1bae40	0.1520319
94	0x3d034dd9	0.032056663
95	0x3e27c01f	0.16381882
96	0x3d2bf829	0.04198471
97	0x3e0edcb2	0.13951376
98	0x3e4b0abf	0.19828318
99	0xbe506c2e	-0.20353767
100	0xbd954b33	-0.07289734
101	0xb3a35048	-7.604882e-08
102	0x3cb3d3f9	0.021951662
103	0x1db38181	4.751481e-21
104	0x3e114bdf	0.14189099
105	0x3cb229f8	0.021748528
106	0x3e03997c	0.12851518
107	0x3cc3b662	0.023890678
108	0x3d8aa632	0.067699805
109	0x1d643fcd	3.0208533e-21
110	0x3d7463b9	0.059665415
111	0x3cdd94d8	0.027048513
112	0xbd1cd6db	-0.03829084
113	0x3e0080de	0.12549159
114	0x3e0545cd	0.13014908
115	0x3d789c15	0.060695726
116	0x3dcd54e3	0.100259565
117	0x3e553ee7	0.20824777
118	0x2a7b92f9	2.234427e-13
119	0xbd6aaef8	-0.05729577
120	0x3e29c31d	0.16578336
121	0x3e1a69d9	0.1507944
122	0x3dc9391a	0.098253444
123	0xbe053f79	-0.13012494
124	0xbe590ad7	-0.21195541
125	0x323217ff	1.036642e-08
126	0xbdc9cc13	-0.09853377
127	0x3e1b13d0	0.15144277

encoder.2.weight f4 [64, 128]
0	0x3c626252	0.013817387
1	0xbd5384b4	-0.051640227
2	0xbccacac1	-0.024754884
3	0x3c309d2b	0.010779659
4	0xbabe0c6c	-0.0014499552
5	0x3ddd2841	0.107986934
6	0xbd1bd068	-0.03804055
7	0x3dc169d3	0.094440125
8	0xbcf2c2c3	-0.029633885
9	0x3d17428e	0.036928706
10	0x3d470679	0.048590157
11	0xbc0ea357	-0.008705935
12	0xbd0ae91b	-0.033913713
13	0x343ef99a	1.7785933e-07
14	0xbb4c1a57	-0.003114363
15	0xbcb59c1f	-0.02216917
16	0x3cecd6cb	0.028911015
17	0xbdb5ca5f	-0.0887649
18	0x3d0e1942	0.034692056
19	0x3d1869ce	0.03721028
20	0xbab0fee3	-0.0013503697
21	0xbd067e07	-0.032835033
22	0x3bdb8968	0.0066997297
23	0xbd105864	-0.035240546
24	0x3c84ef6f	0.016227452
25	0x3d4bb9cb	0.049737733
26	0xbdb11e38	-0.08648342
27	0xbd01ff79	-0.03173778
28	0xbd3ee1bd	-0.046602
29	0x3d634646	0.05548694
30	0x3de534e6	0.1119173
31	0x3d4f12d3	0.05055506
32	0x3ceabe98	0.028655335
33	0x3c4083ca	0.011750171
34	0x3c6fa8e6	0.014627671
35	0x3de4bd24	0.11168888
36	0x3c16af3e	0.009197054
37	0xbb0e2d86	-0.0021694615
38	0x3be1d6a3	0.006892042
39	0xa0f11439	-4.084037e-19
40	0xbca8d27f	-0.020608185
41	0x3dce3c3b	0.10070082
42	0xbd87d0f8	-0.066316545
43	0xb2e73046	-2.6913892e-08
44	0xa416299d	-3.2561313e-17
45	0x3da34eda	0.07974024
46	0x9e9b2277	-1.6425518e-20
47	0xba524dab	-0.00080224377
48	0xbcd6987e	-0.02619576
49	0xbc87adbe	-0.016562339
50	0x3dcf65be	0.10126828
51	0xbb8c74c2	-0.0042863796
52	0x3dd23693	0.102643155
53	0xbd03a489	-0.032139335
54	0xbc1d7a6e	-0.009611709
55	0xbd82af01	-0.063810356
56	0x3cf31012	0.029670749
57	0xbc088923	-0.008333477
58	0xbd5e0185	-0.054200668
59	0x3d8cda0e	0.06877528
60	0x3c9758d4	0.018474974
61	0xbbeb8975	-0.007188017
62	0xbd1d12e9	-0.038348112
63	0x3d59653f	0.05307507
64	0x3d95e22b	0.07318529
65	0xbd9f3f2d	-0.07775722
66	0x3d3cc17a	0.04608295
67	0xbbf206e2	-0.0073860744
68	0xbbb859fa	-0.0056259604
69	0x3c3688ea	0.011141041
70	0x3b9eff3c	0.0048522037
71	0x3d728b7c	0.059215054
72	0xbbffd8e2	-0.007807837
73	0x3e19aed2	0.15008095
74	0x315e034d	3.2307128e-09
75	0xa16e7829	-8.0796567e-19
76	0x3db6bb47	0.08922439
77	0xbcf5a421	-0.02998549
78	0xbd81f296	-0.06345098
79	0x3d78cec3	0.06074406
80	0x3c9d7f9c	0.019225888
81	0xbe078b6e	-0.13236782
82	0xb53a77a0	-6.9464477e-07
83	0xa1128143	-4.96378e-19
84	0x2e692de6	5.3018832e-11
85	0xbd2be8a8	-0.041969925
86	0x3cfd2d83	0.03090549
87	0x3d4658e5	0.04842462
88	0x3e136fbf	0.14398097
89	0x3d26aed8	0.040694088
90	0x3cd55930	0.026043504
91	0xbd815abd	-0.06316135
92	0xbd4a1504	-0.04933645
93	0x3d19ccaa	0.0375487
94	0x3cd115fb	0.025523176
95	0xbc64e788	-0.013971217
96	0xbcefb53c	-0.029261224
97	0xbab6465c	-0.0013906467
98	0x3c9676a0	0.018367112
99	0x3cac2013	0.021011388
100	0x3d3f00ba	0.046631552
101	0x3550ce32	7.778609e-07
102	0xbda0a507	-0.078439765
103	0x9e0888b0	-7.228046e-21
104	0xbcfc065e	-0.030764755
105	0x3caf0ca8	0.02136834
106	0xbc03acc9	-0.008036801
107	0x3c5dc58e	0.01353587
108	0x3bd6c99f	0.006554797
109	0x9ea40711	-1.7367098e-20
110	0x3c94bccd	0.018156433
111	0xbc99b740	-0.018764138
112	0xbc938204	-0.018006332
113	0xbda3a6eb	-0.079908215
114	0xbd192be3	-0.03739537
115	0xbc6d586f	-0.014486416
116	0x3cdf5553	0.027262365
117	0x3c25b1ce	0.010113193
118	0x2e71c64b	5.4973175e-11
119	0x3d2ce13b	0.042206984
120	0x3cf00fb0	0.029304355
121	0x3d74c3d0	0.059757054
122	0x3d990088	0.074708045
123	0x3ad92fda	0.0016570047
124	0xbbe275a2	-0.0069109956
125	0xb36640eb	-5.361009e-08
126	0x3b18a95f	0.0023294312
127	0x3e0fc48d	0.14039822
128	0x1f821003	5.508363e-20
129	0xb10dd27b	-2.0637845e-09
130	0x9e6883fa	-1.230927e-20
131	0xbbed32e5	-0.007238733
132	0xa1e8bb5a	-1.5770523e-18
133	0x22e03cf5	6.0779862e-18
134	0x3980b075	0.00024545533
135	0x24bba609	8.13796e-17
136	0x9e8a8460	-1.4666067e-20
137	0x1e04a46c	7.0220235e-21
138	0x390bfeb3	0.00013350956
139	0x9e21620a	-8.543543e-21
140	0x1df69088	6.52651e-21
141	0x9ecb4c24	-2.1524952e-20
142	0x2075ee1e	2.0831094e-19
143	0x1f70a2c2	5.0956607e-20
144	0xba086f37	-0.00052045606
145	0x225c6c28	2.9872817e-18
146	0xbb1a155b	-0.0023511264
147	0x21eb4d84	1.5944738e-18
148	0x1e7220d9	1.2818166e-20
149	0x9e4a4a60	-1.0709171e-20
150	0x1e19a914	8.134717e-21
151	0xa70da535	-1.965724e-15
152	0x9d32e8b3	-2.3678407e-21
153	0x9eb82f79	-1.9501392e-20
154	0x2f0c79ad	1.2776154e-10
155	0x3b567328	0.0032722447
156	0xbb130534	-0.0022433521
157	0x1eb234bb	1.8868292e-20
158	0x3936f45b	0.00017447902
159	0xa0a47a3f	-2.7863576e-19
160	0xbbe93346	-0.007116708
161	0x1eec32de	2.500851e-20
162	0x3bf65be0	0.0075182766
163	0xa0193f14	-1.2980475e-19
164	0x3b8b236e	0.004246167
165	0x9e1efb20	-8.416382e-21
166	0x209c8715	2.6516818e-19
167	0xa10d923f	-4.7966213e-19
168	0x3a84270f	0.0010082441
169	0xb69f275e	-4.743152e-06
170	0x1e8c2539	1.4838472e-20
171	0x1ee013be	2.3725088e-20
172	0x9e8e1bd5	-1.5046346e-20
173	0x369be32f	4.6458076e-06
174	0x9f016acd	-2.7405156e-20
175	0x21011e79	4.374723e-19
176	0xa56093fb	-1.9479041e-16
177	0x3a14b11b	0.0005672143
178	0x258ac977	2.4075702e-16
179	0xb45afa62	-2.0393921e-07
180	0xb22133c4	-9.3832035e-09
181	0x36d3ba59	6.3099837e-06
182	0xba1a9c78	-0.00058979494
183	0x21cc1058	1.3827904e-18
184	0x3b376201	0.0027982
185	0x2f29ce7b	1.5443817e-10
186	0x39059777	0.00012740293
187	0x9d5c0dec	-2.9123955e-21
188	0xbb1dba1d	-0.002406723
189	0x3901e862	0.00012388968
190	0x379ce14a	1.8701558e-05
191	0xad722a3d	-1.3765486e-11
192	0xa3679355	-1.2553734e-17
193	0xb8dd823b	-0.000105623585
194	0x3890ee6a	6.910863e-05
195	0x9f1347e0	-3.1187914e-20
196	0x38b47d9f	8.6064676e-05
197	0xa18ec58c	-9.674585e-19
198	0x9c0a76b7	-4.5813805e-22
199	0xa0abf986	-2.9133648e-19
200	0xb984388d	-0.00025219136
201	0xb692d53a	-4.375962e-06
202	0x1f357a56	3.8429435e-20
203	0x9daea099	-4.622347e-21
204	0x23b42c60	1.9534433e-17
205	0xb84e10ed	-4.912999e-05
206	0x387b2c61	5.9884394e-05
207	0x9eb3f50d	-1.9053713e-20
208	0x9e0f147f	-7.5745955e-21
209	0x9fe76bf7	-9.801092e-20
210	0x1f089541	2.892258e-20
211	0xa03c4902	-1.5948376e-19
212	0xa0767212	-2.0874753e-19
213	0xb4c2868d	-3.6233214e-07
214	0xa11cb60a	-5.3095783e-19
215	0xb7e27ea6	-2.7000275e-05
216	0x9eeefbb8	-2.5303339e-20
217	0xb8d2af03	-0.00010046179
218	0x1f4ae260	4.2962417e-20
219	0x3a03f3c1	0.00050335756
220	0xba296db5	-0.0006463186
221	0x27053cc2	1.8490395e-15
222	0x1f80e0c8	5.458198e-20
223	0xa22671e4	-2.2557488e-18
224	0xb337407c	-4.2666656e-08
225	0x3b9c29a2	0.004765705
226	0xbb82e833	-0.0039949655
227	0xba6503b4	-0.00087362085
228	0xa49a2ef4	-6.6866396e-17
229	0x1d86ad15	3.5648467e-21
230	0xa0ef7bec	-4.057018e-19
231	0xa0416a31	-1.6382872e-19
232	0xafa95a64	-3.0805147e-10
233	0x1f013e07	2.736812e-20
234	0xbb0b9314	-0.0021297382
235	0x1ef160ba	2.5556873e-20
236	0x370752d5	8.065913e-06
237	0x20a74219	2.833464e-19
238	0x1f14535b	3.140917e-20
239	0xa18da21b	-9.597441e-19
240	0x21906399	9.784183e-19
241	0x1eb2b120	1.891974e-20
242	0xb3a4fc44	-7.682732e-08
243	0x1d20450e	2.1211524e-21
244	0xb8c9e76f	-9.627535e-05
245	0xb42b9d01	-1.5982734e-07
246	0x9d6afc4c	-3.1100077e-21
247	0xad76596a	-1.4003335e-11
248	0xb914fda8	-0.00014208874
249	0xb8553aa4	-5.083777e-05
250	0x1f019c3c	2.7446047e-20
251	0x2fe4c526	4.161304e-10
252	0x1df9f2d9	6.616085e-21
253	0x9e5fa8e4	-1.18404475e-20
254	0xa54dad18	-1.7839562e-16
255	0x22dc88d2	5.9775984e-18

encoder.2.bias f4 [64]
0	0x3dc6dc70	0.09710014
1	0xbbdcd843	-0.0067396476
2	0xbc5ced65	-0.013484334
3	0x3bbeabd5	0.005818824
4	0x3d768153	0.060181927
5	0x3d45e573	0.048314523
6	0x3c76a0df	0.015053003
7	0xbc0bf679	-0.00854265
8	0xbd89ce82	-0.06728841
9	0xada7b244	-1.9064868e-11
10	0xbbbd1c56	-0.0057712
11	0x3d879faf	0.06622254
12	0x3dfbb5c5	0.12290529
13	0x3d0817c9	0.03322581
14	0x3d190e35	0.037367065
15	0x3cfa1096	0.030525487
16	0x3c83b169	0.016075807
17	0xbcedf4af	-0.029047338
18	0xbd15d189	-0.03657678
19	0x3d692f3a	0.056929804
20	0xb1838bab	-3.82848e-09
21	0x3d91a672	0.07111825
22	0x3c078825	0.0082722055
23	0x3b8f1ef1	0.004367702
24	0x3bfe4d34	0.007760668
25	0x3cf789b7	0.030217035
26	0xbcd55acb	-0.02604427
27	0xbc69d241	-0.01427132
28	0x3dc13259	0.09433431
29	0x3ccf84a7	0.025331808
30	0x3dacc5a6	0.08436136
31	0xbd822e5c	-0.063564986
32	0x3d1af059	0.03782687
33	0xbcf68f29	-0.030097561
34	0x3d359e3e	0.044340365
35	0x3d87c502	0.06629373
36	0xbd14c947	-0.036324766
37	0x3da20451	0.079109795
38	0x3dc29a52	0.095020905
39	0x3c68dea7	0.014213241
40	0x3ca2554b	0.019816061
41	0x3dc2127a	0.094761804
42	0x3dad4459	0.08460302
43	0x3c0f74c9	0.008755871
44	0x3b803c3e	0.0039134314
45	0x3dd3110f	0.10305988
46	0x359f70d5	1.1879262e-06
47	0xbc125133	-0.008930492
48	0x3dd1473c	0.10218665
49	0xbb207a25	-0.0024486866
50	0x3d0c5431	0.03425998
51	0x3ce07480	0.027399302
52	0xbc471018	-0.012149833
53	0x3d6f3288	0.0583978
54	0x3dccb75b	0.0999591
55	0xbcceb712	-0.02523378
56	0x3d3bff38	0.045897692
57	0xbcadc17b	-0.021210423
58	0x3d2caa66	0.042154692
59	0xbd8182fd	-0.06323812
60	0x3d2cabef	0.042156156
61	0xbccc95b8	-0.024973735
62	0xbd167467	-0.036732104
63	0x3ba6c442	0.0050893137

encoder.4.weight f4 [4, 64]
0	0x3e0cd32f	0.13752435
1	0x3aad6d90	0.0013231505
2	0x3c7f6595	0.015588184
3	0xbd9fb6f2	-0.07798566
4	0xbc83f881	-0.016109707
5	0xbc50d615	-0.012746354
6	0xbcfc1aaa	-0.030774433
7	0x3ccc3a35	0.024930099
8	0x3d7a9196	0.061173998
9	0x2ed72a18	9.7845454e-11
10	0xbe35dfa8	-0.177611
11	0xbe0eea8d	-0.13956662
12	0xbe511c62	-0.20420983
13	0xbd3f08a0	-0.046639085
14	0xbcab8e8f	-0.020942
15	0x3e2444f9	0.16041936
16	0xba978c2a	-0.0011562158
17	0x3b22737b	0.002478807
18	0x3d11e194	0.03561552
19	0x3ed96b23	0.4246455
20	0xb275662d	-1.4284109e-08
21	0x3e335ae9	0.17515148
22	0x3d5bfc4e	0.053707413
23	0x3e20a767	0.15688859
24	0xbdbdcd27	-0.09267645
25	0x3e48a626	0.1959463
26	0xbdadd13b	-0.08487173
27	0xbc95b476	-0.018274527
28	0xbd8a4583	-0.067515396
29	0xbdb883e3	-0.090095304
30	0x3ef50dd8	0.47862124
31	0xbad2d1d9	-0.0016084268
32	0x3e047ac9	0.12937464
33	0x3c84631c	0.01616054
34	0x3d1580f2	0.036499925
35	0xbdeabafb	-0.11461445
36	0x3eca05a4	0.39457428
37	0xbe075800	-0.13217163
38	0x3c53de3c	0.012931403
39	0x3d1d2d63	0.038373362
40	0xbc6ec9f6	-0.014574518
41	0xbe1fdec5	-0.15612324
42	0xbe209ea8	-0.15685523
43	0x3d1a24b8	0.037632674
44	0xbbde21f0	-0.006778948
45	0xbe0fa198	-0.14026487
46	0x2072bbfd	2.0560397e-19
47	0xa12d4cd1	-5.8716346e-19
48	0xbd91eb71	-0.07124985
49	0xbe41907d	-0.18902774
50	0x3dc5c3a5	0.09656457
51	0x3d4cc058	0.04998812
52	0xbda9251a	-0.0825903
53	0xbe119233	-0.14215927
54	0xbe2648c8	-0.16238701
55	0xbda9bd86	-0.08288102
56	0xbe1afbf9	-0.15135182
57	0x3e21cf3b	0.15801708
58	0xb996692f	-0.00028688597
59	0xbd15eaa8	-0.03660074
60	0x3cc074b4	0.023493148
61	0x3de4a55d	0.11164353
62	0x3a784338	0.00094704656
63	0x2db8394a	2.094382e-11
64	0x3df7cbce	0.120994195
65	0xbb8eaa33	-0.0043537854
66	0x3e429e8a	0.1900579
67	0xbd9f2ba9	-0.077719994
68	0x3d933a08	0.07188803
69	0x3dbbeaee	0.09175669
70	0xbd9825b0	-0.07429063
71	0x3dfba6ae	0.12287651
72	0x3e277f16	0.16357073
73	0xae273ca5	-3.8025267e-11
74	0x3e21ed1d	0.15813108
75	0xbeb34010	-0.35009813
76	0x3cbae939	0.022816287
77	0xbe157762	-0.14596322
78	0xbc394af1	-0.011309371
79	0x3e0322d6	0.12806258
80	0xbc9ce48f	-0.019151954
81	0x3e4877a9	0.19576897
82	0x3dcdd2b1	0.10049952
83	0x3e1c39ab	0.15256374
84	0x31aecebe	5.0875704e-09
85	0x3dcf9346	0.10135512
86	0xbcf3ddea	-0.029768903
87	0x3d334aa6	0.043772362
88	0x3e434531	0.19069363
89	0x3e135ce3	0.14390902
90	0x3ba4f1b1	0.0050336947
91	0xbc06fc0c	-0.008238804
92	0xbc8ed287	-0.017434372
93	0xbe3b4ddc	-0.1829142
94	0xbe3c9777	-0.18417154
95	0x3d8ba4d9	0.068185516
96	0xbde86ed0	-0.11349261
97	0xbd60cb12	-0.054881163
98	0xbe4e5552	-0.20149735
99	0xbe4a0e3a	-0.1973199
100	0x3e222635	0.15834887
101	0xbd5b35ea	-0.053518213
102	0xbe92181d	-0.28534022
103	0x3d6725aa	0.056432404
104	0x3e0c3fbf	0.13696192
105	0x3d0162e6	0.031588458
106	0x3e41727b	0.18891327
107	0xbe00aa15	-0.12564881
108	0x3df83ec9	0.1212135
109	0x3dc83da3	0.09777381
110	0x22d4c3f8	5.7670205e-18
111	0x397c9004	0.00024086243
112	0xbe1845f2	-0.14870432
113	0x3deb342e	0.11484562
114	0xbdb7b052	-0.08969177
115	0xbe0f2c4e	-0.13981745
116	0x3e115861	0.1419387
117	0xbdd29110	-0.10281575
118	0xbdbad22e	-0.0912212
119	0x3e268d65	0.16264875
120	0xbdf7ee52	-0.12106003
121	0x3d635c94	0.05550821
122	0x3df84b75	0.12123767
123	0xbd508931	-0.050912086
124	0x3d3c8865	0.046028513
125	0x3e036d86	0.12834749
126	0x3a5b3537	0.00083621166
127	0x39c19b0f	0.00036927356
128	0x3dc7b0df	0.09750532
129	0x3aff7c01	0.0019491912
130	0xbdf86f63	-0.1213062
131	0xbd98fbe9	-0.07469923
132	0xbe0c064a	-0.13674274
133	0x3d83d2e2	0.06436707
134	0x3c66dab5	0.01409023
135	0xbd73e1cf	-0.05954152
136	0xbd1bd57b	-0.038045388
137	0xaf12fb7e	-1.336797e-10
138	0x3d82d996	0.063891575
139	0xbbd42e4e	-0.0064752465
140	0x3e7c8d7b	0.24663346
141	0x3ce1ce14	0.027564086
142	0xbd3c801e	-0.04602062
143	0xbe0f6186	-0.14002046
144	0x3be6a8ef	0.0070391814
145	0xbcacd0d2	-0.021095667
146	0xbdbe53f0	-0.092933536
147	0xbc53c8ce	-0.012926294
148	0x31badf52	5.438701e-09
149	0xbd0adbab	-0.033900898
150	0xbe1832f8	-0.14863193
151	0xbc209599	-0.009801292
152	0xbd60b0df	-0.054856177
153	0x3dac54c2	0.08414604
154	0xbdfb0827	-0.12257414
155	0x3ccf8f0d	0.025336767
156	0xbdb8a9e2	-0.090167776
157	0xbdbf0af1	-0.09328259
158	0x3e17ac19	0.14811744
159	0x3bd662e8	0.0065425523
160	0xbe1b22ce	-0.15149996
161	0x3d153f18	0.036437124
162	0xbd96e547	-0.0736795
163	0xbbf0d6d0	-0.0073498264
164	0xbc2cb7d8	-0.010541879
165	0x3db16de8	0.08663541
166	0x3e00e565	0.12587507
167	0xbde35d4f	-0.111017816
168	0xbdcaf9c6	-0.09910922
169	0xbdd8790b	-0.10569962
170	0x3dc31eaf	0.09527337
171	0xbe0e607e	-0.13903996
172	0xbd8e7eef	-0.069578044
173	0xbdf5d3ef	-0.12003314
174	0x1fa34810	6.91524e-20
175	0xa6755df3	-8.5128775e-16
176	0x3cd50201	0.026001932
177	0xbd77a0ea	-0.060456194
178	0xbdc7751e	-0.09739135
179	0xbe06e412	-0.1317294
180	0xbcbd9523	-0.023142403
181	0xbc0f61c0	-0.008751333
182	0x3d8f13db	0.06986209
183	0xbddc09c6	-0.10744052
184	0x3d61eb5f	0.055156108
185	0xbe82e808	-0.2556765
186	0x3b11747c	0.0022194674
187	0xbdc48f82	-0.095976844
188	0x3d3e65a0	0.046483636
189	0xbcea1bf3	-0.02857778
190	0x3ca3cbe6	0.019994687
191	0x3a46e8c2	0.0007587784
192	0x3ecc890b	0.39948305
193	0xb8b9ace5	-8.8536915e-05
194	0xbd94ee0a	-0.07271965
195	0x3d850a0f	0.06496059
196	0xbd83bb66	-0.06432228
197	0x3e20bc95	0.15696938
198	0xbd9cbe58	-0.07653493
199	0xbcb07fab	-0.021545252
200	0xbdd3af90	-0.1033622
201	0xaeb275b8	-8.115414e-11
202	0xbd39e534	-0.0453846
203	0x3ed7cccd	0.42148438
204	0xbd07c105	-0.033143062
205	0x3e12a1cb	0.14319532
206	0xbd87ddae	-0.06634079
207	0x3e3164fe	0.17323682
208	0x3cad5e0c	0.02116301
209	0xbded0412	-0.11573042
210	0xbd9b09ec	-0.07570252
211	0x3e7919d2	0.24326256
212	0xb1322d5c	-2.5928193e-09
213	0x3d803d51	0.06261695
214	0xbdfdb3ce	-0.12387811
215	0x3d6753a8	0.056476265
216	0xbdb238bd	-0.08702228
217	0xbc34bf1e	-0.011031894
218	0xbca0f8c2	-0.019649867
219	0x3c9d9643	0.01923669
220	0xbdb75f4f	-0.089537255
221	0x3d4eb344	0.05046393
222	0xbe8150a4	-0.25256836
223	0x3b957e81	0.0045621996
224	0x3d0c9146	0.03431823
225	0x3cd081ea	0.025452573
226	0xbc573dfc	-0.013137337
227	0x3d39bcb8	0.04534599
228	0x3e320730	0.17385554
229	0xbca48577	-0.020083172
230	0x3e3aea22	0.18253377
231	0xbdc7c40d	-0.097541906
232	0xbe02ef22	-0.12786534
233	0xbde41f71	-0.111388095
234	0xbdd076fd	-0.10178945
235	0xbdfe7618	-0.12424868
236	0xbd8dfa36	-0.069324896
237	0xbde5f4be	-0.112283215
238	0x20d331fc	3.5777867e-19
239	0xb291d9a6	-1.6979197e-08
240	0xbde875ff	-0.11350631
241	0x3e97fa23	0.29683027
242	0xbe013ae1	-0.12620117
243	0x3c7ee881	0.015558363
244	0x3cbd5f33	0.023116684
245	0x3d792935	0.060830314
246	0xbd06b04f	-0.032882985
247	0xbd2d4798	-0.042304605
248	0xbdfea52f	-0.1243385
249	0x3e30171a	0.17196313
250	0xbd326c14	-0.043560103
251	0xbd561a5d	-0.052271236
252	0xbdeb6133	-0.11493149
253	0xbe0e9746	-0.13924894
254	0x3c1b6097	0.009483478
255	0xb91d7c90	-0.0001501909

encoder.4.bias f4 [4]
0	0xbe0ccf80	-0.1375103
1	0x3d722571	0.05911774
2	0xbdcda2f9	-0.1004085
3	0xbe03e3cc	-0.12879866

decoder.0.weight f4 [64, 4]
0	0xbdec630d	-0.1154233
1	0xbe976e29	-0.29576233
2	0xbd4237b1	-0.047416393
3	0xbd9bbf8a	-0.076048926
4	0x3e57b07f	0.21063422
5	0xbd7bb27d	-0.061449517
6	0xbe5fceb3	-0.21856193
7	0xbc9f7f7e	-0.019469973
8	0xbdc983b4	-0.098395735
9	0x3ee091e6	0.43861312
10	0xbee3fdc1	-0.44529536
11	0xbe408b6f	-0.1880319
12	0x3e48b4b6	0.19600186
13	0x3ebe0158	0.371104
14	0x3e52744d	0.20552178
15	0xbd5b1290	-0.0534845
16	0x3e981a6a	0.29707652
17	0x3db4b213	0.088230275
18	0xbd44ab0e	-0.048014693
19	0x3dc0327f	0.09384631
20	0x3d896279	0.06708235
21	0xbdcc0ac6	-0.09962992
22	0xbdf1bd35	-0.118036665
23	0x3d6e1f6e	0.058135442
24	0xbe4e7750	-0.20162702
25	0x3e3a2172	0.18176821
26	0xbcca118b	-0.024666568
27	0x3db08a73	0.08620157
28	0x3e9a8843	0.30182084
29	0xbe6f0e5d	-0.23345323
30	0xbeaafa04	-0.33393872
31	0xbeca5fe9	-0.395263
32	0xbd3b0c3a	-0.045665957
33	0x3ea09e83	0.31370935
34	0x3b025485	0.0019886803
35	0xbea6dc5c	-0.32589996
36	0xbe86ed8c	-0.2635311
37	0xbe9bf0e4	-0.30457222
38	0x3e6413e9	0.2227322
39	0xbb177bc8	-0.002311455
40	0xbe566b36	-0.20939335
41	0x3e995228	0.29945493
42	0x3e91c4d7	0.2847049
43	0x3d448dfc	0.04798697
44	0xbd72da29	-0.059290085
45	0x3de8f457	0.11374729
46	0x3e5bfa5a	0.2148222
47	0x3e0102bb	0.12598698
48	0xbda36a91	-0.0797931
49	0x3ee97765	0.45598903
50	0x3e483779	0.19552411
51	0xbe24fa30	-0.16111064
52	0x1fbe06c2	8.047931e-20
53	0x218703b2	9.148934e-19
54	0x1eb55cab	1.9202447e-20
55	0x1f415596	4.0940135e-20
56	0xbdef8a1f	-0.116962664
57	0x3e055ef1	0.13024499
58	0x3ece655b	0.40311703
59	0x3ce4a99e	0.027912911
60	0xbecbae2f	-0.3978133
61	0x3e62d155	0.22150166
62	0xbed53d97	-0.41648552
63	0xbe28b5a3	-0.16475539
64	0xbe41f1c1	-0.18939878
65	0xbe32aa33	-0.17447738
66	0x3d25bcba	0.040463187
67	0x3e058a1d	0.13040967
68	0xbe7cb525	-0.24678476
69	0xbe164fb1	-0.14678837
70	0xbeb49299	-0.35268095
71	0x3da58dfa	0.080837205
72	0x3d81ffc5	0.06347612
73	0x3d59341f	0.053028222
74	0x3b861b9f	0.004092648
75	0x3db8b2bc	0.09018466
76	0x3c385dd5	0.01125284
77	0x3c8438dd	0.016140396
78	0x3df50a96	0.1196491
79	0x3e9386ce	0.28813785
80	0xbec18f3b	-0.3780459
81	0xbda75b7d	-0.08171747
82	0xbe327e5d	-0.17431016
83	0xbedb37b9	-0.4281595
84	0x3c34690b	0.011011372
85	0x3eb594d4	0.3546511
86	0x3d8ec41b	0.06970998
87	0xbeaa5597	-0.33268425
88	0xbeb645be	-0.35600084
89	0xbe222e99	-0.15838088
90	0x3e9ffc44	0.3124715
91	0xbddd23ce	-0.10797845
92	0xb392465e	-6.8114545e-08
93	0x371e2987	9.427203e-06
94	0x9ea632a4	-1.7596878e-20
95	0x3822c9d2	3.881177e-05
96	0xbd2fc75f	-0.042914744
97	0x3eaeb05b	0.34118924
98	0xbeec1bd5	-0.46114984
99	0xbef0e0ff	-0.47046658
100	0x3cba37ac	0.022731625
101	0x3d87ec99	0.06636924
102	0xbe16c1a9	-0.14722313
103	0xbd64c084	-0.05584766
104	0xbe860623	-0.26176557
105	0x3ecfed13	0.4061056
106	0xbe8158c0	-0.25263023
107	0xbce3c753	-0.027805006
108	0xbdb796f6	-0.089643404
109	0xbea6caa3	-0.32576475
110	0xbe9c8be7	-0.30575487
111	0xbdd707f6	-0.10499565
112	0xbb82c1a8	-0.003990371
113	0xb7f96158	-2.9728442e-05
114	0xb78c66fc	-1.6737256e-05
115	0x3ca1f87f	0.019771812
116	0x3e58a68e	0.21157286
117	0x3e81a6e8	0.25322652
118	0xbebd8672	-0.37016636
119	0xbe23b7ce	-0.15988085
120	0xbea58ca2	-0.32333857
121	0xbd9e2a1b	-0.07722875
122	0xbe7c910b	-0.24664705
123	0xbe72f8fe	-0.23727795
124	0x3e7b467c	0.24538606
125	0xbe73769e	-0.23775718
126	0x3d845c12	0.064628735
127	0xbccd48d0	-0.025059134
128	0x3d1469f3	0.036233854
129	0xbe874c23	-0.26425275
130	0xbef5c09c	-0.47998512
131	0xbe117311	-0.1420405
132	0x3df42fe4	0.11923197
133	0x3e531b9f	0.20616005
134	0x3dde96d4	0.10868612
135	0xbf04289b	-0.5162446
136	0xb94b454c	-0.00019385404
137	0x1eabace0	1.8176829e-20
138	0x20ea2331	3.966443e-19
139	0x3a5597a1	0.00081478996
140	0xbd84bb76	-0.06481068
141	0xbe6e2d95	-0.23259576
142	0x3e410f9e	0.18853614
143	0xbe1cde45	-0.15319164
144	0x3e05b28c	0.13056391
145	0x3ebaf1f1	0.36512712
146	0xbe9c429b	-0.30519566
147	0x3e7d9d08	0.24766934
148	0xbc813c32	-0.015775774
149	0x3d8b5314	0.06802955
150	0x3e106c60	0.14103842
151	0xbeeb03e6	-0.45901412
152	0xbe87e61a	-0.2654274
153	0xbe27b985	-0.16379364
154	0x3ed70784	0.4199792
155	0xbd4bdeb9	-0.04977295
156	0x3e0b6a1b	0.13614695
157	0xbee3c3b1	-0.44485238
158	0xbe3b3223	-0.18280844
159	0x3e52f4bf	0.20601176
160	0xbeb37c5c	-0.35055816
161	0x3e030195	0.12793572
162	0x3e8eca2e	0.27888626
163	0xbe811daa	-0.25217944
164	0xbc6abd1e	-0.014327316
165	0xbbe40274	-0.0069583002
166	0x3cb0f8a2	0.021602932
167	0x3e377902	0.17917255
168	0xbe9e4314	-0.30910552
169	0xbeda5c30	-0.42648458
170	0xbd389677	-0.04506537
171	0x3b36ba0a	0.0027881884
172	0xbe6f8b0e	-0.23392889
173	0x3e4b97fe	0.19882199
174	0x3e218e16	0.15776858
175	0xbe268b74	-0.16264135
176	0xbe36c877	-0.17849909
177	0x3cea53aa	0.028604347
178	0x3d95b343	0.07309582
179	0x3eb120c6	0.34595317
180	0xbeb97aaf	-0.36226413
181	0x3e8c5e63	0.2741576
182	0xbc399439	-0.011326843
183	0x3da141bb	0.07873865
184	0xbeeb247e	-0.4592628
185	0xbeabe149	-0.33570316
186	0xbe52ed7f	-0.2059841
187	0xbed61fc8	-0.41821122
188	0x3dce8afa	0.100851014
189	0x3eb8b830	0.36078024
190	0xbed2d555	-0.41178384
191	0xbe0a8f33	-0.13531189
192	0xbe868684	-0.26274502
193	0xba5896cb	-0.0008262216
194	0xbe55047f	-0.20802496
195	0xbe833162	-0.25623614
196	0x3ea639bc	0.32465923
197	0x3e63ebd0	0.22257924
198	0xbe1ee5a8	-0.15517294
199	0xbd35808c	-0.044312045
200	0xbcaa8d3d	-0.0208193
201	0x3ee7c594	0.45267928
202	0xbeabd1dd	-0.3355855
203	0x3dcc444f	0.09973966
204	0xbcf88550	-0.030337006
205	0xbed2e0cf	-0.4118714
206	0x3e029dfd	0.1275558
207	0xbec6439e	-0.38723463
208	0x381c7102	3.7298545e-05
209	0xb971af8c	-0.00023048947
210	0x3c026004	0.007957462
211	0xa6329c2b	-6.1967803e-16
212	0xbe3cc29a	-0.1843361
213	0x3da12fc1	0.078704365
214	0xbea1e69a	-0.31621248
215	0x3e858808	0.26080346
216	0xb79bb48a	-1.856151e-05
217	0x36a4d8bb	4.9128116e-06
218	0x3cfc5a7e	0.030804869
219	0x3cf7f49b	0.030268004
220	0xbed3d026	-0.41369742
221	0xbdbf12fd	-0.093297936
222	0xbd6f3860	-0.058403373
223	0xbeb367cf	-0.35040137
224	0x3e0f292c	0.1398055
225	0x3e077c38	0.1323098
226	0x3da4adb6	0.08040945
227	0x3e04e567	0.12978135
228	0x3e8e2567	0.2776291
229	0x3e8675c2	0.26261717
230	0xbe7771ee	-0.24164554
231	0x3d9e2603	0.07722094
232	0xbea21d63	-0.31663045
233	0xbdb22608	-0.0869866
234	0xbed44951	-0.41462186
235	0x3e7e4fc9	0.24835123
236	0xbee50563	-0.44730672
237	0xbd0ae11e	-0.033906095
238	0x3e9a0a7c	0.30086124
239	0xbef1aacd	-0.47200623
240	0xbc91cd7e	-0.017798182
241	0x3c0a86c5	0.008454983
242	0xbcb690b5	-0.022285799
243	0x3d1e509f	0.038651105
244	0x3de4d193	0.111727856
245	0x3e91d0cd	0.28479615
246	0x3e986fee	0.29772896
247	0x3e9055b0	0.28190374
248	0xbd8ba75a	-0.06819029
249	0xbe63982a	-0.22226015
250	0xbeec6a42	-0.46174818
251	0xbcb3c34f	-0.021943716
252	0x3eb92ba7	0.36166117
253	0xbd057358	-0.032580703
254	0xbcc7638e	-0.024339464
255	0xbdc3f08e	-0.095673665

decoder.0.bias f4 [64]
0	0x3e78ab4c	0.24284095
1	0xbe92c374	-0.28664744
2	0xbe09c5a0	-0.13454294
3	0x3ca3a32a	0.019975264
4	0x3db957ea	0.090499714
5	0x3dbcbc43	0.092155956
6	0x3db1a5e6	0.08674221
7	0x3e412fee	0.1886594
8	0xbea23415	-0.3168036
9	0x3d42d100	0.0475626
10	0x3d1d5d8d	0.038419295
11	0x3d5f451b	0.054509263
12	0x3dc2e756	0.0951678
13	0xb7208d28	-9.569609e-06
14	0x3eea0ab7	0.457113
15	0xbedcdedc	-0.43138778
16	0xbd004bcc	-0.031322286
17	0xbde20997	-0.11036985
18	0xbcc542be	-0.024079677
19	0x3ee0a2e9	0.4387429
20	0x3efd6f26	0.49498862
21	0xbe2e7bfa	-0.17039481
22	0x3e60c29a	0.21949235
23	0xbc57d645	-0.013173644
24	0xbeb3984c	-0.3507713
25	0xbe080d6a	-0.13286367
26	0xbedda2ab	-0.43288168
27	0xbec76dd9	-0.38950995
28	0xbc2f912d	-0.010715765
29	0x3e8fd69c	0.2809342
30	0xbedc983f	-0.43084905
31	0x3e9ba906	0.30402392
32	0x3eecc0e0	0.46240902
33	0xbe4e1ad4	-0.20127422
34	0xbcbaec0e	-0.022817638
35	0x3dc0d935	0.09416429
36	0x3df5e105	0.1200581
37	0xbcf11a75	-0.029431561
38	0x3eaec1c2	0.341322
39	0x3dd1ceab	0.10244497
40	0x3ea4c78d	0.32183495
41	0x3e2a4ace	0.16630098
42	0xbe86d444	-0.2633382
43	0xbd81ee70	-0.063443065
44	0x3eef1bfe	0.46701044
45	0x3df232a8	0.11826068
46	0x3e151c2f	0.14561532
47	0x3ef5e57d	0.48026648
48	0x3add4173	0.0016880467
49	0x3dd0f1fa	0.10202403
50	0xbe24e2c0	-0.16102123
51	0xbe384cae	-0.17998001
52	0xbcc7a5b2	-0.024371002
53	0xbcf3e212	-0.029770885
54	0xbb01969b	-0.0019773606
55	0x3c803ba8	0.015653446
56	0x3de0b10f	0.10971271
57	0x3ea5fc0a	0.32418853
58	0x3dbe24d6	0.0928437
59	0x3e9121c9	0.2834609
60	0xbc0a5630	-0.0084434
61	0x3ebf7bf5	0.3739926
62	0xbe11b88e	-0.14230558
63	0xbcecf559	-0.028925585

decoder.2.weight f4 [128, 64]
0	0x3c1b4954	0.009477932
1	0xbbf364fc	-0.0074278098
2	0x3c9f3399	0.019433783
3	0xbd200f73	-0.039077234
4	0x3e0453e3	0.12922625
5	0x3cb549d9	0.02212994
6	0x3dd6168c	0.10453519
7	0xbe25e720	-0.16201448
8	0x3c507e7a	0.012725467
9	0xbc7d70bc	-0.0154687725
10	0x3dbc0e63	0.091824315
11	0x3c1e605f	0.009666531
12	0x3d09b05c	0.033615455
13	0x24a67b5a	7.219999e-17
14	0x3dee5388	0.11637026
15	0x3d8f52f7	0.06998246
16	0x3c6868d5	0.01418515
17	0x3dacf052	0.08444275
18	0x3cb90cbf	0.022589086
19	0x3d9fe85d	0.07807992
20	0xbc349c0a	-0.011023531
21	0x3bc16a54	0.005902568
22	0x3cbe2bb1	0.023214193
23	0x1f9f082e	6.735265e-20
24	0xbcb440e6	-0.022003602
25	0x3be74661	0.0070579504
26	0x3dd94ebd	0.10610721
27	0x3d243356	0.04008802
28	0x398429ac	0.0002520805
29	0xbd42a646	-0.047521852
30	0x3d01b13a	0.031663157
31	0x3c6d1472	0.014470207
32	0xbd8f73b8	-0.070044935
33	0xbd251554	-0.040303543
34	0x2343d2b8	1.0615593e-17
35	0xbca4ac62	-0.02010173
36	0x3d42be6e	0.04754489
37	0xbd621106	-0.055192016
38	0xbcbac4ad	-0.02279886
39	0x3dae76b0	0.085187316
40	0x3d16779a	0.036735155
41	0x3d4c45e7	0.04987135
42	0x3d260d71	0.040540162
43	0x3d6c58ab	0.057701748
44	0x3db437fa	0.08799739
45	0x3e05f898	0.13083112
46	0xbc802365	-0.015641877
47	0xbc85333d	-0.016259784
48	0x3bf48900	0.0074626207
49	0xbd9b1616	-0.07572572
50	0x3d8191ef	0.06326663
51	0x3c123bd9	0.008925402
52	0x9e338560	-9.503762e-21
53	0x3e22846a	0.15870824
54	0x3554eb1c	7.9318283e-07
55	0x3c653251	0.013989047
56	0x3dd6f0fa	0.104951814
57	0xbd021440	-0.031757593
58	0x3e263a82	0.16233256
59	0x3c25d911	0.010122553
60	0x3c4c32dc	0.012463298
61	0x3e6e9ac0	0.2330122
62	0x3c46a218	0.012123607
63	0x3d5487d2	0.05188734
64	0xbd419ac5	-0.04726674
65	0xbcddfd30	-0.027098268
66	0x3df4ae06	0.11947255
67	0x3cb85484	0.022501238
68	0xbcd64a98	-0.026158616
69	0xbcd36a0f	-0.025807409
70	0xbc8519e4	-0.016247697
71	0xbae17575	-0.0017201143
72	0x3db88f08	0.09011656
73	0xbca34c34	-0.019933797
74	0x3c212e91	0.009837762
75	0xb951325f	-0.00019950558
76	0x3da24e9e	0.07925151
77	0x9f38dd2e	-3.914647e-20
78	0x3d0454c4	0.0323074
79	0x3dfcc2d1	0.12341846
80	0xbbc0df17	-0.0058859694
81	0xbda5feef	-0.08105265
82	0x3b97bfdb	0.0046310253
83	0xbc79c0ff	-0.015243768
84	0x3d1e177d	0.03859662
85	0x3dc1733b	0.094458066
86	0xbc19ce16	-0.009387514
87	0x235adf9e	1.18651565e-17
88	0x3d9531aa	0.07284863
89	0x3cbe7037	0.023246868
90	0x3dd08823	0.10182216
91	0x3c717e0f	0.014739527
92	0xb5b7e61e	-1.3701535e-06
93	0xbcb10839	-0.021610366
94	0x3ce4a87f	0.027912376
95	0xbd86b45f	-0.06577372
96	0xbdb468ae	-0.088090286
97	0x3de95ae5	0.1139429
98	0x2183f887	8.94269e-19
99	0xbd418361	-0.047244433
100	0xbc90c27c	-0.017670862
101	0x3d45d36c	0.04829733
102	0xbce7bc79	-0.028288113
103	0xbd3604b0	-0.044438064
104	0x3d88dcea	0.06682761
105	0xbbb10c15	-0.0054030516
106	0xbcbb6714	-0.0228763
107	0x3d20c6bd	0.03925203
108	0xbcc57374	-0.024102904
109	0x3d563209	0.05229381
110	0x3a22407e	0.00061894197
111	0xbd46b1ba	-0.048509337
112	0x3d89599d	0.067065455
113	0x3e0a7064	0.13519436
114	0x3d3fe6f8	0.04685113
115	0xbc8af8a8	-0.016964272
116	0xa601cc33	-4.5032607e-16
117	0xbc5c721d	-0.013454941
118	0xa0e8818d	-3.9388058e-19
119	0x3bb21e9a	0.005435777
120	0xbafe87a0	-0.0019419082
121	0xbcaa2597	-0.020769877
122	0xbd873f58	-0.06603879
123	0xbd43ef32	-0.047835536
124	0xba52d999	-0.0008043289
125	0x3cc6edc3	0.024283295
126	0xbd0a38f3	-0.033745717
127	0xbd481b58	-0.048854202
128	0x3d3d7b8a	0.046260394
129	0xbd27c5d3	-0.040960144
130	0xbc5a0be3	-0.013308498
131	0x3c7a9a42	0.015295567
132	0xbd267dfa	-0.040647484
133	0xbc34ff63	-0.011047217
134	0x3d05bb45	0.032649297
135	0xbd1bc796	-0.038032137
136	0xbd199d84	-0.037503734
137	0x3c5b1504	0.01337171
138	0xbc4e3372	-0.012585508
139	0xbb942f80	-0.004522264
140	0x3d445780	0.04793501
141	0x1e41a72c	1.0251905e-20
142	0x3d08bc89	0.033382926
143	0x3cbdcf14	0.023170032
144	0xbcc8c52b	-0.02450808
145	0xbc7f1d2d	-0.015570921
146	0xbac88029	-0.0015296984
147	0xbd0aaa59	-0.033853862
148	0x3dcdc520	0.10047364
149	0xbcacead5	-0.02110807
150	0x3c8d13b4	0.01722131
151	0x20553499	1.8059205e-19
152	0xbc9bb3b4	-0.019006588
153	0xbc38df1a	-0.01128366
154	0xbc93b46e	-0.018030372
155	0xbc26cf3c	-0.010181244
156	0xb7a4a17d	-1.9625522e-05
157	0xbce58777	-0.028018696
158	0x3c86d886	0.016460668
159	0xbce9ca83	-0.028538948
160	0xbcd4c4aa	-0.025972683
161	0xbbeb5130	-0.007181309
162	0x9eb42fb1	-1.9077966e-20
163	0x3cecfda4	0.028929539
164	0xbd69b424	-0.05705656
165	0x3d2351da	0.03987298
166	0x3cd1b264	0.025597759
167	0xbd8d067d	-0.06886003
168	0x3de195aa	0.11014874
169	0xbc9a180a	-0.01881029
170	0xbcdc4749	-0.02688946
171	0x3d65eb0e	0.05613237
172	0xbd58ccee	-0.05292981
173	0x3da0d96d	0.07853971
174	0x3dba62c6	0.09100871
175	0x3c04e5b3	0.008111405
176	0x3d6e5cc3	0.058193933
177	0xbd469080	-0.04847765
178	0xbd6533ee	-0.055957727
179	0x3c67795a	0.014128054
180	0x9f0b60fa	-2.9514612e-20
181	0xbd5ce7bd	-0.05393194
182	0xb55fb4b1	-8.3336914e-07
183	0x3ddb4c36	0.107078955
184	0xbd0a04a1	-0.03369582
185	0xbd24a35c	-0.040194854
186	0xbc9c8dce	-0.019110586
187	0x3e032adf	0.12809323
188	0xbb4e129a	-0.0031444193
189	0xbdef6a29	-0.1169017
190	0xbcb68db6	-0.02228437
191	0xbbbe470c	-0.0058068093
192	0x3dacbba0	0.08434224
193	0x3a4db4b4	0.0007847056
194	0x3d87eaa1	0.06636549
195	0x3c8dc623	0.017306393
196	0x3bc61a83	0.006045641
197	0x3c5c4341	0.013443769
198	0xbd4f7c10	-0.050655425
199	0x3bd8a740	0.0066117346
200	0x3aed67c1	0.0018112586
201	0x23c8c797	2.1768573e-17
202	0x3be7b16d	0.0070707113
203	0xbb6e3bac	-0.0036351485
204	0xbcb29f9e	-0.021804627
205	0x271b8ce2	2.1586944e-15
206	0x3d934285	0.07190422
207	0x3cb63eaf	0.022246687
208	0x3ab77970	0.0013997983
209	0x3bb74220	0.0055925995
210	0x3c270a98	0.010195397
211	0xbdc8439a	-0.09778519
212	0xbda6b82f	-0.08140599
213	0xb9f7146b	-0.00047126724
214	0x3d93a556	0.0720927
215	0xa806667d	-7.460718e-15
216	0xbc872b59	-0.016500162
217	0x3b1b4aa2	0.0023695608
218	0x3cfbed17	0.030752702
219	0xbb252a66	-0.0025202273
220	0x365dbf69	3.3042982e-06
221	0xbdddf165	-0.10837058
222	0xb949018a	-0.00019169427
223	0x3b868ac7	0.004105899
224	0xbd6cb708	-0.05779174
225	0xbcf18e19	-0.029486703
226	0xa7eb6f45	-6.534624e-15
227	0xbca805ac	-0.020510517
228	0x3d1f60cb	0.03891067
229	0xbd0a5915	-0.03377636
230	0x3d9b8799	0.075942226
231	0xbc146cd8	-0.0090591535
232	0x3cf291a6	0.029610466
233	0xbde23ad5	-0.110463776
234	0x1e1c9c27	8.290863e-21
235	0x3b9e8692	0.0048378194
236	0x3d17a571	0.03702301
237	0x3db93ee9	0.09045202
238	0xbd13fc34	-0.03612919
239	0x3d66e4fa	0.056370713
240	0xbde905d7	-0.11378067
241	0xbd2914a4	-0.04127945
242	0x3d30ca90	0.04316193
243	0x1f3b5d68	3.9676054e-20
244	0xa18ecc35	-9.676347e-19
245	0x3d1ec3dc	0.038761005
246	0xa61bf60a	-5.4109873e-16
247	0x3d8df644	0.06931737
248	0x3da135ec	0.07871613
249	0x3db5541d	0.08853934
250	0xbdfa7344	-0.122290164
251	0xbdef5d33	-0.11687698
252	0x39b661c2	0.0003478658
253	0xbd856129	-0.065126725
254	0x3d5c2016	0.053741537
255	0xbc655436	-0.013997128

decoder.2.bias f4 [128]
0	0xbcc89121	-0.024483265
1	0xbd320bf4	-0.04346843
2	0x3d8f9e0c	0.07012567
3	0x3d25f4af	0.04051655
4	0x3db06eb1	0.08614863
5	0xbd265852	-0.040611573
6	0xbcc9f7f3	-0.024654364
7	0xbcc6a7ae	-0.024249878
8	0x3d43a29d	0.047762502
9	0xbda8d6e3	-0.082441114
10	0x3dc1e960	0.09468341
11	0x3e1ddc8c	0.15416163
12	0x3e2ff964	0.17184979
13	0xb211ac4b	-8.479286e-09
14	0x3d6aff96	0.057372652
15	0x3ce3133e	0.027719136
16	0x31776dd6	3.6005665e-09
17	0x3d92aa34	0.0716137
18	0xbd11930e	-0.035540633
19	0xbc34625f	-0.011009782
20	0xbd445938	-0.047936648
21	0x3d4fbc2a	0.050716557
22	0xbcbda018	-0.023147628
23	0xbd653fd2	-0.055969067
24	0xbdf22991	-0.118243344
25	0x39ee1965	0.00045413818
26	0xbc2b9eb9	-0.010474854
27	0x3c72612a	0.0147936735
28	0xbd3a6894	-0.04550989
29	0x3c255d6f	0.010093077
30	0xbdd97ca1	-0.10619474
31	0xb5932227	-1.0962293e-06
32	0x3bb63ab1	0.005561196
33	0x3d309ea7	0.043120053
34	0x3ddc36ff	0.10752677
35	0x3de8dcb0	0.11370218
36	0xbda2882a	-0.079361275
37	0x3cd05126	0.02542932
38	0xbd1e120f	-0.03859144
39	0xbd1c96e1	-0.038229827
40	0x3db1871c	0.08668348
41	0xbd458f0f	-0.048232134
42	0xbd08100a	-0.03321842
43	0x3cd8c39e	0.026460465
44	0x3da4c0fb	0.080446206
45	0x3dd6e2fc	0.104925126
46	0x3e01f41a	0.12690774
47	0xa87de816	-1.4094647e-14
48	0x3bc1ac6a	0.005910446
49	0xbda0d237	-0.07852595
50	0xbca022de	-0.019547876
51	0x3d5910b6	0.052994452
52	0xbe0f83fc	-0.14015192
53	0xad8730a2	-1.536932e-11
54	0x3b84cd82	0.0040528188
55	0x3d8a9901	0.067674644
56	0xbce4f172	-0.027947161
57	0xb9361c08	-0.00017367315
58	0xaad4e49a	-3.781739e-13
59	0xbcab3dfe	-0.020903584
60	0x3d688c58	0.056774467
61	0x3d8a85bb	0.06763788
62	0xbd986345	-0.07440809
63	0x3d2ada17	0.041711893
64	0xb72a12e0	-1.0137184e-05
65	0xbde0c448	-0.10974938
66	0x3d263a10	0.040582716
67	0xbe1473f2	-0.14497355
68	0xbd8794e2	-0.06620194
69	0xbde1f3a6	-0.110328004
70	0x3c377eb6	0.011199644
71	0x3d1bf93d	0.03807949
72	0x3c671713	0.014104622
73	0xbd80ad38	-0.06283039
74	0x3de2ff24	0.110838205
75	0xbac72391	-0.0015193095
76	0x3d8e1f5f	0.06939577
77	0xbd522e38	-0.05131361
78	0x3d10e039	0.035370085
79	0x3d359d27	0.044339325
80	0x3d1a0944	0.037606493
81	0xbce2710b	-0.027641794
82	0x3d8a890a	0.067644194
83	0x3dbbd4a0	0.091714144
84	0x3dff6ded	0.124721386
85	0xb40c0e6a	-1.304376e-07
86	0xbe063c94	-0.13109046
87	0xbdad867b	-0.08472916
88	0xbd27e3d0	-0.040988743
89	0xbcce2bc6	-0.025167357
90	0x3daabf06	0.08337216
91	0xbccc8cd2	-0.024969492
92	0x3da5ae47	0.080898814
93	0xbd876c80	-0.066124916
94	0xbdfe9920	-0.1243155
95	0xbdc6d66b	-0.09708866
96	0x3dbfce3b	0.09365507
97	0x3ced644c	0.02897849
98	0x3cf00848	0.029300824
99	0xbd611912	-0.05495555
100	0xbd56bfb8	-0.05242893
101	0x3e18db68	0.14927447
102	0xabce9874	-1.4679495e-12
103	0x3e0a0fc4	0.13482577
104	0x3d6a6e74	0.057234243
105	0x3da2ae4e	0.07943402
106	0xbd08f818	-0.033439726
107	0x3e0e4448	0.13893235
108	0x2e16fb1e	3.4329088e-11
109	0x3b79c6c8	0.0038112868
110	0x3e071943	0.1319323
111	0x3b933ee4	0.004493581
112	0x3d943bb3	0.07237949
113	0x3d8d10bb	0.06887957
114	0xbe487d89	-0.19579138
115	0xbd5d9667	-0.054098513
116	0xbd75808a	-0.059937038
117	0x3d891ab9	0.0669455
118	0x3d5df7d3	0.05419142
119	0xbd48c8d0	-0.049019635
120	0x3dc2a5b1	0.095042594
121	0xbd0cf78c	-0.034415767
122	0x3e22bc27	0.15892087
123	0x2e1b9b09	3.538062e-11
124	0x3e0abbfe	0.13548276
125	0x3e014d44	0.12627131
126	0xbba6607d	-0.0050774203
127	0x3e0ab55c	0.13545746
