Pipeline/Bonus_EDA/dnn_ae_v4_ls_10.pth (torch, 90737 bytes, 12 tensors)

encoder.0.weight f4 [128, 14]
0	0xbe3e6d64	-0.18596417
1	0xbe1c4463	-0.15260462
2	0x3e6afc33	0.22947769
3	0x3d9e21f9	0.077213235
4	0x3e872e08	0.26402307
5	0x3d7d79b8	0.06188366
6	0xbd7ee3fc	-0.06222914
7	0x3e140688	0.14455616
8	0x3da5ab48	0.0808931
9	0x3e60b34f	0.21943401
10	0x3e1afecd	0.15136261
11	0xbe224467	-0.15846406
12	0xbd5ab8bd	-0.053398836
13	0xbdcd6b60	-0.10030246
14	0x3e830476	0.2558934
15	0x3c9e23a0	0.019304097
16	0x3d32f17d	0.043687332
17	0xbe0b0d46	-0.13579282
18	0xbcac3525	-0.021021435
19	0xbe3c20c2	-0.18371871
20	0x3d11277a	0.03543804
21	0xbe2e5046	-0.1702281
22	0x3de88c90	0.11354935
23	0x3e5f7f07	0.21825801
24	0xbdd5aa6b	-0.10432895
25	0x3d20ab7e	0.039226048
26	0xbd87072f	-0.06593167
27	0x3e2a0172	0.16602114
28	0xbbab4351	-0.0052265306
29	0x318a3b50	4.0230717e-09
30	0x3c340a2f	0.010988756
31	0xae419ad1	-4.4020624e-11
32	0xb97061af	-0.00022924574
33	0xb9a9c776	-0.00032382802
34	0x308e0882	1.0334278e-09
35	0xbc2d96f6	-0.010595074
36	0x30eee092	1.7380606e-09
37	0xb5d13876	-1.5588146e-06
38	0xbbf4a1c5	-0.0074655735
39	0x2f526a27	1.9137102e-10
40	0xbb3c82d7	-0.002876451
41	0xb9af8ad5	-0.0003348204
42	0x3e373e00	0.17894745
43	0x3c3b539d	0.011433509
44	0x3e4c816d	0.19971247
45	0xbd0dc18f	-0.03460842
46	0xbdb9a006	-0.09063725
47	0x3e237128	0.15961134
48	0xbd8228e7	-0.06355458
49	0x3e88066f	0.26567408
50	0x3e3e24fb	0.18568794
51	0x3e15a4d5	0.1461366
52	0xbd81e0b4	-0.06341687
53	0x3e499286	0.196848
54	0x3e1afaa8	0.1513468
55	0xbdf996ca	-0.12186964
56	0x3c53e471	0.012932883
57	0xbe199fac	-0.15002316
58	0x3e4645d5	0.19362576
59	0x3e238db3	0.15972023
60	0x3dbabea2	0.091183916
61	0x3e291beb	0.16514556
62	0x3d8ebf49	0.069700785
63	0x3e3fb501	0.18721391
64	0x3e5275ae	0.20552704
65	0x3e81d123	0.2535487
66	0x3e1c49c6	0.15262517
67	0x3cabab2a	0.02095564
68	0xbdc38e16	-0.09548585
69	0xbdd4190d	-0.103563406
70	0xbd351135	-0.044205863
71	0xbd87578b	-0.06608494
72	0xbe322194	-0.17395622
73	0xbce902c6	-0.028443705
74	0xbd9a1350	-0.07523215
75	0x3e1f7c53	0.1557477
76	0x3e5a2624	0.21303612
77	0xbe5e34e7	-0.21699868
78	0x3d57c456	0.052677475
79	0x3e22e68f	0.15908264
80	0x3d790a6b	0.06080095
81	0xbbc21cd3	-0.0059238463
82	0x3e5bbd78	0.21458995
83	0xbdb16972	-0.0866269
84	0xbd8788f8	-0.066179216
85	0xbdc40dad	-0.09572921
86	0x3c5159f2	0.012777792
87	0x3dce0272	0.1005906
88	0xbe3b0420	-0.18263292
89	0x3e8ccc58	0.27499652
90	0x3e3830cd	0.17987366
91	0x3e861db8	0.2619455
92	0x3e0d8d92	0.13823536
93	0x3d6cd62d	0.05782144
94	0xbe0773fd	-0.1322784
95	0x3e4dcd61	0.20097877
96	0x3e676521	0.22597171
97	0x3df5dcc0	0.12004995
98	0x3e4be197	0.19910274
99	0xbd912e3d	-0.070888974
100	0xbd22a610	-0.03970915
101	0x3d91e2d1	0.0712334
102	0xbb5bd710	-0.0033544935
103	0x3d5559a4	0.05208744
104	0xbe652e4a	-0.22380939
105	0x3e01ac37	0.12663351
106	0x3d60c76f	0.054877695
107	0x3d7bd729	0.06148449
108	0x3d28f67b	0.041250687
109	0x3bf3b9dc	0.0074379276
110	0xbdda907f	-0.10672092
111	0xbe02b26d	-0.12763377
112	0x3ddb8266	0.10718231
113	0x3e43560f	0.19075797
114	0xbe1f05ae	-0.1552951
115	0x3c6eb79d	0.014570144
116	0xbd9d75e1	-0.07688499
117	0x3d9a3e85	0.07531456
118	0xbd0a9ff1	-0.03384394
119	0x3d2657dd	0.040611137
120	0xbe295cc1	-0.16539289
121	0x3e0204e3	0.12697177
122	0x3e68cc03	0.22734074
123	0x3e67ed0d	0.22649021
124	0x3e3fd75b	0.18734495
125	0xbc65f900	-0.014036417
126	0x3ddd03a0	0.10791707
127	0x3e683da9	0.22679771
128	0xbdfc9e22	-0.12334849
129	0xbddeb717	-0.10874765
130	0xbc28f824	-0.010313068
131	0xbdf50bfa	-0.11965175
132	0x3dcf5c83	0.10125067
133	0xbe09df99	-0.13464202
134	0x3c4a511b	0.012348439
135	0xbc044393	-0.008072752
136	0x3e879c25	0.26486316
137	0xbcfa2b75	-0.0305383
138	0xbb94447d	-0.004524766
139	0x3e6a308c	0.22870082
140	0x3d0a51a7	0.033769276
141	0xbe154855	-0.14578374
142	0x3decf152	0.11569466
143	0x3da8a9c6	0.08235507
144	0x3d3f05df	0.04663646
145	0x3d2c21a8	0.042024285
146	0xbdab7d95	-0.08373562
147	0xbe2467da	-0.16055241
148	0xbd2ac6d5	-0.041693527
149	0xbb1a305d	-0.0023527362
150	0x3e048166	0.12939987
151	0x3e805c5a	0.2507046
152	0x3dc49759	0.0959918
153	0x3e330557	0.17482506
154	0x2e075e66	3.077929e-11
155	0x37538663	1.2607869e-05
156	0x2db26722	2.0282057e-11
157	0xb2388ba8	-1.0741964e-08
158	0x2b968a24	1.0696483e-12
159	0xb9660139	-0.00021934965
160	0x2f8d5877	2.571061e-10
161	0xba530471	-0.0008049673
162	0x33149e65	3.4602994e-08
163	0x39783705	0.0002367162
164	0x326512fc	1.3333871e-08
165	0xbc6579cd	-0.01400609
166	0xba1ff8a6	-0.000610242
167	0xbc77bd55	-0.015120824
168	0x3b1634bd	0.0022919618
169	0xbe3e1e0c	-0.1856615
170	0x3d720e30	0.05909556
171	0x3e063508	0.13106167
172	0x3d15302b	0.03642289
173	0x3e4196cf	0.18905185
174	0x3df9afe8	0.121917546
175	0x3c0b9e5c	0.008521643
176	0xbda76434	-0.08173409
177	0xbdc27796	-0.094954655
178	0xb9e498df	-0.00043601447
179	0x3d8b7d0c	0.0681096
180	0x3df380f3	0.118898295
181	0x3e8873ab	0.26650748
182	0x3e700e47	0.23442946
183	0x3e78d1ee	0.24298832
184	0xbd34560b	-0.04402737
185	0xbdd58c14	-0.104271084
186	0x3d4635d3	0.048391175
187	0x3c5bc7ee	0.013414366
188	0x3d5c9e50	0.053861916
189	0xbe649603	-0.2232285
190	0x3d6198a1	0.0550772
191	0x3e2fcc33	0.1716774
192	0xbd1e47df	-0.03864276
193	0x3da072c2	0.07834388
194	0x3dcfb2e7	0.10141545
195	0xbcb14127	-0.021637512
196	0xbd31af6f	-0.043380197
197	0x39ae5949	0.0003325439
198	0x3e17faaa	0.14841715
199	0x3d60f380	0.05491972
200	0x3ce1e634	0.02757559
201	0x3de77dc6	0.11303286
202	0x3e96e1f1	0.29469255
203	0x3c69f5c0	0.014279783
204	0xbaace3c9	-0.0013190444
205	0x3d8d737d	0.06906793
206	0xbdf74abd	-0.12074802
207	0xbc3068dc	-0.010767188
208	0x3da9fc1c	0.08300039
209	0x3e9472f7	0.2899396
210	0xbd644e61	-0.05573881
211	0xbd3e42c0	-0.046450377
212	0x3e67981f	0.22616623
213	0x3db1c64c	0.086804
214	0x3e453dda	0.19261876
215	0x3c157d69	0.009124138
216	0x3d11722c	0.035509273
217	0xbe1ceba1	-0.1532426
218	0x3d67ad20	0.05656159
219	0x3e694b19	0.22782554
220	0xbdae9a4b	-0.08525523
221	0x3d2a0994	0.04151304
222	0x3e70604e	0.23474237
223	0x3dd8a44b	0.105782114
224	0xbc258688	-0.0101028755
225	0x2e43da64	4.4531837e-11
226	0xad5ae2b4	-1.24422035e-11
227	0xbca2a5f5	-0.019854525
228	0xbcafb574	-0.021448828
229	0xbb676239	-0.0035306348
230	0x3b0c9d91	0.0021456222
231	0xaf06c949	-1.225874e-10
232	0x2d743596	1.3881693e-11
233	0x2cb0790a	5.015659e-12
234	0xaf063d39	-1.220898e-10
235	0xb7d55042	-2.5428952e-05
236	0xbbbfb986	-0.0058509735
237	0xaf24e4e0	-1.4997026e-10
238	0xbdad0315	-0.084478535
239	0x3e87be24	0.26512253
240	0xbe05eac4	-0.13077837
241	0x3b9d53af	0.0048012356
242	0x3e57e897	0.2108482
243	0x3dee316c	0.1163052
244	0x3dc06473	0.09394159
245	0x3e6df012	0.23236111
246	0xbdd89add	-0.10576413
247	0x3e8133f9	0.25234964
248	0x3e8433d1	0.25820783
249	0xbd511edb	-0.051054817
250	0x3e653314	0.22382766
251	0xbe684c09	-0.22685255
252	0x3dc4c472	0.096077815
253	0x3d97f177	0.07419103
254	0x3dc84175	0.0977811
255	0xbbb09c79	-0.0053897467

encoder.0.bias f4 [128]
0	0x3e6605e3	0.22463183
1	0x3dc68e2f	0.09695088
2	0xb1bb097b	-5.443494e-09
3	0x3cc8a874	0.024494387
4	0x3e11ab1c	0.1422543
5	0x3e29cf6d	0.16583033
6	0xbdce09e2	-0.10060479
7	0x3da65f1e	0.08123611
8	0x3e215958	0.15756738
9	0x3e01af54	0.12664539
10	0xbd248947	-0.04016998
11	0x378214fd	1.5506981e-05
12	0x3e3cfdf0	0.18456244
13	0xbdbb52f4	-0.091466814
14	0x3c4e0127	0.012573517
15	0xbd26bc89	-0.040707145
16	0xae548328	-4.831971e-11
17	0x3d730a97	0.05933627
18	0xbe291166	-0.16510543
19	0x3d7c051b	0.061528306
20	0xbd9cc096	-0.0765392
21	0xbe7d070b	-0.24709718
22	0x3ceeaf8d	0.029136444
23	0xbdf4debd	-0.119565465
24	0x3e0fea7a	0.1405429
25	0x3221bc75	9.414284e-09
26	0x3ac560a7	0.0015058712
27	0x3da68974	0.08131686
28	0x3d785cd2	0.060635395
29	0x3e749de0	0.2388835
30	0xbc244238	-0.010025553
31	0xbca6f03f	-0.02037823
32	0x3e1b3fea	0.151611
33	0xbb068477	-0.0020525733
34	0x3cca3cbb	0.024687162
35	0xbe2aa04a	-0.16662708
36	0x3d805f94	0.0626823
37	0xbe04b856	-0.12960944
38	0xbe1f725e	-0.15570971
39	0x3e58c27d	0.21167941
40	0x3b980286	0.0046389727
41	0x3e2f5f16	0.17126116
42	0xbe084fbd	-0.13311668
43	0x3e3a74c6	0.18208608
44	0xbe5a3015	-0.21307404
45	0xbc431c68	-0.011908628
46	0x3e61550d	0.220051
47	0x3dab3f57	0.083616905
48	0x3d8cc51b	0.068735324
49	0xbe11f878	-0.1425494
50	0xbddd3529	-0.10801155
51	0xbdb8db90	-0.09026253
52	0x3de5792a	0.11204751
53	0x3cabe46f	0.020982949
54	0x3c8f2fd8	0.017478868
55	0x3c6a19fa	0.01428842
56	0xbdac473b	-0.08412024
57	0x3e3c9dfd	0.18419643
58	0xbe0b07b5	-0.13577159
59	0x3dfcaf24	0.12338093
60	0xbd2db236	-0.042406283
61	0x33269328	3.8783725e-08
62	0xbe806074	-0.25073588
63	0x3e2408b8	0.16018951
64	0xbe4f5628	-0.2024771
65	0xbc46170a	-0.012090454
66	0xbcfc3d50	-0.030790955
67	0x3e40d68e	0.18831846
68	0xbd087988	-0.033319026
69	0xbd36ad3e	-0.04459881
70	0xbc184655	-0.009294112
71	0x3e57570c	0.210293
72	0xbd90d118	-0.070711315
73	0x3d81fea0	0.06347394
74	0x2e63d906	5.180658e-11
75	0xbe17377b	-0.14767258
76	0xbe3bc07d	-0.18335147
77	0xbdf59616	-0.11991517
78	0x3e1b2efd	0.15154643
79	0x3d6942e5	0.05694856
80	0x3ba63bb2	0.005073034
81	0x3e47bbfd	0.19505306
82	0xb9778f5f	-0.00023609166
83	0x3db22c31	0.08699835
84	0xbe0b7515	-0.13618882
85	0x3df62eb5	0.120206274
86	0xb0564576	-7.7951456e-10
87	0xbe41985d	-0.18905778
88	0xb6c35294	-5.821066e-06
89	0x3e1358d2	0.14389351
90	0x3dfdf662	0.124005094
91	0xbe2604ab	-0.16212718
92	0x3e16cb41	0.14725973
93	0xbdcd9e8f	-0.10040008
94	0x3bd3bbdb	0.006461603
95	0xbc1988f2	-0.009371029
96	0x3e74f7d2	0.23922661
97	0x3e65151f	0.22371338
98	0x3e48ee04	0.19622046
99	0xbdd90470	-0.105965495
100	0x3e695056	0.22784552
101	0x3da8cd50	0.08242285
102	0xb8463c46	-4.7263013e-05
103	0xbe58b986	-0.21164522
104	0x3e86c967	0.26325533
105	0xbde1123d	-0.10989807
106	0x3e7899ca	0.24277416
107	0xbd701154	-0.058610275
108	0xbbdb852e	-0.006699226
109	0x3e523063	0.2052627
110	0xbdcf624e	-0.10126172
111	0xbd8af301	-0.067846306
112	0x3e4faefb	0.20281594
113	0xaf42956b	-1.7697281e-10
114	0x3d854e13	0.06509032
115	0x3cc6f520	0.024286807
116	0xba27de3a	-0.0006403659
117	0x3e23dbbc	0.16001791
118	0x33c82783	9.320413e-08
119	0x3de6da71	0.11272133
120	0x3e2b03fa	0.16700736
121	0xbdc631ba	-0.09677453
122	0x3ded78da	0.11595316
123	0xbccef56f	-0.025263516
124	0x3ca8ff82	0.020629648
125	0xbd1229b8	-0.035684317
126	0x3cd865d5	0.026415745
127	0xbd768fef	-0.06019586

encoder.2.weight f4 [64, 128]
0	0xbb95e3ed	-0.00457429
1	0x3da78cc4	0.08181146
2	0x334c9ff6	4.7642935e-08
3	0x3d9d341c	0.07675955
4	0xbd628957	-0.05530676
5	0x3dcdb9d4	0.100452095
6	0x3d190cd4	0.03736575
7	0xbde4cb77	-0.1117162
8	0x38df2880	0.00010641012
9	0x3d372fdc	0.044723377
10	0x3d46b225	0.048509736
11	0xae6c0964	-5.3668528e-11
12	0x3d4d3f5b	0.05010925
13	0x3dce40b4	0.10070935
14	0x3db28977	0.087176256
15	0x3d19e611	0.037572924
16	0x2c262d93	2.3615318e-12
17	0x3dc1b675	0.09458629
18	0x3dda3d0f	0.10656177
19	0xbcf0378d	-0.029323364
20	0xbd1aac65	-0.037762064
21	0x3daf7e0a	0.08568962
22	0x3c3a32f9	0.011364692
23	0x3d0119ff	0.031518932
24	0x3c6c19c3	0.014410439
25	0xb448e3a0	-1.8709261e-07
26	0x3d5a6439	0.053318236
27	0x3dbd9d8f	0.092585675
28	0x3d3fd4d2	0.04683382
29	0xbd2a53c1	-0.04158378
30	0xafafd25f	-3.1981792e-10
31	0x2f7f90c4	2.3243546e-10
32	0x3b125ee7	0.0022334398
33	0x2fb6af12	3.3230002e-10
34	0xbd568f7a	-0.052382924
35	0x3d442585	0.047887344
36	0x3d3dba13	0.046320032
37	0x3dce7c02	0.10082246
38	0x3da7bfea	0.081909016
39	0xbbe74e89	-0.0070589227
40	0x3d78d0ba	0.060745932
41	0xba504b92	-0.0007945831
42	0x3ced708b	0.028984329
43	0x3da5afd7	0.080901794
44	0xbc5d5370	-0.013508663
45	0xbcfb5e83	-0.030684715
46	0x3d7f2f77	0.062301125
47	0x3d9535d5	0.07285658
48	0xbdc9f473	-0.09861078
49	0xbcd696d7	-0.026194973
50	0x3ca12650	0.01967159
51	0x3d49d3e2	0.049274333
52	0xbcac56a0	-0.0210374
53	0x3defb095	0.11703602
54	0x3c95132f	0.018197624
55	0xbd22e309	-0.0397673
56	0xbc9edfbb	-0.019393792
57	0x3dcb6ce8	0.099328816
58	0x3d29864e	0.04138785
59	0x3b4f00a6	0.003158608
60	0x3b12af7f	0.0022382436
61	0x34b31f85	3.3364282e-07
62	0x3dbfdbc4	0.09368089
63	0x3d99532c	0.07486567
64	0xbc7451b2	-0.014912056
65	0xbcd67ca0	-0.026182473
66	0x3d31b664	0.043386832
67	0x3dd07bc7	0.10179859
68	0xbd9273f7	-0.07151025
69	0x3d9024c4	0.070382625
70	0x3d618f8a	0.05506853
71	0x3d879e53	0.06621995
72	0xbb0f41db	-0.0021859321
73	0xbd9c7adb	-0.0764062
74	0xad0e8f16	-8.103537e-12
75	0x3ce4ce1f	0.027930317
76	0x3d6b3e1f	0.05743229
77	0xbc2dcb15	-0.010607501
78	0x3d11a0dd	0.0355538
79	0xbe35f860	-0.17770529
80	0xbd40e224	-0.047090665
81	0xbc52cb7d	-0.012865898
82	0xb68480af	-3.9488873e-06
83	0x3c8b4295	0.016999522
84	0xbab1446a	-0.0013524417
85	0x3cfdc36c	0.030976973
86	0xb077ed41	-9.0195235e-10
87	0x3bf5a017	0.007495891
88	0x3017f1c8	5.527707e-10
89	0xbcd6af7f	-0.02620673
90	0x3d1dc342	0.03851629
91	0x3d676b05	0.056498546
92	0xbd49ad0f	-0.049237307
93	0x3e090cce	0.13383791
94	0xbd823ed4	-0.0635964
95	0xb7be46aa	-2.268267e-05
96	0x3c816ba9	0.015798407
97	0xbd870a3d	-0.0659375
98	0xbd49ad2e	-0.049237423
99	0x3dbd43e1	0.092414625
100	0x3d0d0970	0.03443283
101	0xbd4e99a1	-0.05043948
102	0xae34e2a8	-4.1128573e-11
103	0xbd1bdabe	-0.038050406
104	0x3d8e2bac	0.069419235
105	0x3cc0c577	0.023531659
106	0x3c8e7e77	0.017394288
107	0x3d593236	0.0530264
108	0x3cc2e844	0.023792394
109	0x3d03c078	0.032165974
110	0x3d407cb4	0.046993926
111	0xbddad880	-0.10685825
112	0x3c6a1ae6	0.01428864
113	0x30213600	5.86482e-10
114	0xbd557620	-0.052114606
115	0x3c56cf2a	0.013110915
116	0xaeea01be	-1.06413975e-10
117	0xbd962a23	-0.07332256
118	0xb11db5e2	-2.2949895e-09
119	0xbdbf1554	-0.0933024
120	0xbd01623c	-0.031587824
121	0xbd23096d	-0.03980391
122	0x3cba1329	0.022714214
123	0xbd59d895	-0.053185064
124	0xbdac30ef	-0.08407771
125	0x3dcfcf47	0.10146957
126	0x3de4bb12	0.11168493
127	0x3cb01ece	0.021499064
128	0xbd79ea99	-0.061014745
129	0x3cca3dc6	0.024687659
130	0x3479cd09	2.3264523e-07
131	0x3ba8158d	0.005129522
132	0x3d9ab898	0.0755474
133	0x3d21be01	0.039487842
134	0xbd2f4be5	-0.042796988
135	0xbd6387b8	-0.055549353
136	0xbd786c05	-0.06064989
137	0x3b35c7b6	0.0027737445
138	0xbbe87813	-0.007094392
139	0x2cd40259	6.025663e-12
140	0x3dbc2b53	0.09187951
141	0x3d20ae62	0.039228804
142	0x3de1b0b0	0.110200286
143	0x3da5b9ca	0.08092077
144	0xafa501db	-3.0014644e-10
145	0x3dbe83d7	0.0930249
146	0x3cfa8a37	0.030583484
147	0x3cb152c3	0.02164591
148	0xbc4fdf06	-0.01268745
149	0x3b69d296	0.0035678498
150	0x3cc0ee82	0.02355123
151	0xbd15943b	-0.036518317
152	0x3cb9b7b1	0.022670599
153	0x349f5f9c	2.9685623e-07
154	0x3d46a726	0.04849925
155	0x3cd3a3e7	0.02583499
156	0x3cf9d649	0.030497687
157	0xbc4561db	-0.012047256
158	0xaf4c7aaf	-1.8597278e-10
159	0xb0350075	-6.5848066e-10
160	0xbd8ab429	-0.06772644
161	0x2dbbdb8f	2.1356942e-11
162	0xbd5c588c	-0.053795382
163	0xbcffc787	-0.031223072
164	0xbd53af03	-0.051680576
165	0xbd8e2e17	-0.06942385
166	0x3d46b391	0.04851109
167	0x3d5d7bc4	0.05407311
168	0x3c96cbcb	0.018407723
169	0x3e08e66b	0.13369147
170	0x3dc1c2f8	0.094610155
171	0x3c7b4786	0.015336877
172	0xbcd2f226	-0.025750231
173	0xbd16ed0e	-0.036847167
174	0x3d170fee	0.036880426
175	0xbd764108	-0.060120612
176	0x3cb158f5	0.021648863
177	0xbc71a656	-0.01474913
178	0x3c487f8b	0.01223744
179	0x3dcb69b3	0.0993227
180	0x3d2f79b1	0.042840663
181	0x3de7034c	0.11279926
182	0x3d57f2b7	0.052721705
183	0xbaabac1f	-0.0013097561
184	0xbc8aeaeb	-0.01695772
185	0x3ced9eaf	0.02900633
186	0x3d064141	0.032777075
187	0x3d481edc	0.048857555
188	0xbcf913cc	-0.030404948
189	0x3503836c	4.8992547e-07
190	0x3d0b634c	0.034030244
191	0xbcd3285d	-0.025776083
192	0xbb94b9ea	-0.0045387642
193	0xbd0ac391	-0.033877913
194	0xbbba170d	-0.0056790174
195	0x3c425e92	0.011863368
196	0xbd8bdd36	-0.06829302
197	0x3976a795	0.00023522817
198	0xbd2c72cc	-0.042101666
199	0xbca60a71	-0.02026865
200	0x3de04f86	0.10952668
201	0xbd3b6abe	-0.045756094
202	0xaf8c0cb7	-2.5474886e-10
203	0xbc884ec2	-0.016639117
204	0x3c51cc5c	0.012805071
205	0xbcbe2a1e	-0.023213442
206	0xbb0dab6a	-0.0021617063
207	0xbdc5744d	-0.09641323
208	0xbcf78966	-0.030216884
209	0xbbe77671	-0.00706368
210	0x37fcae6a	3.0121959e-05
211	0x3d016d31	0.031598274
212	0x3ced246f	0.028948037
213	0x3d6dabd8	0.05802521
214	0xae6e7450	-5.421824e-11
215	0x3bd4cd76	0.0064942194
216	0xb023c054	-5.957237e-10
217	0xbb999989	-0.0046874923
218	0xbd4a366f	-0.04936832
219	0x3dbfde61	0.09368587
220	0x3d92f680	0.071759224
221	0x3ce0e05d	0.027450735
222	0x3d046d12	0.03233058
223	0x38039949	3.137559e-05
224	0xbcc5dbce	-0.024152663
225	0x3dc54048	0.09631401
226	0x3cfdef45	0.030997882
227	0x3c817319	0.015801953
228	0x3ce2995f	0.027661024
229	0xbc154477	-0.009110562
230	0x2e1d5305	3.5771403e-11
231	0xbb61a143	-0.0034428395
232	0xbd62cef8	-0.055373162
233	0xbac6eb83	-0.0015176389
234	0x3d15ae8b	0.03654341
235	0x3d25039e	0.040286653
236	0x3dbbdaee	0.09172617
237	0x3d6f48d0	0.05841905
238	0x3d74fe5e	0.059812896
239	0xbd8ded28	-0.069299996
240	0xbc931d9b	-0.017958453
241	0xadb99fac	-2.1102974e-11
242	0xbc570b9d	-0.013125327
243	0x3c1fec65	0.009760951
244	0xaf4ce19b	-1.8633843e-10
245	0x3d0dc46c	0.03461115
246	0xada1fd18	-1.8415977e-11
247	0xbd67ef05	-0.05662443
248	0x3c282dc6	0.0102648195
249	0xbd34ed75	-0.04417177
250	0x3c5697fa	0.0130977575
251	0xbc74a3f4	-0.014931668
252	0xbd2499bf	-0.040185686
253	0x3d863186	0.065524146
254	0x3d9f9821	0.07792688
255	0xbd97ac1e	-0.074058756

encoder.2.bias f4 [64]
0	0xbcffa6bd	-0.031207437
1	0x3db76d89	0.08956439
2	0xbd0d0b45	-0.034434576
3	0xbd525147	-0.051347043
4	0x3d039872	0.032127805
5	0x3ded5b91	0.115897305
6	0xbcab5a3f	-0.020917056
7	0xbb90d217	-0.004419576
8	0x3d0ce7ce	0.034400754
9	0x3d11ace0	0.035565257
10	0x3d471a07	0.048608806
11	0xbbb472e2	-0.005506859
12	0xbd353c0a	-0.04424671
13	0xbc479707	-0.012182004
14	0xbcc12886	-0.023578893
15	0x3d72bb5d	0.059260715
16	0x3c91dc59	0.017805265
17	0x3d0aefc8	0.03392008
18	0x3d62d970	0.055383146
19	0x3d92ccaa	0.07167943
20	0xbd9a9c88	-0.07549387
21	0x3d085edb	0.033293586
22	0x3d597c7f	0.053097244
23	0x3d10a2ac	0.035311386
24	0x3d6bcbb8	0.05756733
25	0xbc1bc7c6	-0.009508079
26	0x3c2800aa	0.010254065
27	0x3d8204c6	0.06348567
28	0xbc319fb6	-0.010841301
29	0x3cce0b55	0.025151888
30	0x3c4a89b0	0.012361929
31	0x3d67a9a5	0.05655827
32	0x3da13e9b	0.07873269
33	0x3d523a4b	0.051325124
34	0x3ce95f10	0.028487712
35	0x3dd5a991	0.10432733
36	0x3d0326cf	0.032019433
37	0x3d222797	0.039588537
38	0x3a248ebb	0.0006277372
39	0xbc648838	-0.013948493
40	0x3d97c80e	0.07411204
41	0xbd4a6368	-0.049411207
42	0xb7fb8712	-2.9984429e-05
43	0x3c5b1225	0.013371025
44	0x3ccaa898	0.024738595
45	0x3a3ccfaf	0.0007202578
46	0xbcd586b6	-0.026065212
47	0x3cb70dfc	0.022345535
48	0x3d3bacb4	0.045819
49	0xbc1b509d	-0.009479669
50	0x3da177c4	0.078841716
51	0xb7e1d1ac	-2.6919726e-05
52	0x3da57bb7	0.08080237
53	0x3d877a13	0.06615081
54	0xbc9460dc	-0.018112592
55	0xbcff41fe	-0.031159397
56	0xbd5ed36a	-0.05440084
57	0x3d5e9fa7	0.054351475
58	0x3d08f32a	0.033435024
59	0xbcf041f0	-0.029328316
60	0xbd90d2f6	-0.070714876
61	0x3d70bd22	0.05877412
62	0x3c5975a0	0.013272673
63	0x3b6541cb	0.0034981843

encoder.4.weight f4 [10, 64]
0	0xbe03a078	-0.12854183
1	0x3c9f4a7a	0.019444693
2	0x3d21b3f8	0.039478272
3	0xbbdce371	-0.0067409803
4	0xbdcd94d3	-0.100381516
5	0xbe571893	-0.21005468
6	0xbd20717c	-0.039170727
7	0xbd821977	-0.06352513
8	0xbca13026	-0.01967628
9	0x3b8d10f8	0.0043050013
10	0x3e02a19f	0.12756966
11	0xbd8c77cf	-0.06858789
12	0xbdba7382	-0.091040626
13	0xbd67e164	-0.056611434
14	0xbdf48259	-0.11938924
15	0xbd953082	-0.07284643
16	0x3d104bc9	0.035228524
17	0x3db7552e	0.089517936
18	0x39716941	0.00023022761
19	0xbe61c256	-0.2204679
20	0x3e131378	0.14362895
21	0x3a9fa3cd	0.0012179554
22	0xbc32ee34	-0.01092105
23	0x3d44583c	0.04793571
24	0xbdd7ce58	-0.10537404
25	0x3744f541	1.1739613e-05
26	0x3d8c83a5	0.06861047
27	0x3cbd8667	0.023135377
28	0xbd5dcda3	-0.05415119
29	0xbcc1d1fc	-0.023659699
30	0x3db0cca6	0.086327836
31	0xbe002ec4	-0.1251784
32	0x3d2d4ef8	0.04231164
33	0x3d3865be	0.045018904
34	0x3ced6317	0.028977914
35	0xbdcf6f03	-0.10128596
36	0x3b136d6c	0.002249564
37	0x3c0538c7	0.008131213
38	0xbd54846f	-0.05188411
39	0xbdc13840	-0.09434557
40	0xbe277482	-0.16353038
41	0x3d182b91	0.037150923
42	0xb7c3061a	-2.3248653e-05
43	0xbda204f0	-0.07911098
44	0xbdca6a0d	-0.09883509
45	0xbcf9b7e9	-0.030483203
46	0xbbf8a87a	-0.0075884433
47	0xbdbe2d82	-0.09286024
48	0xbdaa0831	-0.08302344
49	0xbe6441c1	-0.22290708
50	0xbda8bb34	-0.08238831
51	0x36cb8663	6.065516e-06
52	0xbda725e0	-0.08161521
53	0xbe25e14b	-0.16199224
54	0xbdf1c1c6	-0.118045375
55	0x3d3624db	0.044468742
56	0xba9d86a7	-0.0012018279
57	0xbdcfb360	-0.10141635
58	0x3d6e9544	0.05824782
59	0xbd86283f	-0.06550645
60	0x3d9952b9	0.07486481
61	0xbdf6876a	-0.12037547
62	0xbd17bae0	-0.037043452
63	0xbd7ae3b9	-0.06125233
64	0x3de867d1	0.113479264
65	0x3dcb0bcb	0.09914359
66	0x3b4e85b8	0.0031512808
67	0x3a94c2fd	0.0011349615
68	0x3ddbc18d	0.10730276
69	0xbdab859b	-0.083750926
70	0xbdbde129	-0.092714615
71	0xbbb429ed	-0.005498162
72	0x3d0d3dc6	0.03448274
73	0xbb6f826f	-0.003654625
74	0x3d556d5c	0.052106246
75	0x3b471676	0.0030378378
76	0x3de0ae8c	0.10970792
77	0x3dd0f3e2	0.10202767
78	0x3c7cd2ea	0.015431145
79	0xbd02de32	-0.031950183
80	0xbcfe051e	-0.0310083
81	0x3d1eb9c3	0.038751375
82	0xbd3af022	-0.045639165
83	0xbe112b03	-0.14176564
84	0xbda9773f	-0.082746975
85	0x3d564da8	0.052320153
86	0xbd36abe2	-0.044597514
87	0xbe26d187	-0.16290866
88	0x3df10d53	0.117701195
89	0xbc398740	-0.01132375
90	0xbd2b9e41	-0.04189897
91	0xbd63b54e	-0.055592827
92	0xbd8e5c24	-0.06951168
93	0x38676e04	5.517715e-05
94	0x3de9d91e	0.11418365
95	0x3e09d8b4	0.13461572
96	0xbd7618f7	-0.060082402
97	0xbda3cb85	-0.07997803
98	0xbd865f4e	-0.06561147
99	0x3e159e00	0.14611053
100	0xbd2d3e8a	-0.04229597
101	0x3a5c31d1	0.0008399757
102	0x3e0e46dd	0.1389422
103	0xbc292c27	-0.010325468
104	0x3b643831	0.0034823532
105	0xbcddb5cf	-0.027064232
106	0xb8929772	-6.9900314e-05
107	0x3e0abbb4	0.13548166
108	0x3e0e6352	0.13905075
109	0x3d138bf7	0.036022153
110	0xbd2160b5	-0.039398868
111	0xbcc0e2f6	-0.023545723
112	0xbdc05ace	-0.093923196
113	0x3dbf6c45	0.09346823
114	0x3dd874e1	0.10569168
115	0xb7921bd5	-1.7417517e-05
116	0x3dd40719	0.10352916
117	0x3dc435ce	0.09580575
118	0x3e0e0af7	0.1387137
119	0xbd905cfe	-0.07048987
120	0x3be8589c	0.007090641
121	0xbca7369e	-0.020411786
122	0x3df04dde	0.11733602
123	0x3da9a8fe	0.08284186
124	0x3d513f1c	0.051085576
125	0x3d41308e	0.047165446
126	0x3cc1fd7b	0.02368044
127	0x3dc17149	0.094454356
128	0x3dd36509	0.10322005
129	0x3e141c70	0.14463973
130	0x3d0d9fe2	0.034576304
131	0x3abe6b6f	0.0014527867
132	0x3d98a24b	0.0745283
133	0x3e3c6703	0.18398671
134	0xbd2cf680	-0.04222727
135	0xbc4dc9a7	-0.012560285
136	0x3e4a22a9	0.19739784
137	0xbbf17882	-0.007369102
138	0xbd528bd2	-0.051402874
139	0xbd1d4127	-0.038392212
140	0x3e0bfffd	0.1367187
141	0x3d935761	0.071944006
142	0xbdb9de46	-0.090755984
143	0x3d755a18	0.059900373
144	0x3d37b7bd	0.04485296
145	0xbd33554f	-0.04378253
146	0xbc46e42b	-0.01213936
147	0xbe69d091	-0.22833468
148	0xbe09bcb2	-0.13450888
149	0xbc3d5378	-0.011555545
150	0xbcf98798	-0.030460164
151	0x3da4de82	0.080502525
152	0x3d882b75	0.06648914
153	0xbacd7d03	-0.0015677515
154	0xbd800968	-0.06251794
155	0xbd43ec5f	-0.047832843
156	0xbc8059bc	-0.015667789
157	0xbd1d95c6	-0.038472913
158	0x3dc6d053	0.097077034
159	0xbcd48c98	-0.025945947
160	0xbd073f74	-0.033019498
161	0x3cc24dfa	0.023718823
162	0xbd702f4c	-0.058638856
163	0x3e0b45c8	0.13600838
164	0xbcca0c6b	-0.024664124
165	0x3d2f0fd8	0.04273972
166	0xbdff005a	-0.12451239
167	0x3e4a66f2	0.19765833
168	0x3d5ff38c	0.054675624
169	0x3b45f08d	0.0030203194
170	0xb81241aa	-3.4870267e-05
171	0xbdc4ade8	-0.096034825
172	0x3d7cae2e	0.06168955
173	0xbe002be4	-0.12516743
174	0xbacec29d	-0.0015774552
175	0x3e1166c8	0.14199364
176	0x3d2f50a9	0.042801533
177	0xbe45557e	-0.19270894
178	0x3dcf935b	0.10135528
179	0xb823d8b3	-3.9064045e-05
180	0xbcf82db3	-0.030295229
181	0x3de483f4	0.111579806
182	0xbe026951	-0.12735488
183	0x3bdeccbc	0.0067993086
184	0x3d525d36	0.051358424
185	0x3d882d58	0.06649274
186	0xbccbc82d	-0.024875725
187	0x3da2d474	0.079506785
188	0xbd4e015d	-0.05029427
189	0x3dcb4e5f	0.099270575
190	0xbd4c0bea	-0.04981605
191	0x3dcf05c0	0.101085186
192	0x3db8d2e4	0.09024599
193	0xbcb924ea	-0.02260061
194	0x3d2e3e2e	0.042539768
195	0x3abfad42	0.0014623778
196	0xbd95bc6d	-0.0731133
197	0x3df79d82	0.12090589
198	0xbdc68cbd	-0.096948124
199	0xbc38cdc2	-0.011279525
200	0xbd917f62	-0.071043745
201	0xbc737aed	-0.014860851
202	0x3da82b38	0.08211368
203	0x3b595271	0.0033160711
204	0x3cce602e	0.025192346
205	0x3dc89241	0.09793521
206	0xbd8e4d9e	-0.06948398
207	0x3d3c611b	0.045991044
208	0x3d311408	0.043231994
209	0x3e033191	0.12811877
210	0x3c866951	0.01640764
211	0xbc9798b1	-0.018505426
212	0x3c8aff1a	0.016967345
213	0xbe116e7b	-0.14202301
214	0x3ca51bc4	0.020154841
215	0xbe6e294d	-0.23257942
216	0x3d8221b8	0.063540876
217	0xbace53ad	-0.001574149
218	0x3d95ae7f	0.07308673
219	0xbda0cb21	-0.07851244
220	0xbb77785e	-0.0037760953
221	0xbd42b194	-0.047532633
222	0xbde39c20	-0.11113763
223	0xbc100908	-0.008791216
224	0xbdfb78fd	-0.12278936
225	0x3d1d2ec5	0.03837468
226	0x3d1409a3	0.036142003
227	0x3d8eccbf	0.06972646
228	0x3d4e06ae	0.05029934
229	0x3db41c63	0.08794477
230	0x3e2ef814	0.17086822
231	0xbe0e5c4b	-0.13902394
232	0x3c598b3c	0.013277825
233	0x3c5303f2	0.012879359
234	0x37874ffa	1.6130496e-05
235	0xbd21ad23	-0.039471757
236	0xbd3daf78	-0.04630992
237	0x3ca458b1	0.020061823
238	0x39ec3056	0.0004504944
239	0xbdf6b92c	-0.120470375
240	0x3db1b4a0	0.086770296
241	0xbdc6cb47	-0.09706741
242	0xbdda12e7	-0.106481366
243	0x37a6bb6e	1.987602e-05
244	0xbcabe4d9	-0.020983147
245	0xbe0bf0af	-0.13666032
246	0xbbcba6d8	-0.0062149577
247	0x3cf879a5	0.030331442
248	0x3c27954a	0.010228464
249	0xba10cd79	-0.0005523782
250	0xbe04c2d8	-0.12964952
251	0x3cab3d9f	0.020903407
252	0xbde0cf85	-0.10977081
253	0xbe2f16c6	-0.17098531
254	0x3d93e765	0.072218694
255	0x3c36ac9a	0.01114955

encoder.4.bias f4 [10]
0	0x3dbe15e7	0.09281521
1	0x3df3b847	0.119003825
2	0xbca36f76	-0.01995061
3	0x3cce4218	0.025178
4	0xbdc0d278	-0.09415144
5	0xbd39ecde	-0.04539191
6	0xbdd94c72	-0.10610284
7	0xbc7fcdbc	-0.015613016
8	0x3c890849	0.016727583
9	0xbdabdd32	-0.08391799

decoder.0.weight f4 [64, 10]
0	0xbd8d9012	-0.06912245
1	0x3a3714ee	0.0006984015
2	0xbc8b673e	-0.017017003
3	0xbd91bc0b	-0.071159445
4	0xbc820917	-0.015873475
5	0xbe0b367d	-0.13595004
6	0x3de0a27f	0.10968494
7	0x3da638ef	0.08116328
8	0xbd8d3a21	-0.06895853
9	0xbdae150e	-0.085001096
10	0xbbc9106a	-0.00613599
11	0xbe519ded	-0.204704
12	0xbdda4fce	-0.10659753
13	0xbe99f56a	-0.3007005
14	0x3dff04f7	0.12452119
15	0xbe14c036	-0.14526448
16	0x3e963a23	0.2934123
17	0x3c3fc4d7	0.011704645
18	0x3d3a31fb	0.04545782
19	0xbe5460ce	-0.20740053
20	0x3d369d6c	0.044583723
21	0x3cb1a083	0.021682983
22	0x3ce40bf8	0.027837738
23	0x3b7d645f	0.0038664562
24	0xbc5c0937	-0.013429931
25	0xb5eacf3d	-1.7494673e-06
26	0x3c402460	0.0117274225
27	0xbd188a20	-0.0372411
28	0xbbd59c56	-0.006518881
29	0xb8b88760	-8.799019e-05
30	0xbd935071	-0.07193077
31	0x3e242b81	0.1603222
32	0xbdf68fe4	-0.12039164
33	0xbe6af8ac	-0.22946423
34	0x3d405e3b	0.046964865
35	0xbe3aa4f2	-0.18226984
36	0xbe2c001f	-0.16796921
37	0x3d68e9a7	0.056863453
38	0x3e4d5eab	0.20055644
39	0x3d92c072	0.07165612
40	0x3dd7e3f1	0.10541523
41	0x3e2b7073	0.16742115
42	0xbe145896	-0.14486918
43	0x3c50ec23	0.012751612
44	0x3e57f5d4	0.2108987
45	0x3dc2d922	0.09514071
46	0xbe81b1c5	-0.2533094
47	0x3dc2f48a	0.095192984
48	0xbdc23769	-0.09483225
49	0x3caac27e	0.020844694
50	0xbebef114	-0.37293303
51	0x3c81001a	0.015747119
52	0xbe80ae77	-0.25133106
53	0x3e3ca20d	0.18421192
54	0xbe5bdefb	-0.21471779
55	0xbe96c34f	-0.29445884
56	0x3e723902	0.23654559
57	0x3df0c8e1	0.117570646
58	0xbe0ccb2d	-0.1374938
59	0xbdd682ff	-0.10474204
60	0xbdcfed11	-0.10152639
61	0x3d17812a	0.036988415
62	0xbca1b7f1	-0.01974103
63	0xbe6172d5	-0.22016461
64	0xba968cb1	-0.0011486021
65	0x3e23a641	0.1598139
66	0x3e10af1a	0.14129296
67	0xbd806bea	-0.06270583
68	0x3e0cda7a	0.13755217
69	0xbe341a45	-0.17588146
70	0xbe35ae71	-0.17742325
71	0x3ad71b90	0.0016411413
72	0x3e811dcf	0.25218055
73	0xbc21a2c0	-0.009865463
74	0x3d2d3068	0.042282492
75	0x3dceed41	0.10103846
76	0x3e9a8cb9	0.30185488
77	0x3b47a770	0.003046479
78	0xbb737f0c	-0.0037154583
79	0xbda0c204	-0.078495055
80	0xbe6a098f	-0.22855209
81	0x3dd5f6b3	0.10447445
82	0x3e4292e0	0.19001341
83	0xbdc77e8e	-0.09740935
84	0x3ce48c38	0.027898893
85	0xbe819193	-0.25306377
86	0xbe57c2dd	-0.21070428
87	0xbdad5e43	-0.084652446
88	0xbdb0883a	-0.08619733
89	0x3e2d1b2a	0.16904894
90	0x3e4af993	0.19821768
91	0x3e7a4a62	0.24442437
92	0xbe913ddc	-0.28367507
93	0x3e48dafb	0.19614784
94	0xbd671f7f	-0.05642652
95	0xbe89ce24	-0.26915085
96	0xbdf525c6	-0.11970095
97	0x3e3ce795	0.18447717
98	0x3ccfb219	0.025353478
99	0xbe48c808	-0.19607556
100	0x3b542a1b	0.003237373
101	0xbe88eb4f	-0.26742026
102	0xbe51a596	-0.20473322
103	0xbe3498a9	-0.1763636
104	0x3e61ba9f	0.22043847
105	0xbe9a7e0f	-0.301743
106	0xbe1fb18c	-0.15595073
107	0x3deffcdf	0.11718153
108	0x3d3a75c9	0.045522485
109	0x3df0fa8a	0.117665365
110	0x3d34fd8f	0.044187125
111	0x329c02d8	1.8162083e-08
112	0xbc7a2189	-0.0152667845
113	0xbcc14902	-0.023594383
114	0xb2db0afb	-2.5499949e-08
115	0x396cf343	0.00022597336
116	0x3d0269fd	0.03183936
117	0xb399e5e8	-7.1664374e-08
118	0xbc9e0feb	-0.0192947
119	0x3d442750	0.047889054
120	0xbdba13ce	-0.09085809
121	0x3daec3e8	0.0853346
122	0x3cfb2135	0.030655483
123	0xbdcb4d47	-0.09926849
124	0xbc5c94cc	-0.01346321
125	0x3e81b732	0.2533508
126	0xbdaa40d4	-0.08313146
127	0xbd7441b9	-0.05963299
128	0xbe0f80d9	-0.14013995
129	0x3e50a1e5	0.20374258
130	0x3e0eb1e8	0.13935053
131	0x3ea6aa4e	0.32551807
132	0x3e28fb6c	0.1650216
133	0xbdb36e2c	-0.08761248
134	0x3e8dc276	0.27687424
135	0x3e1ede89	0.15514578
136	0xbe90c2e3	-0.28273687
137	0xbe89be9f	-0.26903245
138	0x3d0c0fec	0.03419487
139	0xbea64a3b	-0.32478508
140	0x3e175e3b	0.1478204
141	0x3e8e42b9	0.2778528
142	0xbdab19dc	-0.08354542
143	0xbdc1a27a	-0.09454818
144	0x3e26c5eb	0.16286437
145	0x3dd0f3dd	0.10202763
146	0x3ce39d10	0.027784854
147	0xbe92af57	-0.286494
148	0xbd7ab4ed	-0.0612077
149	0xbd06343b	-0.032764655
150	0xbe7547ba	-0.23953143
151	0xbdc51e9e	-0.096249804
152	0x3bcc3b5a	0.006232661
153	0xbe574b40	-0.210248
154	0xbe7251fc	-0.23664087
155	0x3e815391	0.2525907
156	0xbe6c5258	-0.23078287
157	0x3e5a93c6	0.21345434
158	0xbe5fbe11	-0.21849848
159	0x3e3cc17a	0.1843318
160	0x3c9861ca	0.018601317
161	0x3d0598cb	0.032616418
162	0xb9c7260e	-0.0003798459
163	0x3cf8ef1a	0.03038745
164	0xbc33787f	-0.0109540215
165	0xbcffeb20	-0.031240046
166	0xbd38091e	-0.04493057
167	0x3d42ac29	0.047527466
168	0xbd83f024	-0.064422876
169	0x3d2db51e	0.042409055
170	0x3e70da8d	0.2352087
171	0x3e8cd727	0.27507898
172	0xbda643c8	-0.08118397
173	0xbe649af9	-0.22324742
174	0x3da42749	0.080153055
175	0x3c74de60	0.014945596
176	0xbe9a6101	-0.30152133
177	0x3e1b55c7	0.1516944
178	0x3db2a005	0.087219276
179	0xbe28a355	-0.16468556
180	0x3cac13db	0.021005562
181	0x2d1e1562	8.986008e-12
182	0xad0c936d	-7.990814e-12
183	0xaec07a4e	-8.752875e-11
184	0xbc121ceb	-0.008918027
185	0x330f273f	3.3330476e-08
186	0xb56c6998	-8.807051e-07
187	0x3b62abf7	0.0034587362
188	0x3b0ce1c7	0.0021496878
189	0x3c76b9de	0.015058963
190	0xbe49d4e0	-0.19710112
191	0x3e61b3af	0.220412
192	0xbde548fc	-0.11195561
193	0xbd75072d	-0.059821296
194	0x3dc4941b	0.095985614
195	0xbc380f8f	-0.011234178
196	0x3e7fca3c	0.2497949
197	0x3db25353	0.08707299
198	0x3d9aa729	0.075514145
199	0xbea25a56	-0.31709546
200	0x3e3f3099	0.18670882
201	0xbd6f031a	-0.058352567
202	0x3e68cd61	0.22734596
203	0x3dc245be	0.094859585
204	0x3e55e9b8	0.20889938
205	0x3e19b7a5	0.15011461
206	0xbe31a2f3	-0.17347316
207	0x3c95302c	0.018211447
208	0x3e44d8c6	0.19223318
209	0x3d5e865a	0.054327346
210	0xbcb40722	-0.021976057
211	0xbe58f13f	-0.21185778
212	0x3e9b77a3	0.30364713
213	0xbd97354b	-0.07383212
214	0x3e726a7e	0.23673436
215	0xbe9eacf2	-0.30991322
216	0xbe309c4c	-0.17247123
217	0xbe97e20e	-0.29664654
218	0x3e760142	0.24023917
219	0xbd43d235	-0.04780789
220	0xbe8e6432	-0.27810818
221	0x3e6a64eb	0.2289006
222	0xbd92e340	-0.07172251
223	0x3d8b9dde	0.0681722
224	0xbe9e50cc	-0.30921018
225	0x3eb7e778	0.35918784
226	0xbdc8e916	-0.098100826
227	0xbcd24fd3	-0.025672829
228	0x3e44102c	0.19146794
229	0xbe600b71	-0.21879365
230	0xbd3e9510	-0.046528876
231	0xbce46b31	-0.027883144
232	0xbe2841cb	-0.16431348
233	0xbe298dc8	-0.16557992
234	0x3dc51ea0	0.09624982
235	0x3e9f826e	0.31154197
236	0xbcd5566a	-0.026042182
237	0xbc1bba76	-0.009504905
238	0xbd85510f	-0.06509601
239	0x3d622146	0.055207513
240	0xbd91ed36	-0.071253225
241	0x3c970b98	0.018438146
242	0x3d926e63	0.07149961
243	0xbdc692fe	-0.09696005
244	0x3d214920	0.039376378
245	0x3d61bd4b	0.055112164
246	0x3dde68c9	0.1085983
247	0xbda4a478	-0.080391824
248	0x3ddf2ec7	0.10897594
249	0xbd122287	-0.03567746
250	0xbe0790d5	-0.13238843
251	0xbe2db516	-0.1696361
252	0xbdb0a275	-0.08624736
253	0xbea31295	-0.31850114
254	0x3d9880fe	0.07446478
255	0x3d9a7f61	0.07543827

decoder.0.bias f4 [64]
0	0xbe1fcac4	-0.15604693
1	0x3e131b02	0.14365771
2	0xb65aa762	-3.258196e-06
3	0x3e1e9fb1	0.15490605
4	0xbe289447	-0.16462813
5	0x3ea03e06	0.3129732
6	0x3e4a5bab	0.19761531
7	0xbdabc3ff	-0.08386993
8	0x3e84604a	0.25854713
9	0x3e6d03d0	0.23145986
10	0x3ea3eedf	0.32018182
11	0x395a0b85	0.00020794391
12	0x3dfe59f8	0.12419504
13	0xbe1c6321	-0.1527219
14	0x3d8fce7b	0.07021805
15	0x3e77f598	0.2421478
16	0x3d5c30f9	0.05375764
17	0xbe1224f5	-0.1427191
18	0x2bf0a9eb	1.7100187e-12
19	0xbdf58cf3	-0.119897746
20	0x3dd30cc9	0.10305173
21	0x3e92f992	0.28706032
22	0xbdfb2720	-0.12263322
23	0xbdc634bf	-0.09678029
24	0x3cf92429	0.03041275
25	0x3dea0017	0.114257984
26	0x3e14606a	0.14489904
27	0x3e89d472	0.26919895
28	0x3d9b2578	0.07575506
29	0xbd80c745	-0.06288008
30	0x3d8ab372	0.06772508
31	0x3e905a52	0.2819391
32	0xbc9e5b3b	-0.019330611
33	0xbbb6d395	-0.0055794218
34	0x3ae4c602	0.001745403
35	0x3cde9f63	0.02717561
36	0xba3e755a	-0.00072654116
37	0xbc351ef3	-0.011054742
38	0x3795a7f1	1.7840388e-05
39	0x3d28915c	0.04115425
40	0x3d274670	0.04083866
41	0xbbb76870	-0.0055971667
42	0xbe3432e5	-0.1759754
43	0x3d3a2607	0.045446422
44	0xbc2f22a2	-0.010689409
45	0xb9f36586	-0.00046424213
46	0x3e802078	0.25024772
47	0xbe5620b0	-0.20910907
48	0x3e986e66	0.29771727
49	0x3da93b82	0.08263303
50	0xbe09f04b	-0.1347057
51	0xbe93206b	-0.2873567
52	0xbc3d4ff2	-0.011554705
53	0x3d5c0249	0.053713117
54	0x3de9f153	0.11422982
55	0xbc94d4b0	-0.018167824
56	0x3cd4698c	0.025929235
57	0x3e8544a6	0.26028937
58	0xbe05cdd8	-0.13066804
59	0x3d476684	0.04868175
60	0xbd2d6abb	-0.042338114
61	0x3e6d1d07	0.23155604
62	0x3e2db22b	0.16962497
63	0x3e6b038d	0.22950573

decoder.2.weight f4 [128, 64]
0	0xbdadcdd6	-0.08486526
1	0xbb6f1110	-0.0036478676
2	0xb6a1c676	-4.821278e-06
3	0x3c45fd29	0.012084284
4	0xbcb459d2	-0.022015486
5	0xbd4d8e03	-0.05018426
6	0x3d7537c0	0.05986762
7	0x3d32f489	0.04369024
8	0xbdb6b4c0	-0.08921194
9	0x3cfc6de9	0.030814128
10	0xbd5d62f3	-0.054049443
11	0x30477332	7.255948e-10
12	0xbcb7e910	-0.02245
13	0xbcbaa77c	-0.02278494
14	0x3d090a82	0.033457287
15	0xbde24c79	-0.11049742
16	0x3b8be4bc	0.0042692106
17	0xbd409901	-0.047020916
18	0xad7b5321	-1.42861565e-11
19	0x3d58e821	0.05295575
20	0x3dec7f09	0.115476675
21	0xbd680989	-0.05664972
22	0x3dfb6645	0.12275366
23	0xbdd8d227	-0.105869584
24	0x3dc23436	0.09482615
25	0x3d648631	0.055792037
26	0x35da50aa	1.6265742e-06
27	0x3d36b701	0.04460812
28	0xbcd1c582	-0.025606874
29	0x3e297a23	0.16550498
30	0x3dc856ef	0.09782206
31	0xbd16b545	-0.036793966
32	0x2dd2b602	2.3955064e-11
33	0xbb31fa5f	-0.002715729
34	0x3a66dd10	0.00088067446
35	0x3d5a7260	0.053331733
36	0x3d80c546	0.06287627
37	0x2d7f9a04	1.452927e-11
38	0x32bda0bd	2.2075591e-08
39	0xbd394cd2	-0.045239277
40	0x3e4b9a3a	0.19883052
41	0x2f7f339b	2.3210449e-10
42	0xbdab3378	-0.08359426
43	0x3dc9b673	0.098492526
44	0xbe325508	-0.1741525
45	0x2b91f85e	1.0371805e-12
46	0xbe27bfe1	-0.1638179
47	0xbdbfe158	-0.09369153
48	0xbb2a46fb	-0.002598225
49	0xbd671c73	-0.056423616
50	0x3db70b1f	0.08937668
51	0xbd704335	-0.058657844
52	0xbe1622d5	-0.14661725
53	0x3c9ce3a0	0.019151509
54	0x3d55f290	0.05223328
55	0xbe6d4da4	-0.23174149
56	0xbaac46c1	-0.0013143645
57	0x3db71d5a	0.08941145
58	0x3d0abc15	0.033870775
59	0xbe07ba8f	-0.1325476
60	0x3e04453e	0.12917039
61	0xbda303b1	-0.079596885
62	0xba6cf2d2	-0.00090388686
63	0xbd2abcb0	-0.041683853
64	0xbb4735ac	-0.0030396981
65	0x3d3135d6	0.043264233
66	0x2d425ecc	1.1048672e-11
67	0x3d2afc71	0.041744653
68	0x3d3fb4e1	0.04680336
69	0xbc30300c	-0.010753643
70	0x3d209044	0.039200082
71	0xbb3fae30	-0.002924811
72	0xbce7c1bf	-0.028290628
73	0x3db9afeb	0.09066757
74	0xbd9c716a	-0.076388195
75	0x30314af0	6.449872e-10
76	0xbbb6950b	-0.0055719665
77	0xbdbdcb75	-0.09267322
78	0xbd27b7bb	-0.040946703
79	0x3c9bb8aa	0.019008953
80	0xb8dec38d	-0.00010622209
81	0x3c5fb798	0.013654612
82	0xada8790a	-1.9153141e-11
83	0x3d92a01f	0.07159447
84	0x3d8535e4	0.065044194
85	0xbdb7f3f9	-0.08982081
86	0xbd52c1bf	-0.051454302
87	0xbbd12c9f	-0.006383493
88	0xbb80152d	-0.0039087743
89	0x39bae9c5	0.00035650856
90	0xbd9680fb	-0.0734882
91	0xbe107f42	-0.14111045
92	0x3b24e367	0.0025159956
93	0xbc5b2aed	-0.0133769335
94	0x3ce22d4e	0.027609494
95	0x3cc66187	0.024216427
96	0xaf1cc63c	-1.4258544e-10
97	0xbabbf902	-0.0014341178
98	0x310701a3	1.9646016e-09
99	0xbdd90f2e	-0.105985984
100	0xbd129145	-0.03578307
101	0x2dba01d4	2.1146564e-11
102	0x30f5d032	1.7885269e-09
103	0x3c45d3b3	0.012074399
104	0xbdf3a81b	-0.11897298
105	0x3782f479	1.561105e-05
106	0xbd13c090	-0.036072314
107	0xbc87b1c2	-0.016564254
108	0xb054a609	-7.73611e-10
109	0xb0001ecd	-4.66099e-10
110	0xbd40ae3b	-0.04704116
111	0xbd04436e	-0.03229087
112	0xbd85cb26	-0.06532888
113	0xbdc042f6	-0.09387772
114	0x3d0d71a8	0.03453222
115	0x3d839c2c	0.06426272
116	0xbc20fb77	-0.009825579
117	0xbb636b89	-0.0034701547
118	0x3d8d05cb	0.068858705
119	0xbb74e001	-0.0037364962
120	0xb9950316	-0.00028421794
121	0x3da47ac7	0.080312304
122	0x3d186914	0.037209585
123	0xbb9c2f42	-0.0047663758
124	0x3c565552	0.013081865
125	0x3cc4bc68	0.02401562
126	0x3d7e36cc	0.062063977
127	0xbc636d47	-0.013881034
128	0x3cee65b6	0.029101234
129	0xbd3436c3	-0.043997537
130	0xb6e64c06	-6.8633844e-06
131	0x3b3a772c	0.002845238
132	0x3d27fbde	0.041011684
133	0xbd4f65e6	-0.050634287
134	0x3cd59549	0.026072161
135	0xbd554366	-0.05206623
136	0x3ccfadaf	0.025351373
137	0x3da2bbe5	0.07945994
138	0x3badbd37	0.005302097
139	0xb33c2a09	-4.381039e-08
140	0x3c123fd1	0.008926348
141	0xbd04fd6a	-0.032468237
142	0xbd870f9c	-0.06594774
143	0x3d32bd58	0.043637604
144	0x3c2e6ac3	0.010645571
145	0x3c3291a3	0.01089898
146	0xb6f09e6f	-7.1710015e-06
147	0xbd3a797c	-0.045526013
148	0x3dbbfca2	0.09179045
149	0x3d6c14fb	0.057637196
150	0x3d28f99c	0.04125367
151	0x3caee546	0.02134956
152	0xbc91aa85	-0.017781505
153	0x3b71c125	0.0036888805
154	0x3be4ea1d	0.0069859163
155	0x3cc3204d	0.023819113
156	0x3c2ff12d	0.010738653
157	0x3c201c72	0.009772407
158	0x3cadced0	0.02121678
159	0x3e04846a	0.12941137
160	0x2d0e12d6	8.075948e-12
161	0xbcc5a500	-0.02412653
162	0x39a8b251	0.00032176313
163	0x3db74780	0.089491844
164	0x3db9c098	0.090699375
165	0x2cd32833	6.0014437e-12
166	0xb6f7e91c	-7.388311e-06
167	0xbd79a508	-0.0609484
168	0x3daf1a9b	0.085499965
169	0xb13f03b5	-2.7796265e-09
170	0x3bb34455	0.0054707923
171	0xbdc5d76d	-0.0966023
172	0xbc19d318	-0.009388708
173	0x2c45da16	2.8116446e-12
174	0xbdca4a7a	-0.098774865
175	0xbda620b4	-0.081117064
176	0x3d66059c	0.056157693
177	0xbd77f521	-0.060536508
178	0xbda80131	-0.08203352
179	0x3de33b1d	0.11095259
180	0x3c0b8e0b	0.008517752
181	0xbcb4806c	-0.022033893
182	0x3c772cf7	0.015086404
183	0xbc0d08a3	-0.008608016
184	0x3c93d314	0.018044986
185	0x3dbf8850	0.093521714
186	0x3db4d438	0.0882954
187	0x3bc3d502	0.0059763202
188	0x3cc3bce6	0.023893785
189	0x3dbc8ff4	0.092071444
190	0xbdade43a	-0.084907964
191	0x3e14c82b	0.14529483
192	0xbbf2ea88	-0.007413212
193	0xbd578fa4	-0.05262722
194	0x35f111cb	1.7961078e-06
195	0x3db0bcec	0.08629784
196	0xbdc21e79	-0.094784684
197	0xbd7c3ead	-0.06158321
198	0x3d1e83fb	0.038700085
199	0xbd2c4254	-0.042055443
200	0x3d691bfd	0.056911457
201	0xbdaefe81	-0.085446365
202	0x3d357aee	0.044306688
203	0xb2035a53	-7.645741e-09
204	0x3d3bd455	0.045856792
205	0x3cbad8a0	0.022808373
206	0x3cc6f731	0.024287792
207	0x3da6002b	0.08105501
208	0xbc48c82a	-0.012254754
209	0x3da1a286	0.07892327
210	0x3628ef5a	2.5173272e-06
211	0x3d2d6082	0.042328365
212	0x3d3ede24	0.04659857
213	0x3de2f48b	0.11081799
214	0xbca5aee8	-0.020225003
215	0x3d22eff9	0.039779637
216	0x3bb2faf5	0.0054620453
217	0x3d249024	0.040176526
218	0xbc902dae	-0.017599907
219	0xbc03c5f6	-0.008042803
220	0x3db52073	0.0884408
221	0x3ca0ccf2	0.019628976
222	0xbc0fc382	-0.00877464
223	0xbd9616db	-0.07328578
224	0xb68a9e76	-4.1311678e-06
225	0x3bbdd4d3	0.005793193
226	0xb8ee1eb4	-0.00011354443
227	0xbd75fbc6	-0.060054563
228	0xbdd66d56	-0.10470073
229	0xb753c672	-1.2622784e-05
230	0x36d97539	6.4807505e-06
231	0xbdd962da	-0.106145576
232	0x3dcf1235	0.101108946
233	0x2bb00b32	1.250866e-12
234	0xbd3a465b	-0.045477252
235	0x3c1c5e66	0.009543991
236	0xba48d072	-0.00076604553
237	0xad169d7c	-8.561481e-12
238	0x3ddfd820	0.109298944
239	0xbdc4bdc9	-0.09606511
240	0x3dd1b315	0.10239235
241	0xbd13be5e	-0.03607022
242	0xbdc8f66d	-0.09812627
243	0xbd326977	-0.04355761
244	0x3cfaba46	0.0306064
245	0xbc10c369	-0.008835652
246	0xbc963a21	-0.018338265
247	0xbcc1715c	-0.023613624
248	0xbcbcb991	-0.023037704
249	0x3d057aff	0.032588
250	0xbc0b99e2	-0.008520575
251	0x3d660f59	0.05616698
252	0xbc149ad2	-0.009070115
253	0x3d10b640	0.035330057
254	0x3d2062b9	0.03915665
255	0x3df4a962	0.1194637

decoder.2.bias f4 [128]
0	0x3cca571c	0.02469974
1	0xbda2d8bd	-0.07951496
2	0x3d48b313	0.048998903
3	0x3c7bc285	0.015366201
4	0x3d11fdbd	0.035642374
5	0xbcebc822	-0.028781954
6	0xb8d3d676	-0.000101012105
7	0x3d50b409	0.050952945
8	0x3de07bac	0.109610885
9	0xbc39d1cd	-0.011341524
10	0x3d80ef76	0.062956735
11	0x3dc7bfc4	0.09753373
12	0xbe56bc8b	-0.20970361
13	0x3c969bdb	0.018384865
14	0x31475d60	2.9011389e-09
15	0x3d3d86d6	0.046271168
16	0xbd85116a	-0.06497462
17	0x2e0d9d15	3.2199205e-11
18	0x3dde6c48	0.10860497
19	0x3d86cde4	0.06582239
20	0xbcd17506	-0.025568496
21	0x377a202c	1.4908652e-05
22	0xbdc273d7	-0.09494751
23	0x309654fb	1.0938089e-09
24	0x3e03316c	0.12811822
25	0xbc920293	-0.017823493
26	0x3d0a637d	0.033786286
27	0xbb5fcb3d	-0.003414824
28	0xbda70a14	-0.08156219
29	0x3d3ba3f4	0.045810655
30	0xbd5c3ab0	-0.053766906
31	0xbcbadb01	-0.022809507
32	0xbcccf513	-0.025019204
33	0xbc904423	-0.017610615
34	0xae0f2869	-3.2550327e-11
35	0xbc717883	-0.014738205
36	0xbca09137	-0.019600494
37	0xbda3f19a	-0.08005066
38	0xbd1271a7	-0.03575292
39	0x3d1fd83a	0.03902457
40	0xbe2d93ce	-0.16950914
41	0xbc8de6d2	-0.017321978
42	0x3db3ce4d	0.08779583
43	0x3d6f1d4d	0.058377553
44	0x3df6b8fb	0.12047001
45	0x2e9a517b	7.017583e-11
46	0x3d76e06d	0.060272623
47	0x3d82f7b9	0.063949056
48	0x3db398d3	0.08769383
49	0x3e0e3043	0.13885598
50	0x3e0bbfac	0.13647336
51	0x3ce8e8ed	0.02843138
52	0x3dc94ae1	0.09828735
53	0xaf7969f7	-2.2684064e-10
54	0xbc923c75	-0.017851094
55	0x3d6f0945	0.05835845
56	0x3d058ea7	0.032606747
57	0x3d3de59d	0.046361554
58	0xbd927693	-0.071515225
59	0xb5cdec72	-1.5342505e-06
60	0x3dd23995	0.10264889
61	0xad641793	-1.2965534e-11
62	0xbdd3a86c	-0.10334858
63	0x3e4712ec	0.19440812
64	0x3d88428d	0.066533186
65	0x3d66f4ba	0.056385733
66	0x3d7c664f	0.061621007
67	0xb7aac9a1	-2.035947e-05
68	0x3dd444e0	0.10364699
69	0x3d9bf04d	0.07614193
70	0xbdc075a5	-0.09397439
71	0x3dc29b2b	0.09502252
72	0x3e1c807f	0.15283392
73	0xb1556f80	-3.105896e-09
74	0x3daafaf6	0.08348648
75	0xb8b7d1c4	-8.765192e-05
76	0x3d8bdfd2	0.068298
77	0xadbb8628	-2.1319016e-11
78	0xbbd8a2eb	-0.006611218
79	0x3dadac41	0.084801205
80	0x3d9da410	0.07697308
81	0x3e07f84f	0.13278316
82	0x3e0566e9	0.13027538
83	0xab917533	-1.0335399e-12
84	0x3e007213	0.12543516
85	0xb74fa135	-1.2375695e-05
86	0x3adf9211	0.0017057081
87	0x3c481f8b	0.012214552
88	0xbd87463f	-0.06605195
89	0x3d996d6e	0.07491575
90	0xbd390f1b	-0.04518042
91	0x3e1704c6	0.14747915
92	0xbc93420b	-0.017975828
93	0x3cab1f2e	0.020888891
94	0x3cf87831	0.03033075
95	0xbc58b9a4	-0.013227854
96	0xbc1fe23e	-0.00975853
97	0x3c9f2a58	0.01942937
98	0xaec2dd42	-8.861402e-11
99	0xbd00dd72	-0.031461187
100	0x2e8cdc8c	6.40564e-11
101	0xbd24bd8d	-0.040219832
102	0xbc3f164d	-0.011663032
103	0x3e189435	0.14900286
104	0x3c63a9f1	0.013895498
105	0xbd66bcd0	-0.05633241
106	0xbd736bae	-0.059428863
107	0xbda876fb	-0.08225819
108	0xaa70227b	-2.1328245e-13
109	0x31079a3e	1.9732762e-09
110	0x3cbebd81	0.023283722
111	0x2df44c4b	2.777347e-11
112	0x3bc0009a	0.0058594467
113	0xbdf48094	-0.11938587
114	0x3e1655a8	0.14681113
115	0xbd81f440	-0.06345415
116	0x3db5c84e	0.08876096
117	0xbd2e931f	-0.042620774
118	0x3de094d0	0.10965884
119	0xbc765f73	-0.015037405
120	0xb7440a50	-1.1684911e-05
121	0xbd9c86c8	-0.07642895
122	0x3d056f26	0.032576703
123	0xaf302e92	-1.6023652e-10
124	0x3d003fbb	0.031310778
125	0xbd398196	-0.0452896
126	0xbc3a173d	-0.0113580795
127	0xbacc3e42	-0.0015582519
