Pipeline/Bonus_EDA/dnn_ae_v3.pth (torch, 92765 bytes, 12 tensors)

encoder.0.weight f4 [128, 16]
00000000: 86d9 6d3e ca18 7e3e b1e4 893d 2799 c63b
00000010: bc2b 093e 7b02 f43d b9ac d43d 8201 46be
00000020: b2be 40be 84c9 52bd 16be 1b3d 26e0 2e3d
00000030: 10df 2d3e cf20 333d a11e 34bd 92c1 45be
00000040: 6673 3bbc 45c3 8a3d 2893 e8ba de69 5abc
00000050: 425a 533c 0e62 313e d3dd 043d 62b7 afbd
00000060: 0307 fcbd bcaf ea3d f2cd 873d 78a8 8dbd
00000070: 2635 39be 3985 21be dc71 53be 766d 173e
00000080: f2ee 8abd 4850 d6bd a9e4 243e d9b4 1dbd
00000090: 0e8f 213e ffa6 b03b 8763 ed3c d4f6 f63d
000000a0: 67e1 99bc e5c6 ba3d 0e97 9bbd 8e53 f63d
000000b0: 1b9f 003d c981 113e 650c 4b3e fc52 81bd
000000c0: d384 003e 8044 1ebd f061 fd3d f5f7 ce3d
000000d0: a77a 5f3c a3d4 ce3c 5838 0d3d 3a9e 1fbe
000000e0: 4653 e03d 3b4f 0f3e e0c6 bd3c f694 eabd
000000f0: 9aca 6dbe ad22 863d cc43 c8bd eed7 82b9
00000100: 17c3 623e 2e02 a23d 42dc 5fbe 2c01 913d
00000110: 25fb 54bd 5cd5 0e3d 87e7 a3bd e8ab 7f3d
00000120: 53ba a43d c1b4 ab3d 00b4 56be 7d0b 5abd
00000130: 33e4 36be 9f92 1f3e 2279 4cbe 34bf 053e
00000140: 306b 3dbd 2161 39bd 3e20 dc3d 6bc7 f8bc
00000150: 6f51 63bb fee5 3bbd 454d 3e3e ef7d 1c3e
00000160: 7917 5e3e 271a d6bd d399 223e 1a9e 18be
00000170: 89c1 02be 0227 233e d19f 603e 461a dd3c
00000180: c312 803d 92bc 66be fe08 5b3e f42a c23d
00000190: 65f8 323d 1101 56bd a399 573c b9ca 033d
000001a0: 67d9 58bc e2d5 233e a6e9 33bd 20cf ba3d
000001b0: 94e2 193e 8136 b13d 3e21 adbd f3c9 0abe
000001c0: a797 093d ebce 4d3c 5a02 b0bc 6634 773c
000001d0: 58c5 edba 81ff c4bd a241 c43d 4cb2 43be
000001e0: b6e1 5cbe 1d2a 263d 81c3 30be 7c2d 2c3e
000001f0: 26ee 293e 765e 613d 8585 e73d 8710 02be
00000200: c816 353d 65ad 69bd 1380 b03d eff1 d8bc
00000210: 2fe9 f0bd 58b6 c93d 678a 44be 6afc 723e
00000220: 807c 7c3e 9f46 943d 9174 143e dd65 7f3d
00000230: 9381 283e 3a75 53be 3d46 4cbe a560 c73c
00000240: 5872 e6bd 7ba2 023e 633b fe3c 645a 5abc
00000250: a1d7 53bd 4d02 e4bc 6e75 90bd f680 ab3d
00000260: ea94 0fbe 6a13 9bbd a1a8 653e d485 29bd
00000270: 38dc 723c 07fa 643e 71e8 973c 076a 833d
00000280: b3a6 223c 354f 0cbe e498 f43d 3bcc 85bd
00000290: 1290 813d 906e 883e 2f9d 4e3e 9390 31bd
000002a0: a628 043e 6474 563e 730d 08bd fe02 173d
000002b0: 85db 8dbd 16eb a13c 5eb6 ca3d 4679 b2bd
000002c0: 7261 a7bc 6929 ce3d 1dc8 1ebe e34e 303d
000002d0: 6feb 4cbc fc4a 2abe 0ff9 8e3e 8fd7 f8bd
000002e0: a4ec 183e f5e6 823e b4ea 2a3e 45bf b1bd
000002f0: 8875 55be 9f68 42be ce8c 263e e431 b93d
00000300: 85d5 2bbd e0c1 ab3d 2f8f 16be 1ce4 ba3d
00000310: ca5d b43c 204d 643e a5e4 373e a5fc 8f3b
00000320: 7067 48be 2c06 0b3e 7b88 043d f4ee 19bd
00000330: 1534 383e 6998 7fbd 6f23 0fbd 17eb 023e
00000340: 4f2a b13d 14c8 8e3d 3bc1 203e 8161 a5bc
00000350: fcd5 e7bc 3ef4 003d b850 f8bc 7e4a 86bc
00000360: d351 d83b 20ae d93c 82de bcbd 572e 0b3d
00000370: 67f3 d4bd 528b 123d d101 54bd 5171 a53d
00000380: b785 55be ef4e 1fbd b244 503e 1613 913d
00000390: 3c1e 4b3e e18f d73d 20a6 1abd 2b33 62bd
000003a0: e86c 0ebe afc9 49be 89ea 1f3e 091f 823d
000003b0: e6aa b33c bd23 4d3e 9741 5f3e 9f0b 823e
000003c0: a2c5 0abd 3912 263e c481 3abd b110 34bd
000003d0: 38e0 f43c c7dd 06bd ffa8 36be aec7 e6bb
000003e0: 01e0 7fbb 4985 243e eaae b43b 6d27 563e
000003f0: 9316 d9bc f858 a5bd 0201 123e 8c34 bcbd
0.2322751 0.24814144 0.067330725 0.0060607377 0.1339559 0.119145356 0.10384507 -0.19336513
-0.18822744 -0.05146171 0.038023077 0.042694233 0.16979623 0.04373246 -0.043974523 -0.19312122
-0.011441087 0.06775526 -0.0017744051 -0.013330905 0.012899937 0.17322561 0.03243811 -0.08579899
-0.12306025 0.114593 0.06631078 -0.069168985 -0.18086681 -0.15773477 -0.20648903 0.1478785
-0.067838565 -0.10464531 0.16102852 -0.038502548 0.15777227 0.0053910012 0.028978122 0.120587975
-0.018784238 0.09119967 -0.07597171 0.120276555 0.031401735 0.14209665 0.19828947 -0.06314656
0.12550668 -0.038639545 0.12372196 0.10105888 0.013640082 0.025247877 0.03447756 -0.15587702
0.10953383 0.13995068 0.02316612 -0.11454193 -0.23221818 0.06549583 -0.09778556 -0.00024956412
0.22144733 0.07910572 -0.21861365 0.07080302 -0.051997323 0.034871444 -0.08003145 0.062419802
0.08043351 0.083840854 -0.20967102 -0.053233612 -0.17860489 0.15583275 -0.19968084 0.1306122
-0.0462448 -0.045258645 0.10748337 -0.030368527 -0.003468599 -0.045873635 0.18584163 0.15282415
0.21688642 -0.10454207 0.15878992 -0.14904061 -0.1276914 0.15932849 0.21935965 0.026990067
0.062535785 -0.22532871 0.21390149 0.09480849 0.04369392 -0.05224711 0.013159188 0.032175753
-0.0132354265 0.15999559 -0.043923996 0.09121537 0.15027839 0.08652974 -0.08453606 -0.135536
0.033591893 0.01256154 -0.021485496 0.015088176 -0.0018140478 -0.09619046 0.09582831 -0.19110984
-0.21570477 0.040567506 -0.17262079 0.16814226 0.16594753 0.055021726 0.11304764 -0.12701617
0.04421118 -0.057050128 0.08618178 -0.02648255 -0.11763226 0.098492324 -0.19193421 0.23729101
0.24656868 0.072400324 0.14497592 0.062353004 0.16455679 -0.20650187 -0.19948669 0.024338076
-0.11252278 0.12757294 0.031034177 -0.013327215 -0.05171931 -0.027833128 -0.07053648 0.08374207
-0.1402165 -0.07572062 0.22427608 -0.041387394 0.014823012 0.22361003 0.018543454 0.064167075
0.0099274395 -0.1370209 0.11943224 -0.065330945 0.06326307 0.26646852 0.20177148 -0.043350767
0.12906131 0.20942837 -0.03321595 0.036868088 -0.06926636 0.019765418 0.09898065 -0.08714537
-0.020432208 0.10066492 -0.15506025 0.043043982 -0.012507304 -0.16630167 0.27924392 -0.121504895
0.14934021 0.2556683 0.16691095 -0.0867906 -0.20845616 -0.18985222 0.1626465 0.09042719
-0.041951675 0.08386588 -0.14703058 0.0912554 0.022017378 0.22295046 0.17958315 0.0043941312
-0.19570708 0.13576573 0.03235672 -0.0375814 0.17988618 -0.06240121 -0.0349459 0.12784992
0.08650648 0.069717556 0.15698712 -0.020188095 -0.028300278 0.031482928 -0.030311927 -0.016392943
0.006601551 0.026572287 -0.092221275 0.03397974 -0.10397988 0.035777397 -0.051759545 0.08078254
-0.2085179 -0.038893636 0.20338705 0.070837185 0.19835752 0.105254896 -0.037756085 -0.05522458
-0.13908732 -0.19705842 0.15616812 0.06353576 0.021932077 0.20033164 0.21802364 0.2539949
-0.033879884 0.16217889 -0.04553391 -0.04396123 0.029892072 -0.032926347 -0.17837904 -0.0070428466
-0.003904343 0.16066469 0.0055140154 0.20913477 -0.026500022 -0.0807361 0.14258197 -0.0918971

encoder.0.bias f4 [128]
00000000: 6183 bbbd 1e25 d23d fcad 263d 4e1b 4a3e
00000010: b867 293e 480d 6d3e 444f 6d3e efb4 aabd
00000020: 7fe1 923d e599 cb3d 3870 b83d 378c dc3c
00000030: 55df 833d 95fe 303d 8773 6c3e 48f3 dbbd
00000040: 17f8 aabd 0806 9f3d 90eb b9bd 16b7 f3bb
00000050: 820e 84bc 4c9f eb3c 3435 603e 16b3 5cbe
00000060: 6f0e 513d 8a57 c3bd bc04 ce3d 13fa 313e
00000070: 5a0a a5bd 2b53 4fbe 0bdb cebd 11b5 263e
00000080: 3e86 1cbe 86b0 4c3d f537 1a3d b4c3 d03d
00000090: b99e 263e a964 7f3e c46d 923e f96d 8a3d
000000a0: 21f5 743e 82f1 0d3e 43e1 ffae 396c a4b9
000000b0: 270b b3bd 4eb9 ba3d 9429 183d 3804 cb3d
000000c0: 5add ffbd 6671 a03d ece8 26bb 5eef 593e
000000d0: 61b3 2c3e 450a 5c3e 3c95 323e 0780 93bd
000000e0: ba2d 133e f03a 9dbd 535f f23d eccb fb3d
000000f0: 1bd2 61bd 8f24 bb3d bf94 053d f3b0 323d
00000100: 2305 c83d 499e bc3d 11b0 6d3e 7c38 1a3e
00000110: 7f1f 653e 41dc cabd b903 1f3e 4dde 8d3d
00000120: 769e 0abe 3c8b e23d 7d9d 973b 61e4 18be
00000130: a68e 183c efde 9830 87bc a73b 456d 413c
00000140: 954c 523e 398f b93d c0da 953d 30de 29be
00000150: de25 6c3e 904c 3d39 1ad3 eebb 7b5c 0c3e
00000160: c3fd 3e3e e70b 443e 6276 4fbd f13c 403e
00000170: d325 f1bd 9b2a 613e 6623 033e 8790 513d
00000180: 211e 603e 7c1f 253e 5a7c 38be b6ca f9bd
00000190: 7655 5a3e a8a5 513d 9294 9ebb f971 7c3e
000001a0: 22b7 0b3c d38d 44be 1fdb aebd 23b0 3d3d
000001b0: 327d e4bd b66e b9bc 1e31 6c3e 46fd 2d3e
000001c0: 90ec 4cba ffef 363e 00f9 f13d 9ad1 fc3c
000001d0: f4c3 0e3d 888a 153d 2846 2abd ddaf 3c3e
000001e0: 235a 7cbd 8d63 f3bd f164 5f3c fe87 e1bd
000001f0: 185e b93d 2cc5 293d e2ef d0bb 1814 e33d
-0.09155918 0.10260986 0.04069327 0.19736978 0.16543472 0.23149598 0.23174769 -0.083352916
0.07171916 0.099414624 0.09005779 0.026922328 0.064390816 0.04321154 0.23090945 -0.107397616
-0.08348101 0.07764822 -0.09078133 -0.007437597 -0.0161202 0.028762482 0.21895295 -0.21552691
0.051039156 -0.09538181 0.10059497 0.17380552 -0.08058615 -0.2024657 -0.10100373 0.16280009
-0.15285584 0.049973033 0.03765102 0.101935774 0.16271485 0.24940743 0.2859937 0.06759257
0.23921634 0.13861659 -1.1636072e-10 -0.0003136115 -0.087423615 0.09117375 0.037149027 0.09912914
-0.12493391 0.07834129 -0.0025468422 0.21282718 0.16865303 0.21488293 0.17439741 -0.07202154
0.14372912 -0.07677257 0.11834588 0.122947544 -0.055132013 0.091378324 0.03261256 0.043625783
0.09766605 0.09209878 0.23211695 0.1506061 0.22375296 -0.09905291 0.15528764 0.06927166
-0.1353701 0.11061713 0.0046269284 -0.1493087 0.009311354 1.1122817e-09 0.0051189098 0.011805837
0.20537026 0.09060521 0.07317114 -0.16588664 0.2306132 0.00018052966 -0.007288349 0.13707153
0.1865149 0.19145165 -0.050650008 0.18773247 -0.117747925 0.21988909 0.12806472 0.051163223
0.21886493 0.16125292 -0.18016186 -0.12196867 0.21321663 0.051183373 -0.0048394883 0.24652852
0.008527549 -0.19194727 -0.08537888 0.046310555 -0.111566916 -0.022635799 0.23065612 0.16991147
-0.0007817233 0.17864989 0.11815071 0.030861665 0.034854844 0.036509067 -0.041570812 0.18426462
-0.0616094 -0.11884222 0.013634906 -0.110122666 0.0905115 0.041447803 -0.0063762525 0.11087817

encoder.2.weight f4 [64, 128]
00000000: fe87 bfbc 45f8 293d 8aae fb3c b057 b83c
00000010: e2d6 9f3d d180 a43c d74c cf3d 6a24 083d
00000020: cfe3 863d a20d 9b3c 66b4 383b 428b 923c
00000030: 49b0 963d 5cb3 8f3d 57a3 1dbd 2acc e6bc
00000040: 3522 723d ffbe 9c3d 2f9f 2a3d d9ad bfaf
00000050: 7fa6 5c2c 7003 41bd ccf4 bcbb 655e 5fbc
00000060: 3a88 493d fe3d 203d 5832 3ebd d00c c3bc
00000070: 20f0 be3d b42a a03d ef2f 72bc e6d4 acba
00000080: 9004 65bc 9080 03bd 7a8f 3bbd 00cf b1bb
00000090: 1156 833d b300 8d3d 940d b8bd 88de bd3c
000000a0: 1c88 acbc f553 e83c ba17 342b e6cd 99bd
000000b0: 8f42 30bc 43fc afbd d815 4bbd 5aa9 0a3e
000000c0: 1b2b 1cbd e23c 9cbc cfc3 75b6 085b 9d3a
000000d0: 2210 30bd da77 4e3d 355c 15bc 8bf9 1f3d
000000e0: 6335 49bd 7dbb c93d 5888 8a3d d35a 7d3d
000000f0: 4ab9 123d a385 91bc 6bd5 993d 8df7 603d
00000100: ada2 06be 3eea 883c d482 91bd 357b 74bd
00000110: 1e95 1c3c 9c74 3f3d 036c cebc 2cf9 c23d
00000120: d4da 02bc e11c 093e 05e1 85ae d9d3 913d
00000130: 4703 a23c 4e79 0d2e 4b32 ac3d d5b0 f43a
00000140: b71d 70bd ded1 23bc 52f9 363e aa4b 9f3d
00000150: 2f2b 413d 6166 abb8 f3a2 143e e13d 91bc
00000160: 383a bc3d 11a2 e53d 82cf c93d 262b 98bd
00000170: 564d c8bc 05e2 393c 828a c23c 999d a83d
00000180: 584b 973d 8afe 30bc 5929 bdbc 9e47 463d
00000190: a25f 62be 4c8c 283c e560 70b6 a86d f73b
000001a0: d1de dabc 9bf6 903d d732 623c 3679 fa3d
000001b0: 691b e43b 5489 6cbd d950 ec3c cea9 c5bc
000001c0: 9427 082d 2824 623d 1d73 a53d 737e 23be
000001d0: 66ad 58bd 1950 fe3d ab00 d0bc ca9d e53b
000001e0: e03b 2f3c d0a8 253d f26f 01bd 2eac f13b
000001f0: 2069 5a3d 9a66 19bd a3a2 81ba 3455 d3bc
00000200: 92c5 5ebc 7ea8 38bb 3755 173e e88e bf3d
00000210: 45c3 80bd 19f0 243b f878 1a3e 8419 d7bb
00000220: 18a7 613c 3787 f23c b58d 5a3c 81c0 c8bd
00000230: bb66 f9bd acc4 2e3c c762 c03d 58ff 9b3d
00000240: 321c b0bd 219f d6bd 8305 b8bd c752 42ad
00000250: 24f5 19ad 6882 613d c42a d43c 3947 713d
00000260: 2d75 a2bd 3887 c43d 1ccc 523e 8bfa a3bc
00000270: 176e 0fbd 1e0a 4f3e 5a79 2abd 4670 f33d
00000280: 4484 0cbe c4ec 80bd 761e 6ebd 4074 33bd
00000290: cdbf 79bc 7729 b4bc 12ca 223e 4313 f83d
000002a0: 3594 c63d f0f7 3d3d 2ea1 a82c ade5 443e
000002b0: e3ff 113d e1d9 643d a60b e83d c42a b53d
000002c0: d691 773d 2290 d33d 946b 01b8 5fbb d53d
000002d0: cbe1 b53d 4cab 5e3e f32e f83d e12e c83d
000002e0: 8688 0c3e 2fb7 933d cb95 91bd 22c0 3d3d
000002f0: 648b dc3c b81f 113e 81ce c3bc 4b69 263d
00000300: 6c82 4abc 974c b03d 41c0 d7bc 5a22 633e
00000310: 013b b3bd 0294 8e3d fd8a 9e3d 4475 ecbc
00000320: d69e 003d 9f4f ff3d b926 7eac aa84 fc3c
00000330: 1bfa 253c ceb9 292e 3408 673d ab0a ef3d
00000340: d299 003e 3b12 233e 80d5 8c3d fe3c e0bd
00000350: d298 2c3d 20fe 43b9 1238 4e3d 154e 6b3d
00000360: 1baf 00bd d18a c33c e250 4abd d084 533d
00000370: 0b07 c2b8 7d89 b3bd df89 783d 1dbe 283e
00000380: 5f44 b2bc d76d 023e 8ca9 a2bd 5146 153e
00000390: 399a 8f3d d8de fc3d 1b86 9c37 78e8 67bc
000003a0: f959 023e 1e47 ac3d 9a27 aabd 8ca1 683d
000003b0: 54e7 9d3c dc86 063e 7d7a aebc 5f4c 78bd
000003c0: 1488 c6af fba7 9ebd 5682 86bd a331 013e
000003d0: 0fa6 9a3d 2023 eb3d 4f3a 84bd 2735 373e
000003e0: ff75 133d 6646 25bd c0ef 663d cb30 89bc
000003f0: 755b 863d 8b17 063d 4088 653d 4ebb 08bd
-0.023380276 0.041496534 0.030722875 0.02250275 0.078046575 0.020080956 0.10122078 0.033237852
0.0658642 0.0189274 0.0028183698 0.017888669 0.073578425 0.07016632 -0.03848585 -0.028173525
0.059114654 0.07653617 0.041655716 -3.4866224e-10 3.1356304e-12 -0.04712242 -0.0057664867 -0.013633345
0.04920218 0.03912162 -0.04643473 -0.02380982 0.09323144 0.07820645 -0.014781936 -0.0013186007
-0.013978139 -0.03210503 -0.045791127 -0.0054262877 0.064129 0.06884899 -0.08986965 0.0231774
-0.021060996 0.028360346 6.3981773e-13 -0.07509975 -0.010758056 -0.08593037 -0.04958138 0.13541165
-0.038127046 -0.019072 -3.662182e-06 0.0012005279 -0.042984135 0.050407268 -0.009116222 0.039056342
-0.04912318 0.09850214 0.06764287 0.061854195 0.035821237 -0.017763918 0.07511409 0.054923583
-0.13147993 0.016713258 -0.071050316 -0.059687812 0.009557037 0.046742067 -0.025197988 0.09520182
-0.007986743 0.13389923 -6.088111e-11 0.07120485 0.019776953 3.216743e-11 0.0840803 0.0018668423
-0.05862209 -0.009998767 0.17868546 0.07778104 0.047160324 -8.172985e-05 0.14515285 -0.017729701
0.09190792 0.11212552 0.09854032 -0.07430105 -0.02445094 0.011345391 0.023747686 0.08233184
0.073874176 -0.010802874 -0.023091005 0.048408143 -0.22106794 0.010287356 -3.5819187e-06 0.007550914
-0.026717575 0.07078286 0.0138060665 0.122301504 0.0069612754 -0.057748154 0.028847145 -0.02412882
7.739493e-12 0.055210263 0.08078597 -0.15966205 -0.05289974 0.12417621 -0.025390944 0.0070073353
0.010695428 0.040444195 -0.0316009 0.0073752617 0.05332291 -0.037451364 -0.0009890388 -0.025797464
-0.013596909 -0.00281766 0.147786 0.09353429 -0.06287245 0.0025167523 0.15085208 -0.006564321
0.013772748 0.029605491 0.01333945 -0.09802342 -0.121777974 0.010667007 0.0939384 0.07617062
-0.08599128 -0.1047957 -0.08985426 -1.10460035e-11 -8.751475e-12 0.055056006 0.025899298 0.058905814
-0.07932506 0.095961034 0.20585674 -0.02001693 -0.0350171 0.20218703 -0.041619636 0.11886649
-0.1372233 -0.062951595 -0.05813452 -0.043812037 -0.015243483 -0.021992428 0.15897396 0.12113049
0.09696237 0.04637903 4.7927417e-12 0.1922824 0.035644423 0.055871848 0.11330347 0.088460475
0.060441814 0.103302255 -3.0856187e-05 0.10436129 0.08880957 0.21745032 0.1211833 0.097745664
0.13723955 0.07212674 -0.07108649 0.04632581 0.026921935 0.14172256 -0.02390218 0.04062776
-0.012360197 0.08608358 -0.026336791 0.22181073 -0.087514885 0.06961824 0.07741354 -0.02886451
0.031401478 0.124663584 -3.6117066e-12 0.030824978 0.010130431 3.859118e-11 0.056404307 0.11671957
0.12558678 0.15924923 0.068766594 -0.10949133 0.04213793 -0.00018691318 0.05034644 0.05744751
-0.031416994 0.023869904 -0.049393542 0.05164033 -9.251953e-05 -0.08766458 0.06067836 0.16478772
-0.021761118 0.12737213 -0.07942495 0.14577605 0.070118375 0.123471916 1.8659097e-05 -0.014154546
0.12729634 0.08412002 -0.08308335 0.056794688 0.019275345 0.13137382 -0.021298641 -0.06061971
-3.611268e-10 -0.077468835 -0.06567828 0.12616591 0.075512044 0.11481309 -0.06456434 0.1789137
0.0360012 -0.04035034 0.056380987 -0.0167469 0.06560413 0.032737296 0.05603814 -0.033381753

encoder.2.bias f4 [64]
00000000: a975 993d 9703 ae3d de9f b7bd 8212 8ebd
00000010: afd2 b53d 853b ec3c e1a6 763d bdd7 3cbc
00000020: fb39 163d 13dc cf3d 5fb5 703d 44b1 8ebc
00000030: ac6a 86bd af6e c6b6 a40b 813d c573 87bd
00000040: ea2d 493d 1e26 42bb c7b4 553a f2e8 9a3c
00000050: a8d7 143d 699d b73d 13f6 8fbd 73f9 1fbd
00000060: 188f 8cbb db32 5fbb b17e 9c3c e4c3 5c3d
00000070: cc08 bf3d 761e 903d 46fa 483b 9c72 ee3c
00000080: 9629 2cb4 c531 55bc 66f4 c03d af6c 17bc
00000090: 868d b8bc 6f43 b03d 37f9 283d fcd7 91bc
000000a0: e7cd c93d 63d8 9b3d 5228 a13d 0dbb 98ba
000000b0: ae12 abbd 8b5c 47bd 7f96 cc3c ae75 af3b
000000c0: e928 8c3d f707 883c 4198 00bd e119 3e3d
000000d0: 7a45 8bbd 28dc a13d f772 81bd 2a5d 793b
000000e0: df9d 8e3d 189f 8cbc 2d48 453d 4de4 ab3c
000000f0: 9380 9b3b b7fa 3cbd 980e c9bb 551f b1bc
0.07493145 0.084967785 -0.08966039 -0.06937124 0.08878075 0.028836975 0.060217742 -0.011526045
0.03667639 0.10149398 0.05876672 -0.017418511 -0.06563315 -5.913745e-06 0.063010484 -0.06613878
0.049116053 -0.002962477 0.0008152243 0.018909905 0.03633848 0.089655705 -0.07029357 -0.039056253
-0.004289519 -0.0034057412 0.01910338 0.053897753 0.0932785 0.0703706 0.0030666753 0.029107384
-1.6033877e-07 -0.013012354 0.09421615 -0.009242221 -0.022528421 0.08606612 0.041253295 -0.017803185
0.09853726 0.07609632 0.078690186 -0.0011652425 -0.08353172 -0.04867224 0.024974106 0.0053546047
0.068437405 0.01660536 -0.0313952 0.0464114 -0.06800361 0.079033196 -0.06320756 0.0038049915
0.06963705 -0.017165706 0.048164535 0.020982886 0.004745552 -0.046137538 -0.006135773 -0.021621386

encoder.4.weight f4 [10, 64]
00000000: 4409 09be ba8c f4bb 89e0 0e3d bb31 333d
00000010: 69a0 cabd 85e7 09bd ff38 823d f527 cdbb
00000020: 2936 ae3c e86e 18be 064a bdbc d235 ff3c
00000030: 0c7a f8bd 4d30 0631 55fd b93d 7fdc 1f3d
00000040: 0101 9b3c 74d3 f33c 6eb8 633c 8570 78bd
00000050: 7ca2 ebbc 1260 96bd fc11 573d 0e89 1a3d
00000060: e97b 823d 83e6 713a 85f1 a9bd 36bc 023c
00000070: 5706 7d3c 1ee5 90bd d430 70bd 5dff 14be
00000080: 4cde 2eb2 49c5 ffbd 16d8 913d 2ad7 23bd
00000090: 31f4 1bbd 164a 8cbd dce8 c3bd 2800 d53d
000000a0: bd18 dd3d ecae 8abd e4de 4a3e 28c9 71bc
000000b0: 5bb5 c1bd d8ba bd3c 1710 7fbd 61c9 253b
000000c0: e353 4a3d 52a8 563d 323b 283c 0163 133e
000000d0: e929 b33d e16b 43bd 3bc5 a0bd f2f8 853d
000000e0: 05d0 43bd 01dc f6bc c9eb 723d ae22 a4bd
000000f0: b002 e1bb 40ef c3bd 38a7 f2bd 788e 82bd
00000100: 4f3f b6bd fd47 53bd 6ef9 663c c31e 863b
00000110: 3294 21bd 5064 51bd 4291 f63b 1365 553c
00000120: eb51 323d 9668 2a3e f99e c93c 5ed0 9b3c
00000130: e44f 8cbc d400 142f 638c 0a3c 1999 05bc
00000140: d40d cf3d 8e62 41be 9b20 923d dc4c d1bd
00000150: be9c 8d3c 0b0a d5bd f2b6 6d3d fdc4 2bbd
00000160: b91b 823c 2066 5630 4943 69bd 8477 5ebd
00000170: 7748 a33d 38a4 193d 679a 493c fe2f 2abd
00000180: 7efe 0a36 bc1e 72bb 632c a0bd eba9 303d
00000190: cb4a 583d 4488 0abe cd54 9b3d c865 f6bd
000001a0: a9f0 c53c a559 473d 3e74 debd ba32 523a
000001b0: df0c bf3d c353 8b3d fddd a838 a7d1 e3bb
000001c0: ceb4 a3bd b318 5abd 52a2 28bd 9e4c 20be
000001d0: 27a1 b53d 1512 aabd bbea 423d e943 033d
000001e0: cf4b e8bd 0869 72bb bfb4 183d f57a dcba
000001f0: 52d4 03be c27d f0bd 09aa 2d3e f924 fbbd
00000200: 0734 1e3c b35e c33d 38d3 a3bc c09a a13c
00000210: 93a4 263d 2bb9 ba3d f755 e63d cc11 163c
00000220: cb19 06be 5828 1b3e c772 823c c203 973b
00000230: 53c1 0bbd 8dda ddad e00e 3b3d f88d 423c
00000240: 5555 c53c 7cab 04be 754a 53bd fcf8 ffbd
00000250: a00d 2cbd 481e dcbb 6348 c53d 2cc5 293d
00000260: 0f2b 0c3c 2935 b2b5 78fd 743a 8281 e5bd
00000270: e903 893c 51b7 f53d 6a9c 97bb eeb0 7b3d
00000280: 59a5 a931 6052 4bbd 81b2 db3d b82d 743d
00000290: 65bf 7a3d 8ccd 243d 13dc 813d 6736 80bc
000002a0: 6d23 f3bc bb1e 7d3c 3cfa f63d 55d1 b339
000002b0: aa42 6d3d 679d 78bd ad8f 083d f303 5fbc
000002c0: 6d68 893d f09a 51bd 857e 8ebd d4df 9c3d
000002d0: b36f b83d eb8b 593d 8fba 3ebd 727d 073b
000002e0: 7bb0 b13d d743 13bd 0255 b73d 2ef2 153d
000002f0: 4437 803c 2437 bd3d b123 fbbd 366f db3d
00000300: e041 903c d346 a7bd 7f0c 583b e87c a83a
00000310: 480e 853c 964d 993c 514c 443c c9e3 c4ba
00000320: 80b3 cfbd 3b69 36be 02c0 63bd 0351 523d
00000330: e4ef 4dbc 817a d9ac 9d80 893d c364 d83b
00000340: deb5 f639 de57 ddbd a0ba 28be 80fa 673d
00000350: f058 493c b1c2 5e3a c9c4 863d 7c78 85bd
00000360: e424 26bc aaaa 9e37 abad 5f3e ba8b ff3d
00000370: 502a c3bd 4e07 c33d 2949 6c3d 7d74 aa3d
00000380: 9069 e02e 8fb0 73b9 5703 d3bd 3d3b 04bd
00000390: 5c1c 933b e706 1d3d bf68 3dbd 6d2e 943d
000003a0: 731f 053d 6be9 303d 0be1 2abe 14ba 623b
000003b0: 21f7 aa3c 3f3e 87bc 4a42 d8bc 582e 20be
000003c0: 3ed8 423d e79f f43c 2749 15bd 8335 f6bd
000003d0: 9ee0 243d bdd0 79bb 985f 043e 2184 203d
000003e0: 337c 84bd 9f6e 00bd e46f b73d 542b 523e
000003f0: 2710 cc3d 9eda 9d3d 78e7 d93d 6e94 3f3d
-0.13382441 -0.007463065 0.034882102 0.0437486 -0.09893877 -0.03366806 0.063585274 -0.0062608668
0.02126606 -0.14886057 -0.023106586 0.031153593 -0.121326536 1.9527022e-09 0.090815224 0.03902864
0.018921377 0.029763915 0.013898952 -0.060654182 -0.028764002 -0.07342543 0.052507386 0.03772836
0.0637129 0.00092277693 -0.08298019 0.007979443 0.015443406 -0.07074951 -0.058640316 -0.14550538
-1.01786775e-08 -0.12488801 0.07121293 -0.04000012 -0.038074676 -0.06850068 -0.09565899 0.104004204
0.10795734 -0.06771645 0.19811589 -0.014757432 -0.09458419 0.023160383 -0.062271204 0.0025297033
0.049396407 0.052406617 0.0102680195 0.14393236 0.08748228 -0.047710303 -0.07850119 0.06541623
-0.047805805 -0.030134203 0.059306893 -0.08014427 -0.0068667755 -0.09567118 -0.11848301 -0.0637483
-0.08898794 -0.051582325 0.014097555 0.0040930226 -0.03944797 -0.051121056 0.0075246403 0.013024586
0.043535154 0.16641459 0.024611937 0.019020256 -0.017127939 1.3460816e-10 0.008456322 -0.008154177
0.101100594 -0.18885252 0.07135125 -0.10219738 0.017286655 -0.10402306 0.0580358 -0.04193591
0.01588236 7.7997875e-10 -0.056948934 -0.054313198 0.07972806 0.037510127 0.012304879 -0.041549675
2.0711736e-06 -0.0036944589 -0.07820966 0.043130796 0.052805703 -0.13528544 0.07584534 -0.12031132
0.024162607 0.048669476 -0.10862015 0.0008018423 0.09328627 0.06803086 8.052213e-05 -0.0069524827
-0.0799347 -0.05324621 -0.041170426 -0.15654227 0.08868628 -0.0830423 0.047587138 0.032047186
-0.11342584 -0.0036988873 0.037281748 -0.0016821312 -0.12873963 -0.117427364 0.16959395 -0.12262911
0.009655959 0.09539547 -0.019998178 0.01972711 0.040684294 0.09117349 0.11246865 0.009159517
-0.13095777 0.15152109 0.01592387 0.0046086023 -0.034119915 -2.5221847e-11 0.045668483 0.011874668
0.024088541 -0.12956041 -0.05158468 -0.12498662 -0.04200518 -0.006717477 0.09632947 0.041447803
0.008555188 -1.3277505e-06 0.0009345631 -0.11206342 0.016725497 0.119978555 -0.0046268003 0.06144803
4.937345e-09 -0.049639106 0.10727406 0.059613913 0.061217684 0.040235087 0.06340804 -0.015650941
-0.029679978 0.015449221 0.12059447 0.00034297505 0.057924904 -0.060696986 0.033340145 -0.013611781
0.06709371 -0.05117315 -0.069577254 0.07659879 0.0900568 0.05311195 -0.046564635 0.0020674136
0.08676239 -0.03595337 0.08951761 0.036607914 0.015651353 0.09239033 -0.12262667 0.10714571
0.017609537 -0.081678055 0.0032966433 0.0012854608 0.016242161 0.018713754 0.011981086 -0.0015021499
-0.10141659 -0.1781358 -0.055603035 0.05134679 -0.012569401 -6.1811116e-12 0.06713984 0.0066038086
0.00047056278 -0.10807775 -0.16477442 0.05663538 0.012289271 0.0008497639 0.065805025 -0.06517121
-0.010140631 1.891454e-05 0.21843593 0.124778226 -0.09529555 0.09522878 0.05768696 0.083229996
1.0205092e-10 -0.00023240059 -0.103033714 -0.032283057 0.0044894647 0.03833666 -0.04624247 0.072354175
0.032500695 0.043191355 -0.1668741 0.0034595774 0.020869793 -0.016509173 -0.026398797 -0.15642679
0.047569506 0.029861404 -0.036446717 -0.12021925 0.040253274 -0.0038118802 0.12927091 0.039188508
-0.064690016 -0.031355496 0.08956888 0.20524341 0.09964018 0.077077135 0.10639852 0.046772413

encoder.4.bias f4 [10]
00000000: 5c6d 1ebd 7240 893d a348 cc3d fc9c 8a3d
00000010: 0fcf 98bd 7406 43bd c335 0dbe c4f0 bebd
00000020: 6e14 ecbc a917 d43d
-0.038678512 0.06701745 0.09974792 0.06768224 -0.07461368 -0.047613576 -0.1379004 -0.09323266
-0.028818335 0.10356075

decoder.0.weight f4 [64, 10]
00000000: e5f8 64be 5071 7dbd d9fa de3d 1340 9ebd
00000010: 922a 91bd b8c7 acbd 2d98 cb3c 1f8d 63be
00000020: c5a1 94bd 1cab 723e e2d8 5d3e 26dc 06bd
00000030: 1334 f0bd 2241 32bd 587a e33d f29d e6bd
00000040: 7af6 51be c54b b43a c939 9a3d 6e7e 89be
00000050: 4fc5 0d3e 46bf 0fbe 3264 31be 6b82 853d
00000060: 4da0 753e 59f5 b73c e564 5b3d 673d 8dbe
00000070: 2f80 5c3b 75ce 1dbd e83e 9fbd 287d 75be
00000080: 2a66 0dbd f2d2 64be e6e8 6ebe 9008 8a3d
00000090: eb0b 94be ff6e 95bd db1e b8bc b27a 203e
000000a0: 95bc 44be 445a 353e f727 683d ffcb adbd
000000b0: c92d 473e 39b6 0b3e 395c 92be 7370 59be
000000c0: 65d0 aebb 51f9 3a3e e30d bcbc a4f1 fe3d
000000d0: 5ac0 623e 3e88 7f3d c91c 943d e311 8dbe
000000e0: d8cf 38be 29a9 43be eb21 0fbe 97b8 0abe
000000f0: 51e2 94bb 0101 af3c 7f1a 2cbc 86ff c23c
00000100: 12e2 683b 44fb 323b 11e4 94ba 6896 e7b8
00000110: 8191 07bb b58e b73b 7718 0dbe 87ca 83bd
00000120: e6ef 04be e132 15be 4e3b 73be 8d46 72bd
00000130: c7b6 bc3d 0c66 d9bd 7be5 b83c ee0d 61be
00000140: 9c3b 123d 3570 f13d c4e0 883e 9f67 66be
00000150: 6e7e 793e 0803 41be 943a 8a3e c7d8 093c
00000160: 3a83 593d f877 243e 2b77 9dba 2cb8 6838
00000170: 0678 a6bc 1d83 8aae a73e 2dbd 24e2 cebc
00000180: d511 9c3c 1496 16b9 e7c4 9dbb c870 1c3d
00000190: b3ab a53c 36dc b7bb 3c92 47bc 6553 61be
000001a0: 528d ee3d 0097 573e 3e62 183e c9db fcbd
000001b0: 6f4c 95be 65a0 083e 183c 93be 6db8 203e
000001c0: 70c7 5d3e a7d8 773e 4ca6 463e 53c3 293e
000001d0: da20 22bd 891a 12bd 10bd cdbd e18d 4b3e
000001e0: b170 efbd 9776 823b c769 923e 14ab 8d3e
000001f0: 7d74 b33b 5cf0 05be 2cf3 98bc 4507 b2bd
00000200: e4ca 7bbe 935e e13b b20e fd3d 3359 13be
00000210: 9170 8f3e 1ad9 843e d6ce 8e3e 6b6b 933e
00000220: bbe5 013e 7b0d 5abe 8885 fbbd 6448 90bc
00000230: 8c3c 4abe 3f2f 04be 168b 493e 3fad dbbd
00000240: 31a6 b6bd 9e1f 353d ac76 803d 668e a03d
00000250: 7d70 19be 4083 473e 5a6c 92be e7ed 82bd
00000260: f727 533d 40e8 853d b68b ccba 90e2 02be
00000270: 8b4d 443e 4f23 7f3e 3f90 32be 4054 40bd
00000280: 20b1 08be ca20 0e3e ebca cebc cb9c ecbd
00000290: efe8 e03d af34 89be bc45 2fbe 4c9a 96be
000002a0: 29fe 1dbe 837d 2e3e 0713 cf3d b264 8fbd
000002b0: 4ee0 4e3c 5288 4a3d bb02 1a3e cd69 983e
000002c0: 3e8f 7ebd 5a7e 5e3e 5968 c53d abfa 8c3e
000002d0: d5fa 623a 231d 023d 8098 1333 46d6 0db7
000002e0: 845e f1b6 566a 0f39 70b7 7fb4 4388 e83c
000002f0: 90e8 1f3b a5e7 1fbb 456f 7cbe 2f12 39be
00000300: 1e9c e43d 7b63 623e 9d81 fb3d f109 21be
00000310: f9c0 773d d01b c13d d38e 163e 1b6d 1f3e
00000320: 2173 a73d a01b 5b3e 8823 233e cbe7 5a3e
00000330: 7b53 94bd 9036 2f3d be72 0a3d 8214 87be
00000340: a645 17be f81c 85be 6d3f 52be b366 ee3d
00000350: 039a d5bd ffd6 32be 21e6 853e 6567 f1bc
00000360: 5690 82be 70a7 353b e6fa 6738 6cc4 a53d
00000370: 7763 753d 62ec a43b be7d 0fbe 15b3 703d
00000380: 3a1b 143e 41fa 7bbc 3086 133e dd05 073e
00000390: d73d a93d f528 9f3d b4ea 83be c4c9 6bbe
000003a0: 73d0 a73d 3c8a a5bd 719d 293e 8ddf ecbc
000003b0: 12bf 4c3d 08fd 78be 2d1d ea3d a95b 013e
000003c0: b84b f5bd 1125 713d df62 76bd 14c6 cc3d
000003d0: 207a 0b3d 8411 21bd 9c44 08be 40fc 3cbe
000003e0: 8863 58bc 0a55 17bb 582f 173d fbd1 85be
000003f0: 1a52 6abd a0be 233e c1a4 943e 9c0d 81bd
-0.2236057 -0.06187564 0.10887689 -0.07727065 -0.07088198 -0.08436531 0.024852837 -0.22221802
-0.072574176 0.23698086 0.21664765 -0.032924794 -0.11728682 -0.043519147 0.111073196 -0.112605944
-0.2050418 0.0013755491 0.07530553 -0.2685427 0.13844799 -0.14037809 -0.17323378 0.06519016
0.23986931 0.022455858 0.053563017 -0.2758591 0.003364574 -0.03852697 -0.0777567 -0.23973525
-0.03452126 -0.22346094 -0.23331031 0.067399144 -0.28915343 -0.072965614 -0.02247565 0.15671805
-0.19212563 0.17710215 0.05667874 -0.08486175 0.1945106 0.13643731 -0.28585985 -0.21234302
-0.005334901 0.18259169 -0.02295584 0.12448433 0.22143689 0.06238579 0.07232053 -0.2755271
-0.18048036 -0.19107498 -0.13977782 -0.13546978 -0.0045435806 0.021362783 -0.010504364 0.023803484
0.003553514 0.002731041 -0.0011359473 -0.00011042954 -0.0020686092 0.005601729 -0.13778864 -0.064351134
-0.12982139 -0.1457019 -0.23753092 -0.059149314 0.092145495 -0.10615167 0.022570362 -0.2197797
0.03570138 0.1178898 0.26733983 -0.22500466 0.24364635 -0.18848813 0.26997817 0.0084135
0.053103663 0.1606139 -0.0012013664 5.5484634e-05 -0.020320904 -6.298804e-11 -0.042296078 -0.025254317
0.019051472 -0.00014361023 -0.0048147324 0.038193494 0.020223474 -0.005610968 -0.012180861 -0.22004469
0.116480485 0.21053696 0.14881226 -0.12346608 -0.29159877 0.13342436 -0.28756785 0.15695353
0.2165811 0.2420374 0.19399375 0.16578417 -0.03958211 -0.035669837 -0.100458264 0.19878341
-0.11691416 0.003981422 0.28596327 0.27669585 0.005476533 -0.13079971 -0.01867064 -0.08692793
-0.24589115 0.006877729 0.123563185 -0.14389496 0.2801557 0.25946885 0.27892178 0.2879289
0.12685291 -0.21294205 -0.122813284 -0.017612644 -0.1974966 -0.12908648 0.19681963 -0.107264034
-0.08918417 0.044219606 0.06272635 0.0783966 -0.14984317 0.19483662 -0.2859829 -0.063930325
0.051551785 0.06538439 -0.0015605602 -0.12781739 0.19170205 0.24915813 -0.17437838 -0.046955347
-0.13348818 0.13879696 -0.025243243 -0.115533434 0.109819286 -0.26798007 -0.17116445 -0.29414594
-0.15428986 0.17040066 0.10111051 -0.07001628 0.012626721 0.04944641 0.15040104 0.2976822
-0.062148325 0.21727887 0.09639043 0.27534994 0.00086585927 0.03176607 3.4364803e-08 -8.454144e-06
-7.1933628e-06 0.00013677156 -2.381546e-07 0.028385287 0.0024400093 -0.0024399546 -0.24651821 -0.18073343
0.111625895 0.22108261 0.12280581 -0.15726449 0.060486767 0.09429133 0.1470292 0.15568964
0.08176256 0.21397257 0.15931523 0.21377485 -0.07242485 0.042776644 0.033800833 -0.26382834
-0.14772663 -0.25998664 -0.20532008 0.11640682 -0.10429766 -0.17464827 0.26152137 -0.029468248
-0.25500745 0.0027718209 5.530836e-05 0.08094105 0.05990931 0.005033062 -0.1401281 0.058764536
0.14463511 -0.015379489 0.14406657 0.1318583 0.08263748 0.07771484 -0.25765002 -0.23026186
0.081940554 -0.08083007 0.16563965 -0.028915191 0.049986906 -0.24315274 0.11431346 0.12632622
-0.11977333 0.05887324 -0.060152885 0.09998718 0.034052014 -0.039323345 -0.13307422 -0.184556
-0.013207324 -0.0023091459 0.036910385 -0.26136765 -0.057207204 0.15990686 0.29031947 -0.06301424

decoder.0.bias f4 [64]
00000000: 6efc 743e 7f38 0b3e f894 bbbd ae81 8cbd
00000010: 1ddd 843e c93a 0ebe 80d2 01ba 867a 813e
00000020: 629f 1f3e ada7 b6bc 60ce d7ba f252 b13b
00000030: 8549 42be 1aad 763e e941 c9bc b3f8 193e
00000040: ca40 273e eda1 58be 9c63 f533 b16e 5bbe
00000050: d6fc 27bd fa5d 9e3e 6d7e cc3d 3fbd 063e
00000060: 16f7 b2bd 3f0a 553d 638c a73d e8d3 193e
00000070: f065 b63d 79ce 143e 372a 563e 2b9e 41bd
00000080: 8f48 1b3e a302 553e 3216 b9bb 357a 123e
00000090: 679a cb3d fd9b 943e 41a6 033d 7055 a43e
000000a0: 525a dd3d b671 603e 3484 743e b86f a9bd
000000b0: 9802 37be c788 09bd b388 6bbe 9247 7a3d
000000c0: 3dcf e6bc 6e7a 1a3e e101 8e3e 91f1 5abe
000000d0: b7ca 903e a44a c93c a0b3 593d 4ebc 7c3e
000000e0: 2671 4635 e6cf 433e 1ff5 cc3d c625 203e
000000f0: 36da 063d 0ad7 45bd e35f cabc eaed e83d
0.2392442 0.1359577 -0.09159273 -0.06860672 0.25949946 -0.13889612 -0.00049523264 0.2528879
0.15588143 -0.02229675 -0.0016464703 0.005411499 -0.18973358 0.2408947 -0.024567561 0.15036277
0.16333309 -0.2115552 1.14268204e-07 -0.21428944 -0.041012608 0.30931073 0.09985051 0.13158129
-0.08738534 0.052011725 0.081810735 0.15022242 0.08906162 0.14531888 0.20914541 -0.04726998
0.15164398 0.20801787 -0.005648398 0.14304431 0.09941559 0.2902526 0.032140974 0.32096434
0.10808243 0.21918377 0.23878556 -0.08273262 -0.17872083 -0.033577707 -0.23001365 0.06110341
-0.02817499 0.15085766 0.27735808 -0.21381213 0.2827966 0.024571724 0.05314982 0.24681208
7.39254e-07 0.19122276 0.10007691 0.1563941 0.032922946 -0.04830078 -0.024703925 0.113735035

decoder.2.weight f4 [128, 64]
00000000: 4e7d a33d ba68 abbd f8e8 1832 b51c c73c
00000010: 7c19 ce3d 2b65 3dbc 6563 81ae 761a 90bd
00000020: de73 85bd d723 7535 2cf2 41af a802 ddbc
00000030: 9a4e 52b0 946e 03be 438b 91ae cd65 b33c
00000040: dba5 03be dc9d e52e 793f ffae 1290 10ac
00000050: 6848 7c3b ebc6 fe3c 1393 d8ba 3030 e5bd
00000060: 0e23 3530 f20a 83ad a5f9 933d 1fa2 853d
00000070: b8c6 373a cb5a 623c fb01 203d bf17 12b1
00000080: 9971 973d 3558 9bbd a5d2 5c2c 4638 073d
00000090: 1f19 a53d 9513 13bd 13ca 1abd 385a babd
000000a0: 7edd 46bc 5382 f23c c816 07be d472 9333
000000b0: 46e6 3632 121c 45ad 6809 65ad d49b 1231
000000c0: cda6 a72e f9f9 07bb 9dbe 0abe 3b99 0b2d
000000d0: 4fe7 36bd 56a2 94ba 537d 89bd 7d52 f5bb
000000e0: 773b 532f 8a1a 7f3b e853 c93d 5310 c13b
000000f0: 3a0c 86b6 8b9e 8c33 fc2d fcad b0d5 e5bc
00000100: 0b72 65bd f2b5 ef3c 51ff 0237 23f1 7fbb
00000110: 7ad0 d0bd 226a 2c3c fbe6 e0af 738d 0c3d
00000120: 9513 12bc 0349 b9ae 3edc a32d c6c6 c6bd
00000130: 32e5 50b5 0c41 8c3c ee51 3ab7 aa8d 77bd
00000140: cad1 a33d 088c 0132 29fd 9330 88f8 432e
00000150: 033a 8bbd 706f cb3d ba64 7239 ad74 cfbd
00000160: a863 4530 f856 772d 53cd 89bc 81ea 6ebd
00000170: 8b67 1d3c 31bb 9abd b606 bc3d 9973 50ad
00000180: 9f48 e93c 5127 a23d b3ae c432 1b98 973d
00000190: d417 c73b 8273 d8bd a138 083d b195 d8bb
000001a0: f9fd b2bb 3f1b 263d 4ea3 2abd bb8f b335
000001b0: dac0 9833 6ba6 892b bcbd eeb5 3e21 beae
000001c0: 6b71 a2b7 028a 4c3d 6f16 30bd 4636 de36
000001d0: 1273 07bd 4533 c9bc d331 bfbd e2e0 0abd
000001e0: 3d16 122f 985c 84bd 1cfb 0c3d 9c0d ad3c
000001f0: d68e c4b6 832f 01af 81ed 1d2d 73e9 13bd
00000200: 8773 b2bd 0a72 d83c baea 5037 f326 b1b7
00000210: 8bc8 a0bd 9116 99ba e819 4fb0 9dbe 9f3d
00000220: 3b1a 72bc d42e 03ae 6f2e 3532 8f34 0d3c
00000230: 4122 9a34 758d dbbc e283 24ad 07bc dbb9
00000240: ca15 cbbc 24ed 9a2c 0fda 05af 8965 ecac
00000250: f4dc 73bb ac05 4a3d f2c9 9738 5562 e2bc
00000260: 75ba 4aab fe73 a330 7c92 4bbd 048e 0cbd
00000270: 6cd6 1f39 640c 96bd 6ccc adbc b39a 412d
00000280: ec32 1bbc 5920 903c e641 a62e 62ed 8f3d
00000290: 206e a9bb 3eb3 d4bd 81f9 ef3b 53a2 d4bd
000002a0: ef0f b9ba a2da 9b3d 4606 b3bd 0259 dd2b
000002b0: 20c6 9ab3 bc7f 9ab1 ffb4 b22e a9a6 c02f
000002c0: 20f3 bfae fad0 4c3d 4671 9d3d 1837 0eb2
000002d0: 32eb f03b 52e6 093c ec87 09bd ede8 44bd
000002e0: b04d 49af 897a 233d eb8d 08bc fde1 603c
000002f0: be59 0bb1 a526 ad2e 96ad 2b2e f1c3 b33c
00000300: d2bc b2bd 81ed ab3b f40a 723c 0705 423d
00000310: 83c3 2b3d 6f52 31bc b62e d83a 93e0 6bac
00000320: bf14 fdbd e118 4e2e 1ca1 22bd d6cc b63c
00000330: a53f 113d 0016 193d 511f 96bd 0f5a 9a3c
00000340: 3f77 a2bd c854 213e 9f85 b636 8491 0dbd
00000350: f4ee 182f caf3 053d 077e cb3b 4c7b aabd
00000360: def4 333c 1755 6d3d 33b7 45bc f106 a936
00000370: b788 f53d d00f 0abd 7bf6 723d 9e9b 2a3d
00000380: 5a54 56bd e6d2 2bbd b98a b936 c69d c53b
00000390: 8868 f93d 5232 d3bd 86fd 623b 883b 6a3c
000003a0: cce7 ba3a 40ae a23c f5b3 a93d 6955 033d
000003b0: 9c54 083e 4659 25b5 85c1 e4bd ffaa c03d
000003c0: 892f cd3b f7c3 033d d2da ab3d 2c5b 4ebd
000003d0: fdfc 973d c363 033e 7db4 9abc 3a40 1cb8
000003e0: 4715 2ab5 7fb7 19bd 5389 243c a8df 85bd
000003f0: e6f2 cc3d 9a41 523d de85 86bb c567 bdbb
0.07982884 -0.083695844 8.900535e-09 0.02430568 0.100634545 -0.011559765 -5.883897e-11 -0.07036297
-0.065162405 9.1321766e-07 -1.7639284e-10 -0.026978806 -7.6509254e-10 -0.12835151 -6.6185744e-11 0.021899128
-0.12856238 1.0441756e-10 -1.16073325e-10 -2.0543606e-12 0.0038495306 0.03110071 -0.0016523324 -0.11190832
6.589723e-10 -1.4897836e-11 0.0722535 0.06525063 0.00070105074 0.013815592 0.03906439 -2.1259294e-09
0.07394714 -0.075851835 3.1380812e-12 0.03301265 0.08061432 -0.035907347 -0.03779037 -0.09099239
-0.012137769 0.029603159 -0.13192284 6.866108e-08 1.0646152e-08 -1.1204386e-11 -1.30192315e-11 2.1334374e-09
7.6239105e-11 -0.002074836 -0.13549276 7.935259e-12 -0.044654187 -0.0011339884 -0.06713357 -0.00748664
1.9211464e-10 0.003892573 0.09830457 0.0058918386 -3.9949346e-06 6.548097e-08 -2.8669504e-11 -0.028055996
-0.056016963 0.029261563 7.808049e-06 -0.003905364 -0.10196014 0.010523351 -4.0909484e-10 0.034314584
-0.0089158015 -8.4257955e-11 1.8628762e-11 -0.09705882 -7.781956e-07 0.01712086 -1.110554e-05 -0.060437836
0.079989985 7.540628e-09 1.076761e-09 4.4558607e-11 -0.06798174 0.099333644 0.00023116442 -0.10129676
7.18098e-10 1.4059635e-11 -0.016821539 -0.05832911 0.009607206 -0.07555235 0.091809675 -1.1849099e-11
0.028477011 0.07917655 2.2896847e-08 0.07402059 0.0060758386 -0.10568906 0.03325713 -0.0066096415
-0.005462405 0.040553328 -0.041659646 1.337837e-06 7.113131e-08 9.780626e-13 -1.7787602e-06 -8.646105e-11
-1.936472e-05 0.049936302 -0.042990144 6.622434e-06 -0.033068724 -0.02456058 -0.09335675 -0.03390587
1.3286523e-10 -0.06462973 0.034419164 0.021124654 -5.8578835e-06 -1.1749361e-10 8.977153e-12 -0.036111306
-0.08713441 0.026421566 1.2452418e-05 -2.1118181e-05 -0.078507505 -0.0011679699 -7.5342976e-10 0.078000285
-0.014776762 -2.9827543e-11 1.0546144e-08 0.008618488 2.8709658e-07 -0.02680085 -9.3516046e-12 -0.00041911026
-0.024790663 4.403271e-12 -1.217375e-10 -6.718796e-12 -0.0037210556 0.049321815 7.237856e-05 -0.027634779
-7.202358e-13 1.1892778e-09 -0.049700245 -0.034315124 0.000152433 -0.07326582 -0.02121564 1.100513e-11
-0.00947259 0.01759355 7.560512e-11 0.07027699 -0.0051705986 -0.1038575 0.0073234444 -0.103825234
-0.0014119128 0.0761006 -0.08741431 1.5727699e-12 -7.2072226e-08 -4.4965116e-09 8.126654e-11 3.5043016e-10
-8.728862e-11 0.050003983 0.07687621 -8.278015e-09 0.007352256 0.008416729 -0.03357689 -0.048073698
-1.8308444e-10 0.03991178 -0.008334617 0.013725755 -2.0278175e-09 7.873994e-11 3.9035074e-11 0.021944018
-0.08727421 0.0052468185 0.014773119 0.047368076 0.0419345 -0.010822876 0.0016493413 -3.3520172e-12
-0.12357473 4.6861074e-11 -0.039704427 0.02231447 0.035461087 0.037374496 -0.07330192 0.018841771
-0.07932901 0.15754998 5.439578e-06 -0.034562603 1.3909213e-10 0.0327032 0.006210092 -0.08324298
0.010983674 0.057942476 -0.012067604 5.0374006e-06 0.11988967 -0.033706486 0.059317093 0.041652314
-0.052326538 -0.041949175 5.529579e-06 0.006030771 0.12178141 -0.10312332 0.0034635975 0.01429642
0.0014259755 0.01985848 0.08286277 0.032063875 0.13313526 -6.15972e-07 -0.111697234 0.09407615
0.00626177 0.03216931 0.08391346 -0.050379917 0.074213006 0.12831025 -0.018884892 -3.7253114e-05
-6.33609e-07 -0.03752851 0.010042506 -0.065368 0.10007267 0.051332094 -0.0041053137 -0.0057801926

decoder.2.bias f4 [128]
00000000: 6ec5 d83d 6895 c53c 8ace 513d 1727 54bd
00000010: ced2 603d 23b2 003e e42f 683d 508a 5bbc
00000020: d2c5 18be 621a 133e 58c2 0c3d 0f00 b53d
00000030: 5eca f3bd 3c93 af3c caa4 98bd 6279 e23d
00000040: dd71 b6bc 5aa1 013d e01d 34bd 983b da33
00000050: 1c02 863d 43af e8bc a657 da2e c691 fcbd
00000060: 0589 2bb6 ed4b ba3c 2b74 6f3c 2b90 ab3d
00000070: 0e2b 85bd 8939 d0bd 3566 633d 7bbf 33bd
00000080: a778 9cbd bc8d c03d 2eff 66ae 9c06 d73c
00000090: ea3d 13bc faa1 833c f3b7 87bd 99cc 2b3e
000000a0: eeba 053e 4fda 542d cfae 783d 4837 91bc
000000b0: fa51 f33d 35ad d3bb 479e 17bc bc66 423c
000000c0: 3fa4 f73b 3705 adbd e360 7330 5afd de33
000000d0: 20a5 c1bc 221f 803d d654 a9bd 4283 93bd
000000e0: d3db 9a3d 54ca f3b5 cd75 04be a9e4 79bd
000000f0: a010 aabd 295a 263e 7b7c fdbc f62d 963d
00000100: ff47 09ad 6350 6ebc 7fe6 483d 9786 a43d
00000110: 79c4 523c c8af 9d3d 3229 823d 2c55 54b8
00000120: 7d51 bbbd e69c 5abd 316d 06be 68ee d739
00000130: 65f1 d13d 9d0d 80b7 5477 0d3c 80fa 3a3d
00000140: ee56 052f 94df 3e3e 4988 d83d 42c8 f73d
00000150: 204c 713c f5c6 b13d c08d a5bc 5e6b 9e3b
00000160: 2f23 0a3e 098c 383d a1c0 cf3d dd8f 80bd
00000170: 5d36 b83d 8026 933d 9004 133e 3891 5d3d
00000180: fea4 a6bd e749 023d 24d6 db3d 17e4 fd3d
00000190: eae6 5437 0f93 0cb6 df40 813d 2976 103e
000001a0: 30b1 843d 11dc a92e 709b bc3c 9341 c83d
000001b0: 2770 4d2d c7dd faaa b140 6c2c 6854 013c
000001c0: 0468 00b9 f343 013e d10f 18bd 7285 5b3d
000001d0: 602e edb0 7131 0b3d bb00 2eba 84aa 453c
000001e0: 4ba0 f9bd 4ee5 e83d 3a77 a33c 3969 003e
000001f0: e991 7fbd ec9d 0d3e b620 ca3d f812 f3bd
0.10584532 0.024119094 0.05122236 -0.05179509 0.05488854 0.12567954 0.056686297 -0.0133996755
-0.14919212 0.14365533 0.03436503 0.08837902 -0.11903833 0.021432512 -0.07453306 0.11058308
-0.022271091 0.031648017 -0.043973804 1.0162256e-07 0.06543371 -0.028403884 9.929062e-11 -0.123324916
-2.5560742e-06 0.022741282 0.014615099 0.08377107 -0.06502353 -0.10167224 0.055517394 -0.043883782
-0.076402 0.09402034 -5.252259e-11 0.026248269 -0.008986929 0.016068447 -0.066268824 0.16777267
0.1305959 1.2099279e-11 0.060713585 -0.017726555 0.1188087 -0.006459857 -0.009254045 0.011865314
0.0075574215 -0.0844826 8.854057e-10 1.0383765e-07 -0.023638308 0.06255938 -0.08268134 -0.0720277
0.075614594 -1.8163796e-06 -0.12935562 -0.061009083 -0.08303952 0.16245331 -0.030943146 0.07332985
-7.803535e-12 -0.014545533 0.049047943 0.080334835 0.012864226 0.07699543 0.06355514 -5.062406e-05
-0.09146402 -0.053372286 -0.1312759 0.00041185622 0.102511205 -1.5265128e-05 0.008634407 0.04564905
1.2127163e-10 0.18639976 0.10572869 0.12098743 0.014727622 0.08680526 -0.020209193 0.0048345765
0.13489984 0.045055423 0.10144163 -0.0627744 0.08994744 0.07185078 0.14357209 0.05409357
-0.081369385 0.03180876 0.107342035 0.1239702 1.2689949e-05 -2.0947225e-06 0.06311201 0.14107575
0.06479108 7.724322e-11 0.023023337 0.09778132 1.1677804e-11 -4.456281e-13 3.3573528e-12 0.007893659
-0.0001224578 0.12623577 -0.03712446 0.05359406 -1.72572e-09 0.033982698 -0.0006637682 0.01206458
-0.121887766 0.113718614 0.019954313 0.1254014 -0.06239501 0.13829774 0.0986952 -0.118688524

decoder.4.weight f4 [16, 128]
00000000: 4437 053d 67b2 653d 5d7e 573d 3f2c 95bd
00000010: 1e9d 193d 9961 e63d ec3b ab3d ced5 c0bc
00000020: 2912 06be 9b23 463d f66b 20bd 4854 843b
00000030: e1b9 37bd 09eb 59be de52 533d c54f 02bd
00000040: a953 85bd 9162 94bc 9874 aebc 4445 3034
00000050: 60e2 db3d e63d dd3d 5635 a22d e620 67bc
00000060: 7909 7433 7062 8b3b 8dfe 12bd a00f 2ebc
00000070: d0a0 d1bd 01ae 9c3d 2561 923c 6335 603d
00000080: f75f 01bd e807 923c b64c 19b0 0a78 58be
00000090: caa9 36bc 736e 70bd 562a b6bc 545e d13d
000000a0: 867d cc3c 6f58 f3aa 90c1 0ebc 2110 d339
000000b0: f468 423d e6e5 1abe eab2 613d 0bc1 1dbc
000000c0: 4b30 103d b83b 68bd 6de1 5930 ee07 d3af
000000d0: 22cd 31bd 5324 913d e777 833d 1086 62bd
000000e0: 087b 3b3e 5128 c734 c65f 8bbd 30e3 edb0
000000f0: ba85 453d 75af 5d3d 1e21 2dbd 27e2 583d
00000100: 331a 3aaf 96a9 143d 0e53 a5bc f990 9fbc
00000110: d140 093d 35b1 053d 6f1a 843c 2aee 7234
00000120: 7e2b 8db3 44f5 e2bc 074c 263d 24b0 4638
00000130: 69e3 71bd b56b b6ac 4411 cebc 0b5e 72bd
00000140: eb9f be2c 2f33 0b3e 5d42 8b3d 394d 993d
00000150: d7f7 883d a66a 18bd be7e 5abd ef50 ea3c
00000160: c383 aa3c 1f60 023d a8c9 753d 9314 88bd
00000170: e025 47bd 22a0 023d 0791 8f3d fa69 cb3d
00000180: e059 843b 0d10 8abd fa72 b73d 0044 993d
00000190: 37e3 c2b6 d8f1 9ab0 c2c2 5e3d 7702 9a3c
000001a0: cf60 b93d 3b74 112c 02d8 a03b 913d 7e3e
000001b0: 305b 852d 5181 bb2d 39f4 3f30 5981 753d
000001c0: 2c94 05ba 9b70 a23d b1dd 723c d574 de3a
000001d0: 4bec 75ae 1303 6bbe f215 b039 6d48 a33d
000001e0: ff0c be3c f855 003e 90a5 34bd 2f07 c93d
000001f0: 6841 eabd d488 e13d a182 b03d 69cd 8a3c
00000200: 49a7 fcbb 4f2a 58bd 1fc8 e43c 97c8 e0bc
00000210: 2764 f73c e95c ec3c 3268 713d ea14 cdbd
00000220: 37ba 18be fb68 c3bc 30b8 d73d f246 623d
00000230: 5695 7f3c 6615 03bc 250d 9b3d 4cf2 693d
00000240: 1d5a 26bc ebd4 933d cc42 80bd 8f49 4cb4
00000250: 3e97 203d d6c3 88bd 0d3d 77ad c58e f73b
00000260: f0dc c1b4 2519 ec3d 0327 7b3d 0d8f 963d
00000270: 3455 b23c fc66 5c3d 8adf fcbc 3440 953d
00000280: 1e72 01bd ecc3 0b3d ecd1 c6ae 7b2b fbbb
00000290: 8cd2 8e3d 0c75 34bd 4757 9fbc 51dd 403d
000002a0: c5f2 c83d 1075 2cad 28e1 473d 2fd7 eabc
000002b0: 78ff 523c c1c0 b4bd 852e a6bb 3028 d83c
000002c0: 41ea 49bd 72e6 54bd f995 0031 8027 c0ac
000002d0: 0f10 ab3d e410 c73d ae03 973c 34bd 83bc
000002e0: e035 0fbe 430c e4b5 ed4d 8ebc 89eb aa2d
000002f0: 598a 813c da60 1c3d d074 e93c fa13 4dbc
00000300: 6336 372d c6a9 7e3d 45bc 953d f758 a33d
00000310: cc8b af3d 9955 1bbd aca5 8dbd 28fc 0836
00000320: 3f6d dab7 a084 01be cd96 89bd ef4c d238
00000330: 8599 873b b6f0 c02e 3b76 673d eb05 4dbd
00000340: 12e3 42af 4ae0 433e 47a7 b33d b36f c03c
00000350: 31a2 d83c 3482 70bc 761c 943d 380b e6bc
00000360: bc38 12bd 8e69 c83c 2c8e a13d c234 5a3d
00000370: 53ee c1bd 1170 b23d fa7e bd3d 03a8 703d
00000380: 6883 41bd 5b08 61bd d26e 0dbc a8be 32bb
00000390: 91b1 3eb8 2165 b22e f68e 2bbd a44f 853d
000003a0: 71cd a03d c5f8 15b0 1a85 61bd 5a77 253e
000003b0: eac9 12b1 4595 97ad 31f0 2630 08e9 eb3c
000003c0: 4117 8239 96e1 7a3c 5de2 b43d 97f2 b73d
000003d0: 6114 08ac 06e5 4dbc 9183 2439 88bd 2cbc
000003e0: 27d0 11bd 8498 153e 2846 36bd 3eaa c03d
000003f0: 31fa 9cbd d2c6 893d 6815 89bc 5e78 ec3c
0.03252341 0.05607834 0.052610744 -0.0728383 0.037503354 0.11249084 0.083610386 -0.02353945
-0.13092865 0.0483738 -0.03916546 0.0040383674 -0.044855002 -0.21281065 0.0515927 -0.031814355
-0.065100975 -0.018113406 -0.02129583 1.6416476e-07 0.10736537 0.10802822 1.8440954e-11 -0.014106965
5.6819292e-08 0.004253678 -0.03588729 -0.0106238425 -0.10235751 0.07650376 0.017868588 0.054738414
-0.03158566 0.017826036 -5.577009e-10 -0.21139541 -0.011148879 -0.058699083 -0.022236984 0.1022307
0.024962198 -4.3226834e-13 -0.008713141 0.00040257073 0.047463372 -0.15126762 0.055102266 -0.009628545
0.035202306 -0.056697577 7.926449e-10 -3.838631e-10 -0.04340852 0.070870064 0.06419354 -0.055303633
0.18308651 3.7095973e-07 -0.06805377 -1.730859e-09 0.048223235 0.054122407 -0.04226791 0.05295005
-1.6925909e-10 0.036294542 -0.020181205 -0.019478308 0.03350908 0.0326397 0.016125886 2.262465e-07
-6.573735e-08 -0.027704842 0.04059985 4.7370922e-05 -0.059054766 -5.184709e-12 -0.025154717 -0.059171718
5.4178793e-12 0.13593744 0.06799767 0.07485432 0.06687897 -0.037211083 -0.053343527 0.028603045
0.020814782 0.03182995 0.060006768 -0.06644549 -0.048620105 0.031890996 0.07010084 0.09932323
0.0040390342 -0.06741343 0.08957477 0.07483673 -5.808102e-06 -1.1273711e-09 0.054384954 0.018800003
0.09051668 2.067026e-12 0.0049085626 0.24828173 1.5160845e-11 2.1316867e-11 6.9832456e-10 0.05993781
-0.00050956267 0.07931634 0.014823363 0.0016972075 -5.591642e-11 -0.22950391 0.00033585686 0.079727985
0.023199556 0.12532794 -0.044103205 0.09815823 -0.114382565 0.11012426 0.086186655 0.01694365
-0.0077103716 -0.052774724 0.027927456 -0.027439399 0.030199124 0.028852897 0.05893726 -0.10013755
-0.14914785 -0.02385377 0.10533178 0.05524344 0.015599569 -0.008000707 0.075708665 0.057115838
-0.010153321 0.07218345 -0.062627405 -1.9025741e-07 0.039206736 -0.06677978 -1.40538805e-11 0.0075548613
-3.6109805e-07 0.115282334 0.0613165 0.073515035 0.021769144 0.05380915 -0.03086831 0.072876364
-0.03160297 0.034122393 -9.041287e-11 -0.0076650954 0.069737524 -0.044056937 -0.019450797 0.047086064
0.098119296 -9.803061e-12 0.04879871 -0.02866706 0.012878291 -0.088258274 -0.0050714635 0.02638635
-0.049295668 -0.051977582 1.87117e-09 -5.4613536e-12 0.08352672 0.097200185 0.018434372 -0.01608143
-0.13985395 -1.6990892e-06 -0.017371142 1.9431361e-11 0.01581304 0.038178302 0.028498083 -0.01251697
1.0414422e-11 0.062173627 0.073113 0.07975953 0.08571586 -0.03792343 -0.06916365 2.0412353e-06
-2.6038497e-05 -0.12648249 -0.06718216 0.0001002791 0.004138174 8.773908e-11 0.056509238 -0.050054472
-1.7724869e-10 0.19128528 0.0877214 0.023490762 0.026444526 -0.01467948 0.07231991 -0.028081521
-0.035698637 0.024464395 0.07888445 0.05327297 -0.09469285 0.08712781 0.092527345 0.05875398
-0.04724446 -0.05493961 -0.008632379 -0.0027274285 -4.54649e-05 8.112467e-11 -0.041884385 0.06509331
0.07851685 -5.4559407e-10 -0.055058576 0.1615881 -2.136057e-09 -1.7233001e-11 6.073178e-10 0.028797641
0.00024812858 0.015312573 0.08832238 0.08981817 -1.9338075e-12 -0.0125668105 0.00015689271 -0.010543235
-0.0355989 0.14608961 -0.0445005 0.09407471 -0.07664908 0.06727375 -0.01673384 0.02886599

decoder.4.bias f4 [16]
00000000: 986d 773d 0e0e d33c d238 52bd cf49 993c
00000010: b1ce 83bc 1137 94bd c7f4 88bd 7baa 61bd
00000020: a3ad 343d d0d3 893b 2b62 88bd f7ac da3d
00000030: 8d9d 803c 3840 28bd a17c d23c 5a8e 81bd
0.06040725 0.025763538 -0.05132372 0.018711952 -0.01608977 -0.072370656 -0.066873126 -0.055094223
0.044110905 0.004206158 -0.06659349 0.10677522 0.015700126 -0.04107687 0.025694193 -0.063259795
