Pipeline/task3_C_EDA/dnn_ae_v2.pth (torch, 88669 bytes, 12 tensors)

encoder.0.weight f4 [128, 16]
0	0xbe20bb86	-0.15696535
1	0x3e1de8fc	0.15420908
2	0xbddf2dc7	-0.10897403
3	0x3cbb0d1c	0.0228334
4	0x3e09995a	0.13437405
5	0x3e0cf62b	0.1376578
6	0x3e4707c6	0.19436559
7	0x3e3597c8	0.17733681
8	0x3b5e6995	0.0033937444
9	0xbdb5b0cd	-0.08871613
10	0xbe2a562d	-0.16634436
11	0x3dbc2645	0.09186987
12	0x3e8479cf	0.25874183
13	0xbdfd2a5a	-0.123615935
14	0x3d5b6031	0.053558532
15	0xbc6e60b8	-0.014549427
16	0x3db87b74	0.09007922
17	0xbd399420	-0.04530728
18	0xbdb23778	-0.08701986
19	0x3cb6a37a	0.022294749
20	0x3e315fe8	0.17321742
21	0x3d82bea1	0.06384016
22	0xbe3d0e0d	-0.18462391
23	0x3e80c5a8	0.251508
24	0x3e295245	0.1653529
25	0xbe05e915	-0.13077195
26	0xbc9ab5f0	-0.018885583
27	0x3e30d9e4	0.17270619
28	0xbe53141e	-0.20613143
29	0x3e7be9e5	0.24600942
30	0xbe4246e0	-0.18972349
31	0xbe6c5b34	-0.23081666
32	0xbe4014be	-0.18757913
33	0x3e2bc5eb	0.16774718
34	0xbdbf4b8d	-0.09340582
35	0xbe1e8b1b	-0.15482752
36	0xbe2ac9d0	-0.16678548
37	0xbde834fd	-0.11338232
38	0xbddeb0d6	-0.108735725
39	0xbd0bcb68	-0.03412953
40	0x3e346793	0.17617635
41	0x3d3bc4af	0.04584187
42	0x3d8b06e8	0.06788427
43	0x3e657402	0.22407535
44	0x3d7e4c17	0.062084284
45	0x3dbd906b	0.09256061
46	0xbe2530f2	-0.16131952
47	0x3d85a228	0.065250695
48	0xbdae152e	-0.085001335
49	0x3b3e5f22	0.0029048403
50	0xbdfb19e4	-0.122607976
51	0x3de3b99b	0.11119386
52	0xbc84e4aa	-0.016222317
53	0xbe16d8d2	-0.14731148
54	0xbdb25737	-0.08708041
55	0x3e4d2255	0.20032628
56	0x3e36d3ce	0.17854235
57	0x3e013d4f	0.12621044
58	0xb9f09150	-0.00045884633
59	0xbd88ba6a	-0.06676181
60	0x3da4d18b	0.0804778
61	0xbe451c77	-0.1924914
62	0x3e0043e9	0.12525906
63	0xbd8910cb	-0.06692656
64	0xbe1abfb7	-0.15112196
65	0x3cb03e4e	0.021514084
66	0x3ca83b95	0.020536223
67	0x3a1346fe	0.00056181836
68	0xbe0d9a2d	-0.13828345
69	0x3dd5dd6f	0.10442626
70	0x3d63b0be	0.055588476
71	0x3c6c63f4	0.014428128
72	0x3b42bde2	0.002971523
73	0xbd9201ee	-0.07129274
74	0xbdd38aeb	-0.10329231
75	0xbcdba5ab	-0.026812395
76	0x3b85c602	0.0040824423
77	0x3b8d1a19	0.0043060896
78	0x3bc64476	0.0060506416
79	0x3bb71ab3	0.0055878996
80	0xbdba2614	-0.09089294
81	0x3dbb0d14	0.09133354
82	0x3d40082b	0.04688279
83	0x3c544dda	0.012958014
84	0x3e1b267e	0.15151402
85	0x3e8c37ea	0.2738641
86	0x3e11e69f	0.14248131
87	0x3e49a9b8	0.19693649
88	0x3d9cc515	0.07654778
89	0x3dc86ed0	0.09786761
90	0x3cece328	0.02891691
91	0x39df8175	0.00042630328
92	0x3e15661c	0.14589733
93	0xbd56a056	-0.052399002
94	0x3e0a43dd	0.1350245
95	0xbe55bd06	-0.20872888
96	0xb9d5f330	-0.00040807715
97	0xbe1dad04	-0.15398031
98	0x3d9588fa	0.07301517
99	0xbac5eb42	-0.001510002
100	0x38928b2d	6.987746e-05
101	0xb8b29528	-8.515484e-05
102	0xbd11d2de	-0.03560149
103	0x3cfd13ec	0.030893289
104	0xbb417286	-0.0029517724
105	0xb91ca1dd	-0.00014937618
106	0x3df885ab	0.1213487
107	0x3e0c4fdc	0.13702339
108	0xbd4b0fc7	-0.049575593
109	0xbb7813dc	-0.0037853634
110	0xbe16955b	-0.14705412
111	0xbe1d5a8e	-0.15366575
112	0x3e6385c9	0.22219004
113	0x3e08d549	0.13362612
114	0x3de9c614	0.114147335
115	0x3cd0d9f1	0.025494548
116	0xbd571808	-0.052513152
117	0x3db97f20	0.0905745
118	0xbe392d7d	-0.18083759
119	0x3cbd0475	0.023073414
120	0x3e2e4e3a	0.17022029
121	0x3daf267c	0.08552262
122	0x3d46edd6	0.04856666
123	0xbe634d3e	-0.22197434
124	0xbde031ea	-0.1094702
125	0x3c5846cf	0.013200476
126	0xbdb47502	-0.0881138
127	0x3dc51c58	0.09624547
128	0xbd2fe59d	-0.042943586
129	0x3db133bf	0.08652448
130	0x3d95aa2b	0.073078476
131	0xbdf80198	-0.12109679
132	0xbd11c6dc	-0.035590038
133	0x3e5ec0b6	0.21753201
134	0x3e2ae208	0.16687787
135	0xbd0c7498	-0.03429088
136	0xbe3431ef	-0.17597173
137	0x3dacb6c1	0.08433295
138	0x3d4902d4	0.049074963
139	0xbe0e3a80	-0.13889503
140	0x3d609a80	0.054834843
141	0xbe0e7065	-0.13910063
142	0x3e3698eb	0.17831771
143	0xbd9da4de	-0.076974615
144	0xbe55a236	-0.2086266
145	0x3d562a33	0.052286338
146	0xbdbd66d8	-0.092481315
147	0x3c85f476	0.01635192
148	0xbdc8104b	-0.09768733
149	0x3e547106	0.2074624
150	0x3e82a034	0.2551285
151	0x3dcb6f7d	0.09933374
152	0x3e13967b	0.14412872
153	0x3dc755f0	0.09733188
154	0xbe5b92ef	-0.2144277
155	0xbb942e6a	-0.0045221345
156	0xbe23db94	-0.16001731
157	0x3cc0cdcc	0.023535632
158	0x3e414db0	0.18877292
159	0x3e43c2ef	0.1911733
160	0xbe1d6dd8	-0.15373933
161	0x3ddb6cd8	0.1071412
162	0xbbef58b2	-0.0073042745
163	0x3e0c50a7	0.13702641
164	0xbe09424e	-0.134042
165	0x3e88ad03	0.26694497
166	0x3dcbe705	0.09956173
167	0x3e4d71bf	0.20062922
168	0x3d24741f	0.040149804
169	0xbe46e298	-0.19422376
170	0x3e0031e4	0.12519032
171	0x3e3c6777	0.18398844
172	0x3e6d3106	0.23163232
173	0xbe374895	-0.17898782
174	0x3e0b0e71	0.13579728
175	0x3e25c585	0.16188629
176	0x3c4e6635	0.01259761
177	0x3bb184a0	0.0054174215
178	0xbe72f412	-0.23725918
179	0xbe0c32fb	-0.13691323
180	0xbe03b6b3	-0.12862663
181	0xbe71ce4a	-0.2361385
182	0x3e581a95	0.2110389
183	0x3e47e08f	0.19519256
184	0x3e2c48d4	0.16824657
185	0xbe64ef20	-0.22356844
186	0xbdaa9b9f	-0.083304636
187	0x3e0d61b1	0.13806798
188	0x3deb2291	0.114812024
189	0x3df085ce	0.11744271
190	0xbe3e144b	-0.18562429
191	0xbca0aecc	-0.0196146
192	0xbd490641	-0.04907823
193	0xbe29601b	-0.16540568
194	0xb967bc90	-0.00022100122
195	0x3d13d9a2	0.036096223
196	0xbb0f50e4	-0.0021868283
197	0x3e28fa25	0.16501673
198	0x3cdbf642	0.026850823
199	0xbe07f2c6	-0.13276204
200	0x3e20c550	0.15700269
201	0x3dc6c3d7	0.09705322
202	0xbe1c8dbf	-0.15288447
203	0xbd01b4ee	-0.03166669
204	0xbd7cb1df	-0.06169307
205	0x3e0afd79	0.13573255
206	0xbdf06732	-0.11738433
207	0xbc8a8951	-0.01691118
208	0xbcd79713	-0.026317155
209	0x3e384404	0.17994696
210	0xbc8531c7	-0.016259087
211	0xbd555a8d	-0.05208831
212	0x3d1497b4	0.036277488
213	0x3e6689cc	0.22513503
214	0x3e32c443	0.1745768
215	0x3e261f8d	0.16222973
216	0xbe2ace13	-0.16680174
217	0x3b9ae41c	0.0047269
218	0x3d78c83a	0.060737826
219	0x38e58dda	0.00010945993
220	0x3e7c3424	0.24629265
221	0xbe541d1a	-0.20714226
222	0x3db63278	0.08896345
223	0x3e022da9	0.1271273
224	0xbe2d6e45	-0.16936596
225	0x3d1b71a7	0.037950184
226	0x3e445204	0.19171911
227	0xbe064648	-0.13112748
228	0x3def35f9	0.11680216
229	0x3da29fe8	0.07940656
230	0xbe01930a	-0.12653747
231	0x3e35520c	0.1770708
232	0x3dc595b2	0.09647693
233	0xbd234346	-0.03985908
234	0xbe3f249c	-0.18666309
235	0x3d890c29	0.066917725
236	0x3df69555	0.120402016
237	0xbd89e65c	-0.06733391
238	0xbd48b56b	-0.04900114
239	0x3e5d37a2	0.21603253
240	0x3d7bae13	0.061445307
241	0xbdb3c61d	-0.087780215
242	0x3dffe4ae	0.12494789
243	0xbd9f7875	-0.07786647
244	0xbd987bea	-0.0744551
245	0xbdd67987	-0.10472398
246	0xbd580fc4	-0.05274941
247	0xbd2b5d7a	-0.041837193
248	0x3e458bb7	0.19291578
249	0xbc4291f9	-0.011875623
250	0xbe19b3ab	-0.15009944
251	0x3dd0c27f	0.10193347
252	0x3e0d8cb9	0.13823213
253	0xbd5af1ff	-0.05345344
254	0xbde38061	-0.11108471
255	0x3c4a7c91	0.0123588005

encoder.0.bias f4 [128]
0	0xbdc8419a	-0.097781375
1	0x3dca7ea8	0.09887439
2	0xbdb5d4a4	-0.088784486
3	0xbda1d8e4	-0.07902697
4	0x3c9711c4	0.018441088
5	0x3da4c95a	0.08046217
6	0xbdf7d616	-0.121013805
7	0x3e62e1d2	0.22156456
8	0x3e4758ad	0.19467421
9	0x3e2b0280	0.16700172
10	0xbca41918	-0.020031497
11	0xbc843691	-0.0161393
12	0x3c419c82	0.0118170995
13	0x3c37dafb	0.011221643
14	0xbd36f495	-0.044666845
15	0x3d915c86	0.070977256
16	0x3afdc75d	0.0019361783
17	0x3d09db1c	0.033656225
18	0x3e0c3e7b	0.1369571
19	0x3dcf7bda	0.10131045
20	0x3d1cd6fb	0.03829096
21	0xbd7f3e50	-0.062315285
22	0xbe0a4c88	-0.13505757
23	0x3dc2bbfb	0.09508511
24	0xb7b6ef18	-2.1807427e-05
25	0x3deccf06	0.11562924
26	0x3db517f6	0.08842461
27	0x3dfe8749	0.12428147
28	0xbdcf928b	-0.10135373
29	0xbdf403e4	-0.119148046
30	0xbdcaa273	-0.09894266
31	0xbd3a33b5	-0.045459468
32	0xbd923a5b	-0.07140037
33	0xb8a52651	-7.87495e-05
34	0xbe6f7e93	-0.23388128
35	0x3cb364e9	0.021898704
36	0xbd1f95e9	-0.038961325
37	0xbcabea9b	-0.020985892
38	0x3e3130b1	0.1730373
39	0xbcb58bdf	-0.022161422
40	0xbe22e6c2	-0.1590834
41	0xbd424cc4	-0.04743649
42	0xbdcd36fb	-0.10020252
43	0x3d59b61a	0.05315218
44	0x3b1590d9	0.0022821932
45	0xbd778404	-0.060428634
46	0xbe17d42a	-0.14827028
47	0x3e12183e	0.1426706
48	0xbe266845	-0.16250713
49	0x3da7761b	0.08176824
50	0xbe17e915	-0.14835007
51	0xbdd97222	-0.10617472
52	0x3dc0a924	0.09407261
53	0xbe175cc4	-0.14781481
54	0x3e4719dc	0.19443458
55	0x3ce30c01	0.027715685
56	0x39d91a94	0.00041409268
57	0xbdf0c879	-0.11756987
58	0x3c86d01e	0.01645666
59	0xbe0e2681	-0.13881876
60	0x3e5761f7	0.21033464
61	0x3db8ad57	0.09017437
62	0xbe09c750	-0.13454938
63	0x3be2e7b5	0.0069245943
64	0xbd06f9b8	-0.032952994
65	0x3db5c7bd	0.08875988
66	0xbdb31439	-0.087440915
67	0x3c64dc0d	0.01396848
68	0xbd19e6a3	-0.037573468
69	0x3d50da8e	0.05098968
70	0xbd812884	-0.06306556
71	0xbc9106c3	-0.01770342
72	0xbdca2ef5	-0.098722376
73	0xbe7b40fa	-0.24536505
74	0x3e684a03	0.22684483
75	0xbd03210f	-0.03201395
76	0xbdfbac59	-0.12288732
77	0x3e56768e	0.20943663
78	0xbdb470d4	-0.08810583
79	0x3e69d6c6	0.22835836
80	0x3e586226	0.2113119
81	0x3da10f1c	0.0786421
82	0x3e80ec8a	0.25180465
83	0xbe19a836	-0.15005574
84	0x3e481333	0.19538574
85	0xbe2ec1d5	-0.17066129
86	0x3e6f48b0	0.23367572
87	0xbc410e65	-0.011783217
88	0xbe19af75	-0.15008338
89	0xbe2f78a0	-0.17135859
90	0xbdbe28ed	-0.0928515
91	0x3e09b63b	0.13448422
92	0xbe31283b	-0.17300503
93	0xba0c0195	-0.0005340812
94	0xbd53a84f	-0.051674183
95	0x3e6f7954	0.23386127
96	0x3de0a383	0.109686874
97	0xbe4f0597	-0.20216976
98	0xbe010e88	-0.126032
99	0x3c3bc698	0.011460923
100	0x3e08f4f8	0.13374698
101	0x3e331a77	0.17490564
102	0x3e1c0b88	0.15238774
103	0xbbb70e95	-0.005586455
104	0xbe581445	-0.21101482
105	0x3d603669	0.05473939
106	0xbd0b3886	-0.03398945
107	0xbdb03e40	-0.08605623
108	0x3e1518e3	0.14560275
109	0x3e27ef25	0.1639982
110	0xbc20accb	-0.009806822
111	0x3e5d066d	0.21584482
112	0xbe521254	-0.20514804
113	0x3e1b93be	0.15193078
114	0x3e05f238	0.1308068
115	0xbe084d6d	-0.13310786
116	0x3e1baca6	0.15202579
117	0xbb86d999	-0.004115295
118	0xbdf41f03	-0.119199775
119	0x3d0fccf1	0.035107557
120	0xbd51d22b	-0.051225822
121	0x3c9dfaaf	0.019284574
122	0x3e7f8515	0.2495311
123	0xbcd9d2a1	-0.026589694
124	0x3e26f764	0.1630531
125	0x3ae56caa	0.0017503698
126	0x3dc342a7	0.09534197
127	0x3daa2568	0.08307916

encoder.2.weight f4 [64, 128]
0	0x3d6343a7	0.05548444
1	0xbc8f21c1	-0.01747215
2	0xbd417201	-0.047227863
3	0xbdaad824	-0.08342007
4	0xba191a92	-0.0005840446
5	0x3d528025	0.05139174
6	0xb99c3a64	-0.00029798143
7	0x3bd74260	0.006569192
8	0x3c92d2aa	0.017922718
9	0x3d252985	0.0403228
10	0x3d9d1223	0.07669475
11	0xbba35868	-0.004984904
12	0x3b687c03	0.0035474307
13	0x3c1f9918	0.00974109
14	0xbd8fff6e	-0.07031141
15	0xbd1de74c	-0.03855066
16	0x3c402e20	0.011729747
17	0x3d924789	0.071425505
18	0x39061cbf	0.00012789945
19	0x3c073677	0.0082527315
20	0xbd322552	-0.043492623
21	0xbc8d2e76	-0.017234068
22	0xbbfaa633	-0.007649207
23	0x3d914793	0.0709373
24	0x3b5b9790	0.0033507086
25	0xbd040855	-0.03223451
26	0x3dae7d61	0.08520008
27	0xbd70e325	-0.058810372
28	0x3a08a457	0.0005212477
29	0x39ce1de4	0.00039313652
30	0x3cfa5150	0.030556351
31	0x3d6c877b	0.05774639
32	0xbcfe64aa	-0.03105386
33	0xbb0def2c	-0.002165745
34	0x3c1cf708	0.009580381
35	0xbae64180	-0.0017567128
36	0xbc5e39d2	-0.01356359
37	0xbd181584	-0.037129894
38	0x3d47f855	0.048820812
39	0x3d44630e	0.04794603
40	0x3cb21b7e	0.021741625
41	0xbd761532	-0.060078807
42	0x3cf69ef5	0.030105093
43	0x3d399ccf	0.04531556
44	0xbca0c4ea	-0.019625146
45	0xbd2a0ea1	-0.041517857
46	0x3bfca22d	0.0077097625
47	0xbd6cf413	-0.057849955
48	0x3d8a9114	0.06765953
49	0xbd7638f7	-0.06011292
50	0xbd648b85	-0.05579712
51	0xbc0c158e	-0.008550061
52	0x3830a6a2	4.211686e-05
53	0xbbfecbfa	-0.0077757807
54	0xbc6055b3	-0.013692307
55	0x3d21ec55	0.039532024
56	0x38c599af	9.422318e-05
57	0x39ccd42b	0.0003906799
58	0xbd35773a	-0.044303156
59	0x3d010fd5	0.03150924
60	0xbd3a8e39	-0.04554579
61	0xbd2eebe8	-0.042705446
62	0x3cc9b027	0.024620129
63	0x3d04efd0	0.032455266
64	0x3ccb3551	0.024805697
65	0x3d2b3a01	0.041803364
66	0xba5f3b42	-0.0008515605
67	0xbae39626	-0.0017363473
68	0x38c8df0f	9.578291e-05
69	0xbc771c13	-0.015082377
70	0x3d5d7aa8	0.054072052
71	0xbc571e0e	-0.013129724
72	0x39ae52a6	0.00033249444
73	0x3d1a231a	0.03763113
74	0xbd2dbf53	-0.04241879
75	0xbcbc81f6	-0.023011189
76	0xbcd45ff6	-0.025924664
77	0xbcba1016	-0.022712748
78	0xbc57b617	-0.013165972
79	0x3c757923	0.0149824945
80	0xbcbec9f4	-0.023289658
81	0x3cca3247	0.024682177
82	0x3c029462	0.0079699475
83	0x3b92f873	0.004485184
84	0x3d041c8b	0.032253783
85	0xbb92c8ad	-0.004479489
86	0xbd61e54e	-0.055150323
87	0x3bf110d6	0.0073567433
88	0x3bb3acf6	0.005483265
89	0x3dd6647e	0.10468386
90	0xbb184f5f	-0.0023240668
91	0x3c96c6e2	0.018405382
92	0x3b099742	0.0020994698
93	0x3bd68154	0.006546179
94	0xbb90fc42	-0.0044246027
95	0xbcb4c474	-0.022066332
96	0x3c2b8ee6	0.010471081
97	0x3d1b582c	0.037925884
98	0xbce88df0	-0.028387994
99	0x3cebb9fd	0.02877521
100	0x3c07fa38	0.008299403
101	0xbd2decd1	-0.042462174
102	0x3c45ddd2	0.012076812
103	0x398a2dcc	0.00026355532
104	0x3da3c617	0.07996767
105	0x3d3ef27c	0.04661797
106	0x3cef952b	0.029245934
107	0xbc3f7b63	-0.0116871325
108	0xbd8029bf	-0.062579624
109	0x3d91197a	0.070849374
110	0x3d84d1ec	0.06485352
111	0xbcb30dbd	-0.021857137
112	0xbd70c4f2	-0.05878157
113	0xbd4a6a2a	-0.049417652
114	0xbc1d7463	-0.009610268
115	0x3ac811ae	0.0015264058
116	0x3cf1890c	0.029484294
117	0x3d8d524e	0.06900464
118	0x3da1f116	0.079073116
119	0xbd47b0f0	-0.048752725
120	0xbb493b54	-0.0030705528
121	0x3dac0b58	0.08400601
122	0xbcb931c9	-0.022606747
123	0x394121fb	0.00018418573
124	0x3d88bea0	0.06676984
125	0xbd8564e3	-0.06513383
126	0xbd0a5379	-0.033771012
127	0xbd0187ad	-0.03162353
128	0x3d4f7125	0.050645012
129	0xbc479e63	-0.012183758
130	0xbc343da5	-0.011001025
131	0xbcec6251	-0.028855475
132	0xbc11f9b8	-0.008909635
133	0xbd247bb7	-0.040157046
134	0xba00fdfd	-0.00049206597
135	0xbd4757e4	-0.048667803
136	0xbcc3db31	-0.02390823
137	0x3dc585d0	0.09644663
138	0x3ccf4fb8	0.025306568
139	0xbd0a7975	-0.033807237
140	0xbc0d4440	-0.008622229
141	0x3d52e2bd	0.051485766
142	0x3a790b1c	0.00095002516
143	0xbd97b9ab	-0.0740846
144	0xbafc469f	-0.0019247121
145	0x3cff71ba	0.031182159
146	0xbb616e43	-0.0034397996
147	0x3d9a562a	0.07535966
148	0x3dab66ed	0.08369241
149	0x3c1492da	0.009068215
150	0x3814913d	3.5421213e-05
151	0x3d239a79	0.03994224
152	0x3c5b1f03	0.013374093
153	0x3d935a09	0.07194907
154	0x3cd3ee5a	0.02587049
155	0x3c597a16	0.013273736
156	0xbae811eb	-0.0017705535
157	0xbb6a81c8	-0.0035782922
158	0x3d0d082a	0.034431614
159	0x38c020c3	9.161376e-05
160	0xbd04e08d	-0.03244071
161	0x3b68dae0	0.003553085
162	0xbd27a36f	-0.040927347
163	0x37e9099f	2.7780245e-05
164	0xbc0ae0ff	-0.008476495
165	0x3d9caa60	0.07649684
166	0x3dc940fe	0.098268494
167	0xbd88053a	-0.06641622
168	0x3caa8081	0.020813229
169	0x3d81351f	0.0630896
170	0x3dd3dab9	0.103444524
171	0x3d0acdfa	0.03388784
172	0x3dcd1f86	0.10015778
173	0x3c8a569b	0.016887
174	0xb74b0509	-1.2100915e-05
175	0xbd656346	-0.056002878
176	0x3db823ad	0.089911796
177	0x3dbb6b74	0.091513544
178	0xbc8487ef	-0.0161781
179	0xb8c5212a	-9.399869e-05
180	0xbaa2ff0c	-0.0012435629
181	0xbd1f8079	-0.03894088
182	0xbd20a8ff	-0.039223667
183	0x3c819817	0.015819592
184	0xb9a48058	-0.0003137614
185	0x3956deea	0.00020491672
186	0x3c5110da	0.012760365
187	0x3dac0faf	0.08401429
188	0xbd8820eb	-0.066469036
189	0x3db6838a	0.08911808
190	0xbc4961b1	-0.012291358
191	0xbc6fe7e7	-0.014642692
192	0xbd9f5691	-0.07780183
193	0x3d032349	0.032016072
194	0x3bbf5859	0.0058393893
195	0xbc3d4b3f	-0.011553585
196	0xb699e10b	-4.585954e-06
197	0xbc45174a	-0.012029478
198	0x3d28fd71	0.041257326
199	0x382d8850	4.1373365e-05
200	0x3c203488	0.009778149
201	0xba9a6f7e	-0.0011782495
202	0x3da4535e	0.080237135
203	0xbcf542e3	-0.02993912
204	0x3cbc5c6a	0.022993285
205	0x3db17984	0.086657554
206	0xbc71a3ce	-0.014748527
207	0x3c29a2ff	0.010353803
208	0x3d8b791a	0.06810208
209	0x3dbd3384	0.092383415
210	0xbd4e5eb3	-0.05038328
211	0x3d2d4f7d	0.042312134
212	0x3d280a7c	0.041025624
213	0x3b942d38	0.004521992
214	0x3cbb7db6	0.022887092
215	0x3a8fdbf8	0.001097559
216	0xbbdf8c5d	-0.0068221525
217	0x3d2e08ee	0.042488985
218	0xbca90bfb	-0.020635596
219	0x3d508898	0.050911516
220	0xbbe09388	-0.0068535246
221	0xbad3b515	-0.0016151989
222	0xbcd0f1c2	-0.025505904
223	0xbd5242e8	-0.051333338
224	0x3d515b09	0.05111221
225	0x3d21cdb1	0.039502803
226	0xbd58eec4	-0.05296208
227	0x3ce0ad3a	0.02742635
228	0xbc7ae6dc	-0.01531383
229	0xbd4d6a08	-0.050149947
230	0x3bd680ef	0.006546132
231	0x3d655962	0.055993445
232	0x3ce7504c	0.02823653
233	0x3da682ab	0.08130392
234	0xbc924537	-0.01785527
235	0x39a773c4	0.00031938974
236	0xbd83f9c4	-0.064441234
237	0x3daa39c6	0.08311801
238	0xbd51f5e7	-0.0512599
239	0x3d9077c5	0.07054094
240	0x3dc80b7e	0.09767817
241	0xbd2f8874	-0.04285474
242	0xbd81886d	-0.06324849
243	0xb94f4156	-0.00019765398
244	0xbd47997a	-0.04873035
245	0x3da989b6	0.082782194
246	0x3c986aac	0.018605553
247	0xbb9c5f5a	-0.004772109
248	0x3da3c14e	0.07995854
249	0xbd1eac3f	-0.038738485
250	0x3cf34563	0.029696172
251	0xbba5651a	-0.0050474526
252	0xbc3e4acc	-0.011614513
253	0xbd1753b8	-0.036945075
254	0x3d1288ab	0.035774868
255	0x3dcb0d0d	0.099145986

encoder.2.bias f4 [64]
0	0xbd7a5687	-0.061117675
1	0x3d81b7c6	0.0633388
2	0xb885130b	-6.345481e-05
3	0xbba15aec	-0.004924169
4	0x3d9f4834	0.077774435
5	0x3d993b64	0.07482031
6	0xbc2e6276	-0.010643592
7	0x3d94b0e2	0.072603
8	0xbca1452f	-0.01968631
9	0x3dceb8f1	0.100938685
10	0xbce1e576	-0.027575236
11	0xbc0c24f3	-0.008553731
12	0x3ae9e79b	0.0017845513
13	0x3be91b01	0.007113815
14	0xb9491f78	-0.00019180577
15	0xbd9d44a4	-0.07679108
16	0xbb704845	-0.003666417
17	0x3d03d684	0.032187
18	0x3c840cd9	0.016119407
19	0x3d31053e	0.04321789
20	0x3c097d6c	0.008391719
21	0xbd68b841	-0.056816343
22	0xbccc363b	-0.024928203
23	0x3d1be8af	0.0380637
24	0x3d6f80ee	0.058472566
25	0x3d584a8b	0.052805465
26	0xbc3cb0b3	-0.011516738
27	0xbdb11ea0	-0.086484194
28	0x3a96a186	0.001149223
29	0x3dbc158b	0.091837965
30	0xbd5cc8ac	-0.053902313
31	0xbd02cbac	-0.031932518
32	0xbd8b23e5	-0.06793956
33	0xbbe25e36	-0.0069082035
34	0x3d08ab61	0.033366565
35	0x3d2c3072	0.04203839
36	0xbc96e064	-0.018417545
37	0x3c9e336b	0.019311627
38	0x3d14b7ed	0.036308218
39	0x3d2cdcd0	0.04220277
40	0x3db0a2b8	0.08624786
41	0xbd9c7230	-0.07638967
42	0xbcd89575	-0.026438454
43	0x3dce8859	0.100846
44	0xbdb94c08	-0.09047705
45	0x3d806527	0.06269293
46	0xba692a70	-0.00088945683
47	0xbd189498	-0.037251085
48	0x3d5dbe00	0.054136276
49	0xbb417089	-0.002951654
50	0x3d9508fc	0.07277104
51	0xbcfc99c1	-0.030835034
52	0xbc66ccbe	-0.0140869
53	0xbd035530	-0.032063663
54	0x3d0c71d7	0.034288254
55	0xbd9dc787	-0.077040724
56	0xbcd0a902	-0.025471214
57	0x3d9f8fdc	0.07791111
58	0xb922e250	-0.00015533832
59	0x3d7f85d8	0.062383503
60	0xbd2e4c7f	-0.04255342
61	0x3d5bc740	0.053656816
62	0xbcb69b85	-0.022290954
63	0x3da1c164	0.078982145

encoder.4.weight f4 [2, 64]
0	0xbe09fc86	-0.13475236
1	0x3c14a7dd	0.009073225
2	0x39941e69	0.00028251417
3	0x39b7375c	0.00034945726
4	0xbe106725	-0.14101847
5	0x3dbb27e4	0.09138468
6	0xbc86b835	-0.016445259
7	0x3e2be598	0.16786802
8	0xbda4c6bc	-0.08045718
9	0xbe07fb55	-0.1327947
10	0xbc6c9b7a	-0.014441365
11	0xbd2f1cda	-0.042752124
12	0x3dc2bef5	0.095090784
13	0xbc88d5d0	-0.016703516
14	0x3b5917e3	0.003312581
15	0xbdf92226	-0.121647164
16	0x3bab3061	0.005224273
17	0xbda11d65	-0.07866935
18	0xbcbeb3cc	-0.023279093
19	0x3d0df1b6	0.03465434
20	0x3d5a219f	0.05325472
21	0xbd54e1c2	-0.051973112
22	0xbd582d41	-0.052777532
23	0xbd7a1eb5	-0.06106444
24	0xbc7c87eb	-0.015413265
25	0x3dbc20b2	0.09185924
26	0xba0f8b06	-0.0005475733
27	0x3df0dd94	0.11761013
28	0x3c40f015	0.01177599
29	0xbd3c34cb	-0.045948785
30	0x3b3fe4db	0.0029280696
31	0x3d797c4e	0.06090956
32	0x3c5b9049	0.0134010995
33	0x3db7c9b2	0.08974017
34	0x3d9826b9	0.07429261
35	0x3daa8003	0.083251975
36	0xbdb8726b	-0.090061985
37	0xbde4ea2c	-0.11177477
38	0xbd2da038	-0.042389125
39	0x3d879761	0.0662067
40	0x3e2ae3df	0.16688488
41	0x3da29074	0.079377085
42	0xbceb7068	-0.028740123
43	0x3d85afd9	0.06527681
44	0xbdee9723	-0.11649921
45	0xbd768c35	-0.060192306
46	0x3c8903ed	0.016725505
47	0x3b369756	0.00278612
48	0xbd661adf	-0.05617797
49	0xbd85e548	-0.065378726
50	0xbc7fa769	-0.015603879
51	0xbbd7204c	-0.0065651294
52	0xbddf3ebb	-0.10900637
53	0xbd931c4a	-0.0718313
54	0xbe293cde	-0.16527125
55	0x3cd2ce97	0.025733275
56	0xbbd7be83	-0.00658399
57	0xbda780bb	-0.0817885
58	0x3929bd04	0.0001618751
59	0x3d30ae41	0.04313493
60	0xbd1e42c1	-0.03863788
61	0x3db4d184	0.088290244
62	0xbc74287d	-0.014902231
63	0x3de3323d	0.110935666
64	0x3ddc652f	0.10761487
65	0x3e10e6e0	0.14150572
66	0xb786f936	-1.6090093e-05
67	0x3c37162c	0.01117472
68	0x3d1f374e	0.038871102
69	0x3dc238b3	0.09483471
70	0xbd6d96a5	-0.058004994
71	0xbdda7a1b	-0.10667821
72	0x3d41a1d3	0.04727347
73	0x3d402a17	0.04691514
74	0x3ccd0080	0.025024652
75	0x3d031aea	0.03200809
76	0x3d98826f	0.07446753
77	0xbd683bd4	-0.05669768
78	0xbc958f12	-0.018256698
79	0x3cf4740a	0.029840488
80	0x38cc06d3	9.728749e-05
81	0x3ce0440e	0.027376201
82	0x3e0e1081	0.13873483
83	0xbd4dd45d	-0.050251354
84	0xba822094	-0.0009927922
85	0xbd989d06	-0.07451825
86	0x3b89002a	0.0041809278
87	0x3c906c32	0.017629717
88	0x3de86944	0.11348203
89	0xbdb4758c	-0.08811483
90	0x3cda9b15	0.026685277
91	0x3d2f403a	0.04278586
92	0x3c72a3e9	0.014809587
93	0x3dbc72ed	0.09201608
94	0xbcd0ed7d	-0.025503868
95	0xbdcd98eb	-0.100389324
96	0xbdd50838	-0.10401958
97	0x3c84f84c	0.016231678
98	0xbb57cd82	-0.0032928889
99	0xbd149045	-0.0362704
100	0x3dc0db84	0.09416869
101	0xbda38327	-0.07984
102	0xbd8261c7	-0.06366306
103	0xbca18b7f	-0.019719837
104	0xbd96b9eb	-0.0735968
105	0xbdb37820	-0.087631464
106	0x3d858610	0.06519711
107	0x3dd0d45c	0.10196754
108	0xbda63071	-0.08114708
109	0x3d6622f7	0.05618569
110	0x3d0f9e75	0.035063226
111	0xbd03fbb5	-0.03222247
112	0xbc9d7189	-0.019219177
113	0x3dab6d73	0.08370485
114	0x3d6edc2b	0.058315437
115	0x3c1a89c4	0.00943226
116	0x3dfcb30d	0.12338839
117	0x3dba23ba	0.090888456
118	0x3deeffc0	0.11669874
119	0xbd082671	-0.033239786
120	0xbd725203	-0.059160244
121	0x3dc634d1	0.09678043
122	0x3a88bb0c	0.0010431721
123	0xbdbfad57	-0.09359234
124	0xbd7f7d57	-0.062375393
125	0x3cd2b526	0.025721144
126	0xbda86d8f	-0.08224022
127	0xbd82f528	-0.06394416

encoder.4.bias f4 [2]
0	0xbda61f72	-0.081114665
1	0x3df9928f	0.12186157

decoder.0.weight f4 [64, 2]
0	0x3e67a2d8	0.22620714
1	0xbf2005e9	-0.6250902
2	0xbf1b8f5c	-0.60765624
3	0xbca4d942	-0.020123128
4	0xbf24a9c2	-0.6432153
5	0x3e86a4aa	0.26297504
6	0x3f178c98	0.59198904
7	0x3f111d4a	0.56685317
8	0xbf01797d	-0.50576
9	0x3db35bf5	0.08757774
10	0x3edb591f	0.42841431
11	0x3f0ee4d1	0.55817896
12	0xbeff4736	-0.49859017
13	0x3f2a9a58	0.6664176
14	0x3f278989	0.65444237
15	0x3ec332fd	0.38124838
16	0x3e97c8dc	0.2964543
17	0x3eb4c2ee	0.3530497
18	0xbe8c37d3	-0.2738634
19	0xbebc5ec8	-0.36791062
20	0x3f0f2909	0.5592199
21	0x3e39b7fd	0.18136592
22	0x3f162f13	0.5866558
23	0x3f0b0777	0.54308265
24	0x3f14b439	0.580875
25	0x3e527b68	0.20554888
26	0xbed5ca0e	-0.41755718
27	0xbce5f1f3	-0.028069472
28	0x3e63e0d1	0.2225373
29	0x3e532d34	0.20622712
30	0x3ee9aa66	0.45637816
31	0x3eaac468	0.3335297
32	0x3ee3c83f	0.44488713
33	0xbe82e791	-0.25567296
34	0xba85c544	-0.0010205884
35	0xbed5d749	-0.41765812
36	0x3f0349a5	0.5128425
37	0xbf00f9db	-0.5038125
38	0x39179a34	0.00014457927
39	0xbedb4ad5	-0.4283053
40	0x3e43ac41	0.19108678
41	0xb69fd4b2	-4.7633303e-06
42	0x3d0908e1	0.033455733
43	0xbe8ed684	-0.27898037
44	0xbda7dcca	-0.08196409
45	0x3f1dc6fd	0.6163176
46	0xbf112491	-0.5669642
47	0xbee0d765	-0.43914333
48	0x3e05585d	0.13021989
49	0x3d254bd9	0.040355537
50	0x3e5e73a5	0.21723802
51	0xbed30a18	-0.41218638
52	0x3f003895	0.5008634
53	0x3ecc39ea	0.39887935
54	0x3e8c7972	0.27436405
55	0x3d63e81a	0.05564127
56	0xbd51bdca	-0.051206388
57	0x3e9e6fff	0.3094482
58	0x3e99109a	0.29895478
59	0xbe0b2cee	-0.13591358
60	0xb696e461	-4.496935e-06
61	0xbe5fe80f	-0.21865867
62	0xbdcbb04a	-0.09945734
63	0x3f0dc1e6	0.5537399
64	0x3f133f7b	0.5751874
65	0x3eb062a7	0.34450266
66	0x3e403de4	0.1877361
67	0xbed0035d	-0.40627566
68	0xbefb75cc	-0.4911331
69	0xbe8091b1	-0.25111154
70	0xbec9de8b	-0.394276
71	0x3b876983	0.004132451
72	0xbf0fa571	-0.5611182
73	0x3f251238	0.64480925
74	0xbd53b757	-0.05168852
75	0xbe4710b8	-0.19439971
76	0xbdc2f2a1	-0.09518934
77	0x3ea0cfac	0.3140844
78	0x3f0589fe	0.52163684
79	0x3e99fc0f	0.30075118
80	0x3ee2a45d	0.44266024
81	0x3bcf8ddb	0.006334049
82	0x3d4334a6	0.04765763
83	0xbeb70673	-0.35747108
84	0xba98d472	-0.0011659993
85	0x3f1cfe59	0.61325604
86	0x3c812c4b	0.01576819
87	0xb9ed7808	-0.00045293593
88	0x3e9f7ab4	0.31148303
89	0xbdf1e028	-0.118103325
90	0xbf07cfe2	-0.5305158
91	0xbed484be	-0.41507524
92	0x3ece52d0	0.40297556
93	0x3ed7f887	0.421818
94	0xbf159248	-0.5842633
95	0xbe9580bf	-0.29199788
96	0xbeae2a5b	-0.3401669
97	0xbcf59efb	-0.029983034
98	0x3de87957	0.11351269
99	0x3d849a79	0.06474776
100	0xbf0a82b2	-0.54105675
101	0xbec40f2a	-0.3829282
102	0xbf1fb6ff	-0.62388605
103	0x3f1f5a5a	0.6224724
104	0x3ebc9a44	0.36836445
105	0x3e9a3bd7	0.3012378
106	0x3e6afc3d	0.22947784
107	0x3f0f9fca	0.56103194
108	0xbe83ff6a	-0.25780803
109	0xbf13777d	-0.576042
110	0x3dc8bdbe	0.098018155
111	0xb8a4772f	-7.842329e-05
112	0x3ee09896	0.43866414
113	0x3ec41b9c	0.38302314
114	0x3f02d2d1	0.5110293
115	0xbe109533	-0.14119415
116	0xbee25d54	-0.4421183
117	0x3d7dfdf6	0.062009774
118	0xbe916c3a	-0.28402883
119	0xbdced402	-0.10099031
120	0xbec36d17	-0.38169166
121	0xbf17eefc	-0.59349036
122	0xbf07955f	-0.529623
123	0x3ec07fff	0.37597653
124	0xbebbdda4	-0.36692536
125	0xbeb6a6dc	-0.3567418
126	0xbeee4f9b	-0.4654511
127	0x3f0d728a	0.552529

decoder.0.bias f4 [64]
0	0x3e1102cc	0.14161223
1	0x3f226810	0.63440037
2	0xbed4acbe	-0.41538042
3	0x3f2aeab2	0.66764367
4	0x3ef8a624	0.48564255
5	0x3e2fcdbe	0.17168328
6	0x3eb2ae7e	0.34898752
7	0x3eaf0a20	0.34187412
8	0xbf0d6249	-0.55228096
9	0x3e964991	0.29353002
10	0xbe2cf6ac	-0.16890973
11	0x3f2e34d9	0.6804939
12	0xbf19a773	-0.6002113
13	0xbf10a848	-0.56506777
14	0x3d0c066e	0.03418582
15	0x3ee5c8f0	0.44879866
16	0x3e8658ac	0.26239526
17	0xbeeddadd	-0.46456042
18	0xbe9c16cd	-0.30486146
19	0xbe17db17	-0.1482967
20	0xbeabfbde	-0.33590597
21	0x3f2bce1f	0.6711139
22	0xbf00990f	-0.5023355
23	0xbeea1f8e	-0.457272
24	0x3f0a4486	0.5401081
25	0x3e30db90	0.17271256
26	0x3e00cb6e	0.12577602
27	0x3d581602	0.052755363
28	0xbed49ff1	-0.41528276
29	0xbec74b4f	-0.38924643
30	0xbedecdbe	-0.43516344
31	0xbf08eed7	-0.5348944
32	0x3f11f6c8	0.57017183
33	0x39f731b1	0.00047148534
34	0x3ea1ac7c	0.31576908
35	0xbecd2182	-0.40064627
36	0x3f0a3fb6	0.54003465
37	0xbefe02ee	-0.4961161
38	0xbdcccb46	-0.09999709
39	0xbb42200d	-0.0029621155
40	0x3f1cb11f	0.61207765
41	0x3eb97501	0.3622208
42	0xbefac9ec	-0.4898218
43	0xb9e0f3bc	-0.00042906206
44	0xbefe39d2	-0.49653488
45	0xbdc08f51	-0.094023354
46	0x3f359299	0.70926815
47	0x3e15d21a	0.14630929
48	0xbef4b484	-0.47793972
49	0x3e074451	0.13209654
50	0x3eaa4822	0.33258158
51	0x3f138869	0.5763002
52	0xbe9f0db7	-0.3106515
53	0xbf12395d	-0.5711878
54	0x3ed1aa1a	0.4095009
55	0xbebbe1f3	-0.36695823
56	0x3daea281	0.08527089
57	0x3dac2af7	0.084066324
58	0x3e112f9b	0.14178316
59	0xbec7ecc9	-0.3904784
60	0x3d819c42	0.06328632
61	0x3e750c82	0.23930553
62	0xbe53bcc0	-0.20677471
63	0xbec94abb	-0.39314827

decoder.2.weight f4 [128, 64]
0	0xbb8dfa3f	-0.00433281
1	0xbc4a736e	-0.012356622
2	0xb9f46a98	-0.00046618725
3	0xbc505581	-0.012715698
4	0x3adf3193	0.0017028324
5	0x3bbb3207	0.005712751
6	0x3b6ff437	0.003661407
7	0x3b2d6ed2	0.002646376
8	0xb856ad93	-5.118323e-05
9	0x3ca6f39e	0.020379838
10	0x3b673764	0.0035280818
11	0x3bd6024d	0.006531036
12	0xb957f38e	-0.00020594729
13	0x39d3e41d	0.00040415014
14	0xbc081474	-0.008305658
15	0x3bd2b4b5	0.0064302334
16	0x3a9faffe	0.0012183187
17	0x3977e988	0.00023642753
18	0xb952a6bf	-0.00020089278
19	0xbc59010e	-0.01324488
20	0xb7d52ece	-2.5413374e-05
21	0x3ce66cb8	0.028128013
22	0x3afe2057	0.00193883
23	0xb8f998d7	-0.00011901714
24	0x3b5de650	0.00338592
25	0xbd18a830	-0.03726977
26	0x3c064cb5	0.008196999
27	0x3ba7d383	0.0051216497
28	0x3bd51659	0.006502908
29	0x38a3eff0	7.8171375e-05
30	0xb66aad0b	-3.4969441e-06
31	0xb8eef853	-0.00011394978
32	0x3bee431a	0.0072711827
33	0x37cbf7b9	2.431484e-05
34	0x3a642588	0.00087031024
35	0xb939732f	-0.00017685884
36	0x3b38588c	0.002812895
37	0x38239282	3.8998674e-05
38	0x3d217103	0.039414417
39	0xbbc46d88	-0.0059945025
40	0x3d2aabad	0.04166763
41	0xbcbec256	-0.023286026
42	0x3af554a8	0.0018717246
43	0x39bfe4fe	0.0003660097
44	0x371361b4	8.784631e-06
45	0x370cec82	8.3997165e-06
46	0x3d061663	0.032736193
47	0xbab485eb	-0.0013772821
48	0xb9ad596f	-0.00033063765
49	0x3bb4636a	0.005505015
50	0xbceb3529	-0.028711872
51	0xbccce651	-0.025012167
52	0x3943ec42	0.00018684662
53	0xb9d65b4e	-0.00040885288
54	0x3c88e34e	0.01670995
55	0xb71db116	-9.39916e-06
56	0x3c841fa4	0.016128369
57	0x3cc8e62c	0.024523817
58	0xbcea3075	-0.02858756
59	0xbb05d0be	-0.002041861
60	0x3aacc6b4	0.0013181777
61	0x3aeb5895	0.0017955477
62	0x39542a3e	0.00020233632
63	0x3a1047b8	0.0005503851
64	0xbc5b8742	-0.013398947
65	0x3db054d2	0.08609928
66	0xbd2910c6	-0.041275762
67	0x3dea90ef	0.11453425
68	0x3dae120d	0.08499537
69	0xbd4dc4d9	-0.050236557
70	0xbdcfb672	-0.101422206
71	0x3df3464f	0.11878645
72	0xbcbdfed1	-0.023192795
73	0x3dff0be1	0.124534376
74	0xbb5ba2db	-0.0033513817
75	0xbd509f03	-0.050932895
76	0xbcd90b66	-0.026494693
77	0xbd1b2f98	-0.037887186
78	0xbd2bf04f	-0.041977223
79	0x3d10883b	0.03528617
80	0xbdeb0f40	-0.11477518
81	0xb93f8f3e	-0.00018268541
82	0xb930e502	-0.0001686998
83	0xbbeee9f6	-0.007291074
84	0x3b353985	0.0027652693
85	0x3be5fdbc	0.007018773
86	0xbdb3c560	-0.08777881
87	0x39d4fc03	0.00040623554
88	0xbd0578d9	-0.032585952
89	0xbda689e3	-0.081317686
90	0xbc99efcc	-0.018791102
91	0xbce59699	-0.028025912
92	0xbdf133cb	-0.11777457
93	0x3ba83c04	0.0051341075
94	0x39fa3952	0.00047726423
95	0xba6dc007	-0.0009069447
96	0x3d46209f	0.048370954
97	0x3bce8d5b	0.006303472
98	0x3e033b12	0.12815502
99	0xbc9eae2c	-0.019370161
100	0xbd73709f	-0.059433576
101	0x3bdab187	0.006673995
102	0x3d73e51e	0.059544675
103	0xbd7fb2c0	-0.06242633
104	0x3dc9b906	0.098497435
105	0x3c6edfb4	0.014579702
106	0x3d3fb65f	0.046804782
107	0xbc152aec	-0.009104472
108	0xbcc8e9ba	-0.024525512
109	0xbd299170	-0.041398466
110	0xbd41f40c	-0.04735188
111	0x3d9e7498	0.07737082
112	0xbc8c7e58	-0.01715009
113	0x3d7130f5	0.05888458
114	0x3d99f90a	0.075182036
115	0x3d8c4598	0.068492115
116	0xbd9a0bda	-0.07521792
117	0x3c927705	0.017879019
118	0xbd4f19d2	-0.050561734
119	0x3c892726	0.0167423
120	0x3dbcce05	0.092189826
121	0xbc852877	-0.016254647
122	0xbdd4e336	-0.103948995
123	0x388b0491	6.628887e-05
124	0xbcd9b654	-0.026576199
125	0xbd829617	-0.063762836
126	0x3a7dba24	0.0009678921
127	0xbdecdde8	-0.11565763
128	0xbd258664	-0.040411368
129	0x3dada8f0	0.08479488
130	0x3e1af956	0.15134177
131	0xbbabf4b3	-0.0052476763
132	0x3dac5a61	0.08415676
133	0xbd94dc92	-0.07268633
134	0x3d9a6936	0.07539599
135	0xbd93d7a0	-0.072188616
136	0xb8885ca8	-6.502244e-05
137	0xbe2fc687	-0.17165576
138	0xb81180a3	-3.4690496e-05
139	0xbd3492e7	-0.04408541
140	0x3cf3cfa4	0.029762097
141	0x38d6baeb	0.000102391314
142	0xbd72c590	-0.05927044
143	0x3d7093bc	0.05873464
144	0x3c54be37	0.012984804
145	0x3d1fe3e6	0.0390357
146	0x3b146caa	0.0022647777
147	0xba3497ac	-0.0006889056
148	0x3c8d3e41	0.017241599
149	0xbda5677f	-0.08076381
150	0x3dbd5b0c	0.092458814
151	0x38f69f41	0.000117598574
152	0xbdf7f4cd	-0.12107239
153	0x3b877012	0.004133233
154	0x3d98c5e8	0.074596226
155	0xbcb5e85c	-0.022205524
156	0x3e1158a5	0.14193971
157	0xbbe9f39d	-0.0071396367
158	0xbc39f3ae	-0.011349602
159	0x3caf286b	0.021381577
160	0xbd8f59e2	-0.06999566
161	0x3ba8e857	0.00515465
162	0x3d8d3b7b	0.068961106
163	0x3ce90fda	0.028449941
164	0x3d084fd1	0.033279244
165	0x3bcde1c9	0.006283019
166	0x3df49300	0.119421005
167	0xbd8ec666	-0.06971435
168	0xbe17b309	-0.1481439
169	0xbd028060	-0.03186071
170	0x3e43c17a	0.19116774
171	0x391171e5	0.00013870707
172	0x39694bb7	0.00022248818
173	0x3ca2a47d	0.019853825
174	0xbb943eed	-0.004524103
175	0x3b8adaa3	0.0042374893
176	0xb9a41ab6	-0.0003130042
177	0xbc4111f7	-0.011784068
178	0xbd820355	-0.06348292
179	0x3d24537b	0.040118676
180	0xbd669496	-0.056294046
181	0x3c049154	0.00809129
182	0xbd3a4f09	-0.04548553
183	0x3b1afe8e	0.0023650262
184	0xbb165159	-0.002293667
185	0x3d008129	0.031373177
186	0x3df4d8af	0.119553916
187	0xbc931d31	-0.017958255
188	0x39236366	0.0001558192
189	0xbd0c1432	-0.034198947
190	0xbba1874b	-0.0049294583
191	0x3e36f690	0.17867494
192	0xbc4aafc4	-0.012371007
193	0xbd507d77	-0.050900903
194	0x3b13d3fd	0.0022556775
195	0xbd4ed640	-0.050497293
196	0xbd634ecc	-0.05549507
197	0xbd538e15	-0.05164917
198	0x3d87ccda	0.06630869
199	0x3b80c027	0.0039291563
200	0x389aa0c1	7.373235e-05
201	0xbc96f75f	-0.018428503
202	0xb9ed9a55	-0.0004531915
203	0x3b05772c	0.0020365221
204	0x3d1d5a3d	0.038416136
205	0x3884a596	6.325093e-05
206	0x399a5aae	0.0002944073
207	0xbaabb0c3	-0.0013098944
208	0xbd188c5c	-0.037243232
209	0xbce6ca52	-0.028172646
210	0x3cc5302c	0.024070822
211	0x3a47d09c	0.0007622333
212	0x3a3e81a7	0.00072672445
213	0x3d1bebfd	0.038066853
214	0x3b45c5a1	0.003017761
215	0x3be6ab26	0.0070394455
216	0x3d313d78	0.04327151
217	0xbcafd443	-0.021463519
218	0x3d17da35	0.037073333
219	0xbc453dab	-0.012038629
220	0x3be5c98a	0.0070125507
221	0x3c586e83	0.013209942
222	0x3d0d6eed	0.034529615
223	0x3b16e01c	0.0023021763
224	0x3cfdd1ce	0.030983832
225	0xbc536937	-0.012903503
226	0x3d4ee68c	0.050512835
227	0xbb03e536	-0.0020125634
228	0xbcda9982	-0.026684526
229	0x37a24db7	1.9348094e-05
230	0x3afa7a5e	0.0019109955
231	0x39350975	0.00017265028
232	0xbc4d8a10	-0.012545124
233	0x3d1befc9	0.038070474
234	0xbab10a3b	-0.0013507077
235	0xbd26b52c	-0.040700123
236	0x386880d6	5.5433098e-05
237	0x3ca710c6	0.02039374
238	0x3c8963bb	0.016771188
239	0x3af4a051	0.0018663501
240	0x3d1a465b	0.037664752
241	0xbb302d0c	-0.0026882319
242	0x3ba141ee	0.0049211895
243	0x3d66328c	0.05620055
244	0xbc64ff2f	-0.013976856
245	0x3d0687b6	0.032844268
246	0xbcc0460d	-0.023470903
247	0xb88e83a0	-6.795605e-05
248	0x3b8c27ee	0.004277221
249	0x371ab06b	9.220191e-06
250	0xbc2814ea	-0.010258893
251	0x38897c00	6.555766e-05
252	0xbb49e88b	-0.0030808772
253	0x3b9db613	0.0048129647
254	0xbc2b9e1d	-0.010474709
255	0xbb35af06	-0.002772273

decoder.2.bias f4 [128]
0	0x3bd29153	0.0064260154
1	0x3dffb462	0.12485577
2	0x3bd54a64	0.006509112
3	0xbd8c29aa	-0.06843884
4	0xb9d2251d	-0.00040081973
5	0x3d880b59	0.066427894
6	0xb945fc00	-0.00018881261
7	0xbd9d8e16	-0.07693116
8	0x3d2ed24c	0.042681023
9	0x3a363a02	0.0006951393
10	0x3d082a3f	0.033243414
11	0xb9526f20	-0.00020068558
12	0xbd9944e8	-0.07483846
13	0x3b73ff48	0.0037231017
14	0xbd9cc234	-0.07654229
15	0xbb9528e6	-0.0045519946
16	0x3c0a792f	0.008451744
17	0x37f5cc26	2.930134e-05
18	0xbdfa2687	-0.1221438
19	0x395299d6	0.00020084469
20	0xbb7a0d70	-0.0038154982
21	0x3e140470	0.14454818
22	0xba03fafa	-0.0005034652
23	0x3db332a2	0.08749892
24	0xbc884f2a	-0.01663931
25	0x3c8d6cbf	0.017263768
26	0x3dc1338b	0.09433659
27	0x3e0d4639	0.13796319
28	0xb8189bea	-3.638483e-05
29	0xbdbf8ded	-0.09353242
30	0x38ed160e	0.00011305149
31	0xbd2afc3f	-0.041744467
32	0x3cd329e1	0.025776805
33	0xb9902174	-0.00027490745
34	0xbd454000	-0.04815674
35	0xbdc19983	-0.09453108
36	0x3c9bacaa	0.019003231
37	0x3d32f078	0.04368636
38	0x39522f85	0.00020044863
39	0x3dca6bd3	0.09883847
40	0x3c302d4e	0.010752989
41	0x3dc143bc	0.094367474
42	0xbb321df8	-0.0027178507
43	0x3857b4a0	5.1428215e-05
44	0x3d9e3ab2	0.07726039
45	0xbaa4b063	-0.0012564774
46	0xbc6fa9e5	-0.014627908
47	0x3d804630	0.06263387
48	0x3d4bbff3	0.049743604
49	0xbcfa7bb3	-0.030576563
50	0xbd84319f	-0.06454777
51	0xb9be705e	-0.00036323344
52	0xbc539710	-0.012914434
53	0xbd1e4a60	-0.03864515
54	0x3e0d050b	0.13771455
55	0x3b75d226	0.0037509291
56	0xbd269103	-0.040665638
57	0xbc00f684	-0.007871274
58	0x3d0425c6	0.032262586
59	0x3c56b22d	0.013104004
60	0xb82fea6e	-4.194158e-05
61	0xbb30b333	-0.002696228
62	0xbdcaa145	-0.09894041
63	0xbde5737e	-0.11203669
64	0x3731590e	1.0570757e-05
65	0xbd9a67ce	-0.075393304
66	0x3bbc7a7e	0.005751907
67	0xbc92cc8c	-0.017919801
68	0x3dd0742c	0.10178408
69	0xbcf134f9	-0.029444205
70	0x3d18b16b	0.037278574
71	0x3dd588b5	0.104264654
72	0xbbbd64b9	-0.0057798293
73	0x3c419a9e	0.011816649
74	0xbbb20bf0	-0.005433552
75	0x3e071d0d	0.13194676
76	0x3c8c55fd	0.017130846
77	0xbb338cf2	-0.0027397242
78	0x3daa89ee	0.08327089
79	0x3d7d058c	0.061772868
80	0x3c0f776c	0.0087565
81	0x3d21548b	0.039387267
82	0xbd052105	-0.032502193
83	0xbcbf3044	-0.023338445
84	0x39546f21	0.00020259294
85	0xbd39b300	-0.045336723
86	0x3d87d824	0.066330224
87	0x3de2b29c	0.11069223
88	0x3dc3b404	0.0955582
89	0x3dd01005	0.101593055
90	0x3db565f5	0.088573374
91	0xbdf5b03f	-0.11996507
92	0x3d25d884	0.04048969
93	0x397355d5	0.00023206261
94	0x3cf1930a	0.029489059
95	0x3cbd27a1	0.023090186
96	0xbd011b13	-0.03151996
97	0x3cc0f995	0.02355651
98	0xbaa1a3d5	-0.0012332151
99	0x3e124581	0.14284326
100	0x3cbb6342	0.022874478
101	0xb9f49d14	-0.0004665634
102	0xba9a942b	-0.0011793425
103	0xbc168c34	-0.0091887005
104	0xbce02662	-0.027362052
105	0xbcc63f4e	-0.024200108
106	0xb89dfc34	-7.53332e-05
107	0x3d953256	0.072849914
108	0xbc960a7f	-0.018315552
109	0xbb652607	-0.0034965293
110	0x39b02627	0.00033597762
111	0xbcf4cf97	-0.029884143
112	0x3df5ba55	0.11998431
113	0x3b4d179c	0.003129459
114	0xbd7a37d2	-0.06108839
115	0x3dcc88ae	0.09987007
116	0x3cb1d5cf	0.021708397
117	0xbda977a3	-0.08274772
118	0xbcbe4373	-0.023225522
119	0x3db59932	0.0886711
120	0x3d936c92	0.071984425
121	0x3d7dfded	0.06200974
122	0xbd856cd3	-0.06514897
123	0x3e112092	0.14172581
124	0xbd098e6c	-0.03358309
125	0x3da3d77a	0.08000083
126	0xbc975742	-0.018474225
127	0x3d2f4dd6	0.04279884

decoder.4.weight f4 [16, 128]
0	0xbc60ce1d	-0.013721016
1	0x3d20bf88	0.03924516
2	0xbddca7d4	-0.10774198
3	0x3a8183e6	0.0009881228
4	0xb7fbff50	-3.004042e-05
5	0x3da837c9	0.08213765
6	0xb8f1fce0	-0.00011538877
7	0x3c924357	0.017854376
8	0x3d98fd43	0.07470181
9	0xbd715492	-0.058918543
10	0xbd5d8576	-0.054082356
11	0xb883f4a7	-6.292137e-05
12	0x3d451735	0.048117835
13	0x3dc1c73f	0.09461831
14	0xbd43713f	-0.04771542
15	0xbc1fc826	-0.009752309
16	0xb77bca98	-1.5007936e-05
17	0xb9217b98	-0.00015400199
18	0x3a9432f9	0.0011306695
19	0x380c3793	3.343036e-05
20	0xbb532c58	-0.0032222476
21	0x3db39f1b	0.08770581
22	0xb710f0a8	-8.639101e-06
23	0x3b0d838d	0.0021593303
24	0x386cf195	5.6491775e-05
25	0x3c97086b	0.018436631
26	0xbc0c5f64	-0.008567665
27	0x3dba1260	0.09085536
28	0x39cfb192	0.00039614417
29	0xbcbed519	-0.023294972
30	0xb8d4b9cf	-0.00010143557
31	0xbcf9d196	-0.030495446
32	0x3c37e6a9	0.011224427
33	0xba0f372c	-0.00054632383
34	0x3d3ddb94	0.046351984
35	0xbd68570e	-0.056723647
36	0x3dd67ae7	0.104726605
37	0x3d5383ea	0.051639475
38	0xbb92f6dc	-0.0044849943
39	0x3c458111	0.012054698
40	0x3de38725	0.11109761
41	0xbd709037	-0.058731284
42	0xbcaf6a68	-0.021413043
43	0x3c3a1de0	0.011359662
44	0x3d1f8313	0.03894336
45	0x3c237209	0.009975919
46	0x3839c142	4.4287422e-05
47	0x3d47dd71	0.048795167
48	0x3b163e8b	0.0022925462
49	0x3dc53a8a	0.09630306
50	0x3d97e78d	0.07417212
51	0xb90f69a9	-0.00013676904
52	0x3d0955a5	0.033528943
53	0x37e4d241	2.7277625e-05
54	0x3aa438d0	0.0012529138
55	0xb8d1f47b	-0.00010011435
56	0xbab7e9d3	-0.0014031477
57	0x3bd8bb39	0.0066141156
58	0x3dfebd33	0.12438431
59	0x3dae97fb	0.08525082
60	0x3b9a6d5e	0.0047127446
61	0x3d96ae82	0.073575035
62	0x3d8226c0	0.06355047
63	0xbcb96cfe	-0.02263498
64	0xbb2c4567	-0.0026286484
65	0xb93fa279	-0.00018275705
66	0xbd45bc83	-0.048275482
67	0x3d1af452	0.03783066
68	0x3d864a5a	0.0655715
69	0x3de59b38	0.11211246
70	0x3dc58d33	0.09646072
71	0x3d8094fd	0.06278417
72	0xbd679857	-0.056541767
73	0xb8fdafdd	-0.00012096737
74	0x3d22bc2d	0.03973024
75	0xbcb783a3	-0.022401636
76	0x388a7966	6.602965e-05
77	0x362c0e7e	2.5638433e-06
78	0xbd6ddf27	-0.058074143
79	0x3d29e6f3	0.041480016
80	0xb9ca1790	-0.00038545998
81	0x3dd6ead3	0.10494008
82	0x39f38337	0.00046446334
83	0x3c5e0b8a	0.013552556
84	0x379cd22b	1.8694516e-05
85	0xbd80be44	-0.0628629
86	0xbd5486f8	-0.05188653
87	0x3ddcdaf3	0.10783949
88	0xbcf47aa2	-0.029843632
89	0xbc3d38b5	-0.011549165
90	0x3c119ed7	0.008887968
91	0x3d92c9a3	0.071673654
92	0xb81e860c	-3.7794976e-05
93	0x3a83b143	0.0010047335
94	0xbbf8fa8b	-0.0075982264
95	0x3d81ea47	0.06343513
96	0x3d052b3c	0.032511935
97	0x399fa98e	0.0003045317
98	0x3954d07e	0.00020295565
99	0xbc161f34	-0.009162713
100	0x3b0c5994	0.0021415697
101	0x39b17ba5	0.00033852193
102	0x3c02ddec	0.007987481
103	0xb809c88c	-3.285012e-05
104	0x3c64b6b1	0.013959573
105	0x3838195a	4.389263e-05
106	0xb9fa4603	-0.0004773588
107	0x3c4ae74a	0.012384245
108	0xb662b9f1	-3.3784856e-06
109	0x3c15df6f	0.009147509
110	0xb9fa89c6	-0.00047786365
111	0xb94ef3ee	-0.00019736562
112	0x3ce6c0fc	0.028168194
113	0xb8862224	-6.395977e-05
114	0xbcf9a5c1	-0.030474545
115	0x3dc8bb08	0.098012984
116	0xbd0ee20d	-0.034883548
117	0xbd656c0d	-0.05601125
118	0x3d8c89d3	0.068622254
119	0x3dcfbf08	0.10143858
120	0xbb95723f	-0.0045607383
121	0xbd83dd9e	-0.064387545
122	0x3d830e74	0.06399241
123	0x3de5bcdf	0.11217665
124	0x3d5747b3	0.052558612
125	0xbbf15bcc	-0.0073656794
126	0x394f69cc	0.00019780471
127	0xbce19ee2	-0.027541582
128	0x3bf3fd66	0.007445979
129	0xbcdd223a	-0.02699386
130	0xbd91597c	-0.07097146
131	0xbb4521b3	-0.00300799
132	0x3940f8c3	0.00018403218
133	0x3dd2a3c2	0.102851406
134	0xbbf8098a	-0.0075694965
135	0x3d7827d3	0.060584854
136	0x3c79ef99	0.015254878
137	0xbc774bb3	-0.015093732
138	0xbcda358b	-0.02663686
139	0xb6858c67	-3.980054e-06
140	0x3c18cc34	0.00932603
141	0xbd26182e	-0.040550403
142	0x3ca2f9e0	0.01989454
143	0x3b3c9d38	0.0028780233
144	0x39f38453	0.0004644716
145	0xb7242b2c	-9.7852135e-06
146	0xbd3d5a02	-0.046228416
147	0xba4b5e5a	-0.0007757895
148	0x3d477e25	0.048704285
149	0x3c7f6edd	0.015590397
150	0xb59aae7a	-1.1524673e-06
151	0x3da12888	0.07869059
152	0x3aacc403	0.0013180975
153	0xbd70b649	-0.05876759
154	0xbc51f340	-0.012814343
155	0xbd2da073	-0.042389344
156	0xbc4ee7f7	-0.012628547
157	0x3c8ce40d	0.017198587
158	0x3c450cad	0.012026948
159	0x3c0d26e5	0.00861523
160	0xbd23612f	-0.039887603
161	0xb9b57741	-0.0003461186
162	0xbc804c6b	-0.015661439
163	0xbb93cedb	-0.004510743
164	0x3db6c27f	0.08923816
165	0x3deda9d9	0.116046615
166	0xb7d747de	-2.5663463e-05
167	0x3dd0d426	0.10196714
168	0xbd6c9719	-0.057761285
169	0x3d818e9e	0.0632603
170	0xbcd2c4e4	-0.02572865
171	0x39388323	0.0001759646
172	0xbd26adda	-0.04069314
173	0x3c3a48d3	0.011369902
174	0x39d8cf27	0.0004135307
175	0x3d43c7bc	0.047797903
176	0x3dbfe1f5	0.0936927
177	0x3db4897e	0.08815287
178	0x3d96e821	0.07368494
179	0x39977db4	0.0002889462
180	0x3d83e602	0.06440355
181	0x3bd78d50	0.006578125
182	0x3d857eed	0.0651835
183	0x38fd14f4	0.00012067883
184	0xbd1faa9b	-0.03898106
185	0xba528b5e	-0.00080316316
186	0xbc69f434	-0.014279414
187	0xbcbe35d7	-0.023219032
188	0xb89e82e6	-7.558409e-05
189	0xbbee0d3b	-0.007264761
190	0x3ce31d00	0.02772379
191	0x3dddcc76	0.108300135
192	0xbc38f63e	-0.011289177
193	0xb76d8aa5	-1.41585815e-05
194	0x3da9a502	0.08283426
195	0x3d8802cc	0.066411585
196	0x3d79c869	0.06098214
197	0xbbfc0b22	-0.007691757
198	0xbb85cfc9	-0.004083608
199	0x3d4eba9c	0.050470933
200	0x3d322f06	0.043501876
201	0x385cf016	5.2675685e-05
202	0x3c76ea46	0.015070504
203	0x3d81d1b0	0.06338823
204	0xba80f789	-0.0009839396
205	0x3b859442	0.0040765116
206	0xbd6dfda6	-0.058103226
207	0x3d889b1b	0.06670209
208	0xb9686cde	-0.000221658
209	0x3c5ed35d	0.013600198
210	0xb9ac7f44	-0.00032901217
211	0xb9bfbb31	-0.00036569827
212	0x3c3134cc	0.01081581
213	0xbc35ebd9	-0.011103594
214	0xbd543da2	-0.05181659
215	0x3dea2e81	0.11434651
216	0x3da34f51	0.07974113
217	0x3d487ab0	0.04894513
218	0x3d9300b1	0.07177866
219	0xbb9ad958	-0.0047256164
220	0xb8be19ca	-9.0647096e-05
221	0xb83434c2	-4.296448e-05
222	0x3d3b1c03	0.04568101
223	0x3daa851f	0.08326172
224	0xba68761f	-0.0008867699
225	0x3a52a960	0.0008036103
226	0xb9fd528b	-0.0004831742
227	0x3b8fb8d7	0.0043860483
228	0x3d7daae5	0.061930556
229	0xbb0b1345	-0.0021221202
230	0x39f8c1a8	0.0004744653
231	0x386764be	5.5168515e-05
232	0xb9b10479	-0.00033763403
233	0xbb61bef7	-0.00344461
234	0xb84b86b8	-4.8524438e-05
235	0x3ce6f57a	0.028193224
236	0x392afdc6	0.00016307001
237	0x3c042338	0.008065037
238	0xbc1e859a	-0.009675408
239	0x357cd865	9.419221e-07
240	0x3d88e064	0.06683424
241	0xbaad76c1	-0.0013234244
242	0x3d55c235	0.052187163
243	0x3d0e5453	0.034748387
244	0xbd7cc2e3	-0.061709296
245	0xbb02ae76	-0.0019940413
246	0x3d997a0b	0.07493981
247	0xbc387ac2	-0.0112597365
248	0xbd0497ce	-0.032371335
249	0x3d16bf75	0.03680368
250	0x3d3bfa2b	0.045892876
251	0x3db2e645	0.08735327
252	0x3d931d4a	0.07183321
253	0x3d2853d9	0.04109559
254	0xbc299ff2	-0.010353075
255	0x3d355827	0.04427352

decoder.4.bias f4 [16]
0	0xbc82f872	-0.015987609
1	0xbc532427	-0.012887037
2	0x3d021499	0.031757925
3	0xbd5c218b	-0.053742927
4	0xbcf869f6	-0.030323964
5	0x3d9b7e19	0.075924106
6	0xbda36289	-0.079777785
7	0xbd4d43aa	-0.050113358
8	0x3ccc8161	0.024964036
9	0x3db20e6d	0.08694158
10	0xbd760655	-0.060064632
11	0xbd56d3e1	-0.052448157
12	0xbcd530a7	-0.026024176
13	0x3d814c01	0.06313325
14	0xbc219284	-0.009861592
15	0x3d9ccbe5	0.07656077
